models/gat_baseline_focal_gat_model.pt (torch, 260318 bytes, 10 tensors)

conv1.att_src f4 [1, 4, 64]
0	0x3e6b0599	0.22951354
1	0x3eaed7bf	0.34148976
2	0x3ead4518	0.33841777
3	0xbd0df239	-0.03465483
4	0xbdd633b2	-0.10459079
5	0xbe40b2ac	-0.18818158
6	0x3e21439d	0.15748449
7	0xbe4cd8fe	-0.20004651
8	0xbe04cb31	-0.12968136
9	0x3cd4813b	0.025940528
10	0x3cf71493	0.030161178
11	0x3e5c98c7	0.21542655
12	0xbea96f0d	-0.33092538
13	0x3e61aeb7	0.22039305
14	0x3c4ec507	0.012620217
15	0x3e9b6cbd	0.30356398
16	0xbdd98b4b	-0.10622271
17	0xbe4eaf57	-0.20184074
18	0x3e46b8ac	0.19406384
19	0x3e5e91e3	0.21735339
20	0xbe590802	-0.21194461
21	0x3e08688d	0.13321133
22	0x3e9d284e	0.30694813
23	0xbe30d7aa	-0.1726977
24	0x3e4fb03a	0.20282069
25	0xbd7680cc	-0.060181424
26	0xbd0ac269	-0.03387681
27	0xbe95eac3	-0.2928067
28	0xbe7fcbda	-0.24980107
29	0x3e0191a9	0.12653221
30	0xbe054aa4	-0.13016754
31	0xbd598ecb	-0.053114694
32	0xbe3c101b	-0.18365519
33	0x3e9abf7f	0.30224225
34	0x3e2dacab	0.16960399
35	0xbc64b811	-0.0139599005
36	0x3e3a7187	0.1820737
37	0x3e7d0e24	0.24712425
38	0x3e561c3e	0.20909211
39	0x3db59b1a	0.08867474
40	0x3d9dc99d	0.0770447
41	0x3d3591f7	0.044328656
42	0x3d1b170a	0.03786377
43	0x3e465dfb	0.19371788
44	0xbe9a96d5	-0.301932
45	0xbd64a43e	-0.055820696
46	0xbdd758c7	-0.1051498
47	0x3d87e788	0.06635958
48	0x3cba801a	0.022766162
49	0xbde2e985	-0.110796966
50	0xbcf7d72c	-0.03025397
51	0x3d88d438	0.066811025
52	0x3ea2e886	0.31818026
53	0xbd69e3af	-0.0571019
54	0x3eaddf02	0.33959204
55	0xbd326b0e	-0.043559127
56	0x3d8fd3c7	0.07022815
57	0xbe5f2d86	-0.2179471
58	0x3c20da80	0.009817719
59	0xbe286eae	-0.16448471
60	0xbe99ad54	-0.3001505
61	0x3ddf3633	0.108990096
62	0x3e5d2906	0.2159768
63	0x394b70b9	0.00019401581
64	0xbe320f56	-0.17388663
65	0xbe383c1f	-0.17991684
66	0x3e69cc18	0.22831762
67	0xbca34ebf	-0.01993501
68	0x3e2551ff	0.1614456
69	0x3e1e21fa	0.15442649
70	0xbe122c08	-0.14274609
71	0xbe96fc7e	-0.2948951
72	0x3e29e07f	0.16589545
73	0x3e8442cb	0.2583221
74	0xbb4ba542	-0.0031073843
75	0xbd740378	-0.05957362
76	0xbdd3a6b1	-0.10334528
77	0xbd3febbd	-0.046855677
78	0xbe88ffc6	-0.2675764
79	0x3e039de9	0.12853207
80	0x3e438a4f	0.1909573
81	0xbdb91326	-0.090368554
82	0xbe31fadb	-0.1738085
83	0xbdeccf5b	-0.115629874
84	0xbd0c33a4	-0.034228936
85	0x3e0fb6d2	0.14034584
86	0xbe5627a5	-0.2091356
87	0x3e557d49	0.20848574
88	0x3e101776	0.1407145
89	0x3d759a04	0.059961334
90	0xbe19facb	-0.15037076
91	0x3d2db5bc	0.042409644
92	0x3dd0bee0	0.101926565
93	0xbd06c6b1	-0.03290433
94	0x3d1ccdca	0.038282193
95	0x3da4e69c	0.08051798
96	0x3e4328dd	0.19058557
97	0x3e776337	0.24158941
98	0x3a736929	0.00092853844
99	0x3d971cb9	0.07378525
100	0x3defa787	0.11701875
101	0xbe2a81c3	-0.16651063
102	0x3c963fd0	0.018340975
103	0x3dcccf1f	0.10000443
104	0xbd9b500a	-0.075836256
105	0xbe3ab88d	-0.18234463
106	0x3da19b79	0.07890982
107	0xbdfd1b13	-0.123586796
108	0x3e2348b4	0.15945703
109	0x3e79434a	0.24342075
110	0x3e0f10c1	0.13971235
111	0x3e444284	0.19165999
112	0x3def9eb0	0.11700189
113	0xbe19c4af	-0.15016435
114	0x3daef8be	0.085435376
115	0xbcf3afee	-0.029746976
116	0xbd32c0e0	-0.04364097
117	0xbddee1e3	-0.10882928
118	0x3dd9264a	0.10603006
119	0x3e70c827	0.23513852
120	0xbdd99dee	-0.10625826
121	0xbdc9fcfd	-0.09862707
122	0x3e22f831	0.1591499
123	0xbe167e09	-0.14696516
124	0x3e2684e0	0.16261625
125	0x3daf4700	0.08558464
126	0xbd0fe1dc	-0.035127506
127	0x3e6fc3ae	0.2341449
128	0x3e52411c	0.2053265
129	0xbb8d34f2	-0.00430929
130	0xbd6e50c3	-0.05818249
131	0xbdfb4aea	-0.12270148
132	0xbe331d7b	-0.17491715
133	0xbe2765e8	-0.16347468
134	0xbda67b9b	-0.081290446
135	0xbd96cc02	-0.0736313
136	0x3d8e71c0	0.0695529
137	0xbd9b77d5	-0.075912155
138	0x3e566d9f	0.20940255
139	0xbc4f650b	-0.012658368
140	0xbe097f7d	-0.13427539
141	0xbc349b5e	-0.011023371
142	0x3b9c5316	0.004770647
143	0xbd64ab6c	-0.055827543
144	0xbd3a0a8b	-0.04542021
145	0xbc6f8f50	-0.014621571
146	0x3d82c9b6	0.063861296
147	0xbe153dc5	-0.14574344
148	0x3da5efc7	0.081023745
149	0x3d2c587f	0.042076584
150	0x3e004298	0.12525403
151	0x3be11c7a	0.0068698497
152	0x3e30db36	0.17271122
153	0xbe1334c0	-0.14375591
154	0xbcb555f0	-0.022135705
155	0x3e0dae4d	0.13836022
156	0x3dd2dfce	0.102965936
157	0xbe00d629	-0.12581696
158	0xbdb30f6b	-0.08743175
159	0x3decd0b9	0.11563248
160	0x3d11aea4	0.03556694
161	0xbe5a4a7e	-0.21317479
162	0xbd8d1005	-0.06887821
163	0xbd79fa9b	-0.06103001
164	0x3bf40df7	0.007447954
165	0xbe3e9a99	-0.18613662
166	0xbc743c23	-0.014906916
167	0xbde7c6d9	-0.11317224
168	0xbd91511a	-0.07095547
169	0xbd721267	-0.05909958
170	0x3de9871c	0.11402723
171	0xbe2f7df8	-0.17137897
172	0xbe2f9a80	-0.17148781
173	0x3e0f6853	0.1400464
174	0xbd2d4600	-0.042303085
175	0xbe4e4aa2	-0.20145658
176	0x3b593804	0.003314496
177	0xbc315721	-0.010823996
178	0x3e509cb0	0.20372272
179	0xbe55d4d8	-0.20881975
180	0x3c72386c	0.01478396
181	0xbe2756df	-0.16341732
182	0x3c9106ae	0.01770338
183	0xbda616ec	-0.08109841
184	0xbc0ad8fe	-0.0084745865
185	0x3e37d846	0.17953596
186	0xbd276b34	-0.04087372
187	0x3e09c23e	0.13453004
188	0x3d6b784f	0.057487782
189	0xbdcfddef	-0.10149752
190	0xbc1928b0	-0.00934808
191	0xbdea3492	-0.11435808
192	0xbe99b12c	-0.30017984
193	0x3d84c8bf	0.06483602
194	0xbe44bb54	-0.19212085
195	0xbe333a36	-0.17502674
196	0xbe18d6f9	-0.14925756
197	0xbc529788	-0.012853511
198	0x3da01719	0.078169055
199	0x3e5da125	0.21643503
200	0x3e68a8b8	0.22720611
201	0xbe94cce7	-0.29062578
202	0x3de4d82c	0.11174044
203	0x3da3ef21	0.080045946
204	0x3e64aa93	0.22330694
205	0xbdadfaf9	-0.08495135
206	0xbe9316a5	-0.28728214
207	0xbd1a64c0	-0.03769374
208	0x3e7fba06	0.24973306
209	0xbde294df	-0.11063551
210	0x3e3b78e1	0.1830783
211	0xbe2265d3	-0.15859155
212	0xbbe6d2d5	-0.007044176
213	0x3b59bd9e	0.0033224593
214	0xbc4a547c	-0.012349244
215	0xbdc5b5d3	-0.09653821
216	0xbe18e993	-0.14932851
217	0x3e8cd070	0.27502775
218	0x3e6c956c	0.23103875
219	0x3e194f4f	0.1497166
220	0xbe86aa5d	-0.26301852
221	0xbe896a04	-0.26838696
222	0x3d490bfa	0.049083687
223	0xbd44ca91	-0.048044745
224	0xbe41e598	-0.1893524
225	0x3e394099	0.18091048
226	0xbe8eee02	-0.2791596
227	0xbd34bd25	-0.044125695
228	0x3d0b4ecf	0.034010705
229	0x3dc58968	0.09645349
230	0xbeb058bf	-0.34442708
231	0x3e9fd8d9	0.3122013
232	0xbdac6685	-0.084179915
233	0x3e0ca9c6	0.13736638
234	0x3db8b592	0.09019007
235	0x3eb34e08	0.3502047
236	0xbe13be0a	-0.14427963
237	0xbdd141de	-0.10217641
238	0x3c929970	0.01789543
239	0x3e883c46	0.26608485
240	0xbd9cd636	-0.07658045
241	0xbca9c2fa	-0.020722855
242	0x3e1f252d	0.15541525
243	0xbe66d9af	-0.22543977
244	0xbd3edf97	-0.04659995
245	0xbd9d0924	-0.07667759
246	0x3e58df62	0.21178964
247	0xbda0ec1f	-0.078575365
248	0x3cbe13d2	0.02320281
249	0x3e90d864	0.28290093
250	0xbcdbff1f	-0.02685505
251	0xbd5bfa45	-0.053705472
252	0xbba21be2	-0.0049471715
253	0x3dd5df02	0.10442926
254	0xbdcedeef	-0.10101115
255	0x3e71deac	0.23620099

conv1.att_dst f4 [1, 4, 64]
0	0xbca73d14	-0.020414867
1	0x3d29320c	0.041307494
2	0xbcec59f1	-0.028851481
3	0x3d09f7af	0.033683475
4	0xbc0b0a81	-0.008486391
5	0xbd0aa994	-0.03385313
6	0xbdf3ef53	-0.11910882
7	0xbc90f1ed	-0.017693484
8	0xba1a0008	-0.00058746384
9	0x3a869b00	0.0010269582
10	0xbb506eea	-0.0031804391
11	0xbb7c1b16	-0.0038468293
12	0xbd08f970	-0.033441007
13	0xbd8893cf	-0.06668817
14	0xbb9ff662	-0.004881666
15	0xbb9ad4ae	-0.0047250604
16	0xbd8f6e7b	-0.07003494
17	0xbd50a22b	-0.050935905
18	0x3d732f2d	0.059371162
19	0x3c2be219	0.010490918
20	0xbc8666ea	-0.016406495
21	0xbc7afc76	-0.01531898
22	0xbdb7897b	-0.08961769
23	0xbac4518c	-0.0014977916
24	0x3cced4bf	0.02524793
25	0xbc89ee59	-0.016837286
26	0xbd686328	-0.056735188
27	0xbcb71e04	-0.02235318
28	0xbc90e585	-0.017687568
29	0xbd789d92	-0.060697146
30	0xbd835fb3	-0.064147376
31	0xbd38e9b6	-0.04514476
32	0xbd1addd7	-0.03780922
33	0xbd66317b	-0.056199532
34	0xbcc3395c	-0.023831062
35	0x3cae6dc1	0.02129257
36	0xbcc32e64	-0.023825832
37	0xbcb4d55e	-0.022074398
38	0xbd07975b	-0.03310333
39	0xbd9c0f63	-0.07620122
40	0x3c6e6b65	0.014551972
41	0x3d6aa5c3	0.05728699
42	0x3bec5686	0.007212463
43	0xbb970bbb	-0.0046095527
44	0x3b1968e8	0.0023408476
45	0x3a4110ad	0.00073648506
46	0x3ca0928c	0.019601129
47	0x3d52471e	0.051337354
48	0xbcd22d66	-0.025656413
49	0xbcec36c5	-0.02883471
50	0xbd1f7728	-0.038931996
51	0xbc9425cd	-0.018084431
52	0x3d56141c	0.05226527
53	0x3d3b697f	0.045754906
54	0xbe4504d4	-0.19240123
55	0x3cb13d85	0.02163578
56	0x3d26ea90	0.04075104
57	0xbc0d0feb	-0.008609752
58	0x3c8632d6	0.016381662
59	0xbddd3841	-0.10801745
60	0x3d626b52	0.05527813
61	0x3d608de5	0.05482282
62	0xbd1934dd	-0.03740393
63	0x3c85616b	0.016281804
64	0xbd7e2dd1	-0.062055413
65	0x3d1f68fd	0.038918484
66	0x3c59a579	0.013284081
67	0xbccbfae7	-0.024899913
68	0xbdaa0b14	-0.08302894
69	0xbb3604fa	-0.0027773962
70	0x3d4323aa	0.047641434
71	0xbcabeea4	-0.020987816
72	0xbd990c1e	-0.07473014
73	0xbbd1daa2	-0.006404237
74	0xbd0caa99	-0.034342382
75	0xbdb677ee	-0.089095935
76	0x3da85412	0.0821916
77	0x3d9e039a	0.07715531
78	0x3c099fba	0.008399898
79	0xbd52cab9	-0.051462863
80	0xbd28799c	-0.0411316
81	0xb9e586e8	-0.00043778797
82	0x3dd47305	0.10373501
83	0xbd9dd939	-0.077074476
84	0x3d3f72bd	0.046740282
85	0x3dcdb1bd	0.100436665
86	0xbd019088	-0.031631976
87	0x3d306cea	0.04307262
88	0x3d548a27	0.051889565
89	0xbe42023e	-0.18946168
90	0xbdfc3f2e	-0.12316738
91	0x3cabd12b	0.020973762
92	0xbd850259	-0.064945884
93	0x3dcdcbac	0.10048613
94	0x3cfcdc24	0.03086669
95	0x3d02b298	0.0319086
96	0xbcd2d602	-0.025736813
97	0xbd0b6fb0	-0.03404206
98	0x3cc78eab	0.024360022
99	0x3de46128	0.111513436
100	0x3d4a4b48	0.0493882
101	0xbd944a78	-0.07240766
102	0xbd081fc2	-0.03323341
103	0x3d5eb728	0.05437389
104	0x3dde5456	0.108559296
105	0xbd49fe68	-0.049314886
106	0xbc2af58f	-0.010434522
107	0xbe4ed3a0	-0.20197916
108	0x3ca69dc2	0.020338897
109	0xbc608b0f	-0.013705029
110	0x3d979787	0.074019484
111	0x3ddcf803	0.10789492
112	0x3ca0e263	0.0196392
113	0x3db223b3	0.08698215
114	0x3c23ff1a	0.010009551
115	0xbd6f27a7	-0.058387425
116	0x3cd71e58	0.026259586
117	0xbd6e8286	-0.058229946
118	0xbd94a242	-0.07257511
119	0xbe36ce56	-0.17852148
120	0xbdd77fec	-0.10522446
121	0x3dea98d6	0.114549324
122	0x3ccd7211	0.025078805
123	0xbd8f0635	-0.06983606
124	0x3b41caa3	0.0029570244
125	0x3d2c45c2	0.042058714
126	0xbc307e22	-0.01077226
127	0xbd90ac48	-0.0706411
128	0xbb9161e1	-0.004436717
129	0xbbdce89b	-0.006741596
130	0xbd59ce69	-0.053175364
131	0xbda62fd7	-0.081145935
132	0xbc8d041c	-0.017213874
133	0x3b867acf	0.0041039954
134	0x3cfd512f	0.0309225
135	0xbce8369c	-0.028346352
136	0x3d52f2ec	0.0515012
137	0xbdc4f751	-0.09617484
138	0x3d193301	0.037402157
139	0x3cff61bf	0.031174539
140	0xbd43fee0	-0.04785049
141	0xbd356446	-0.04428508
142	0xbdad1a70	-0.08452308
143	0x3d81472e	0.063124046
144	0xbdbe32a0	-0.09287
145	0xbd59b9fc	-0.053155884
146	0xbc815831	-0.015789123
147	0xbd9e5d28	-0.07732612
148	0xbdaec287	-0.08533197
149	0xbcee3e31	-0.02908239
150	0xbd444928	-0.04792133
151	0xbd7d02a5	-0.0617701
152	0xbd737043	-0.059433233
153	0xbceed7de	-0.029155668
154	0x3ce66a6c	0.028126918
155	0x3ddf291a	0.108965114
156	0x3d55228c	0.0520349
157	0x3d6aedf5	0.05735584
158	0xbdf3d856	-0.11906497
159	0xbcc2d744	-0.023784287
160	0xbc1635cb	-0.009168099
161	0xbcc4241d	-0.023943001
162	0x3d33429e	0.043764703
163	0x3bb5cf04	0.00554836
164	0xbd64d69a	-0.055868722
165	0x3ca66f27	0.020316673
166	0xbd1a8a89	-0.037729774
167	0x3d8479d7	0.064685516
168	0xbd45b5a2	-0.04826892
169	0xbd23b218	-0.039964765
170	0xbda13581	-0.07871533
171	0xbd93af91	-0.07211221
172	0xbdae9f02	-0.08526422
173	0xbbd3a631	-0.0064590205
174	0x3c752431	0.014962242
175	0xbe179bc9	-0.14805521
176	0x3ddf4ea6	0.10903673
177	0xbc981d2a	-0.018568594
178	0xbcb751f4	-0.022377945
179	0x3db814cf	0.08988344
180	0x3c751b26	0.014960086
181	0xbb7c0b12	-0.0038458747
182	0x3ceb40bf	0.028717397
183	0xbd0ca5c3	-0.03433777
184	0x3c450c6b	0.012026886
185	0xb9cb3975	-0.00038761986
186	0xbd1eae1d	-0.038740266
187	0x3ca79a3a	0.020459283
188	0xbd7f43f8	-0.06232068
189	0x3dd7ef08	0.105436385
190	0xbd3245c8	-0.04352358
191	0xbda35159	-0.079745
192	0xbc432635	-0.011910965
193	0xbd73936f	-0.059466776
194	0x3c23a403	0.009987834
195	0x3d04d176	0.03242632
196	0xbd005aff	-0.03133678
197	0x3c1317b8	0.008977823
198	0x3d206edf	0.039168235
199	0x3a870367	0.0010300697
200	0xbd971e10	-0.07378781
201	0xbd8934e6	-0.06699543
202	0x3d20bcdd	0.039242614
203	0xbc8ad8f2	-0.01694915
204	0x3d099fac	0.03359954
205	0x3bbd960e	0.00578571
206	0xbd661b5f	-0.056178447
207	0xbccac550	-0.024752289
208	0x3c7ea20b	0.015541564
209	0xbdab366e	-0.08359991
210	0xbbc10004	-0.0058898944
211	0x3cd62cb7	0.026144369
212	0xbcaa789a	-0.02080946
213	0x3b9900ef	0.0046693007
214	0xbd04d9ad	-0.032434154
215	0x3ca09d3e	0.019606229
216	0x3cf9a82c	0.030475698
217	0x3cf9ae62	0.03047866
218	0x3c98189e	0.018566426
219	0xbbe96bd9	-0.007123452
220	0x3c8b297e	0.016987558
221	0xbc8d90da	-0.017280985
222	0xbbc33baa	-0.0059580402
223	0x3cd2fb8d	0.025754714
224	0xbbdf625b	-0.006817145
225	0xbcf935c4	-0.030421145
226	0xbd803070	-0.06259239
227	0xba1cd1df	-0.0005982201
228	0xbcdce855	-0.026966253
229	0xbd0b934c	-0.03407602
230	0xbce1bc16	-0.027555507
231	0xbb05ac25	-0.0020396796
232	0xbc236c4c	-0.00997455
233	0x3cdb9b7f	0.026807545
234	0xbc56671b	-0.013086106
235	0x3cd2b63e	0.025721665
236	0xbc515acc	-0.012777995
237	0x3c8e6430	0.017381757
238	0xbc8546e4	-0.016269155
239	0x3c822f6c	0.015891753
240	0xbd5943e3	-0.053043257
241	0xbcd0adeb	-0.025473556
242	0x3a5aea88	0.0008350988
243	0x3d1a9259	0.037737224
244	0x3b208a40	0.0024496466
245	0xbc01ff29	-0.00793437
246	0x3ce4b131	0.027916523
247	0xbccd4c16	-0.025060695
248	0xbc094a63	-0.008379552
249	0x3ccdc93f	0.025120376
250	0xbc82290c	-0.015888713
251	0xbcfb87f5	-0.030704478
252	0x3d37b06a	0.044845976
253	0x3c36a49c	0.011147644
254	0xbe184fd5	-0.14874204
255	0x3d310f74	0.043227628

conv1.bias f4 [256]
0	0xbd3bc46c	-0.04584162
1	0x3d58bff2	0.05291743
2	0xbd0a3dbd	-0.033750284
3	0xbc1a5f3d	-0.009422121
4	0xbd107aee	-0.035273485
5	0xbc87469b	-0.01651316
6	0x3d020a52	0.031748123
7	0x3d5c4d78	0.053784817
8	0x3ddef36c	0.10886273
9	0x3a8a7b29	0.0010565269
10	0x3ce59ffe	0.028030392
11	0xbd0debb9	-0.03464863
12	0x3d29f481	0.041492943
13	0x3c78af1a	0.015178466
14	0x3c9bf1bb	0.019036165
15	0x3d16436c	0.036685392
16	0x3c35478e	0.011064423
17	0x3a15c428	0.00057131285
18	0xbc81d010	-0.015846282
19	0x3c9083c9	0.017640965
20	0x3d9b2bd8	0.07576722
21	0x3d8126c1	0.0630622
22	0x3cac8b07	0.021062387
23	0x3d31d8d7	0.043419685
24	0x3c17d4ee	0.009267075
25	0xbcafe09c	-0.021469407
26	0x3d8ed1fb	0.06973644
27	0xbd49ed9a	-0.04929886
28	0xbbfcca3f	-0.0077145393
29	0x3ca3656a	0.019945819
30	0x3c898215	0.01678566
31	0xbb130c1e	-0.0022437642
32	0xbc2fad6e	-0.010722501
33	0x3d553cda	0.052059986
34	0x3d6e28eb	0.05814449
35	0x3d20e237	0.039278235
36	0x3c388fd9	0.011264765
37	0x3c9d5cc0	0.019209266
38	0xbd18c464	-0.037296668
39	0xbb8a26fb	-0.0042160726
40	0x3d992a19	0.074787326
41	0xbd19276c	-0.03739111
42	0x3d706fba	0.0587003
43	0x3d55951d	0.05214416
44	0x3d719d7f	0.05898809
45	0x3ce7f55a	0.028315235
46	0x3daefdfd	0.08544538
47	0xbd1dc384	-0.038516536
48	0x3d5cb6b0	0.053885162
49	0x3c879b95	0.01655368
50	0xbd398222	-0.04529012
51	0xbbaada25	-0.005213993
52	0x3d03cba0	0.032176614
53	0xbd375882	-0.044762142
54	0x3d370888	0.04468587
55	0x3b7a7b64	0.003822052
56	0x3d2b07ef	0.041755613
57	0x3c757537	0.0149815595
58	0xbad791aa	-0.001644661
59	0x3d58f1ca	0.052964963
60	0x3d895d43	0.067072414
61	0xbd7b350c	-0.061329886
62	0x3d19e1b3	0.03756876
63	0xbd5cd13e	-0.053910486
64	0x3d9c8a8a	0.07643612
65	0x3d2d7d43	0.042355787
66	0x3d2f662e	0.042822056
67	0x3bf3e65d	0.007443233
68	0xbc2f32f5	-0.010693301
69	0xbc054090	-0.008133069
70	0x3c531f6a	0.012885908
71	0xbd2ea44c	-0.042637154
72	0xbcd90bcf	-0.026494889
73	0xbd1a3725	-0.037650246
74	0x3cdac6c2	0.026706103
75	0x3c27f070	0.010250196
76	0xbb947547	-0.004530582
77	0xbcd3c062	-0.025848571
78	0x3d94cf95	0.07266156
79	0xbcb496b2	-0.022044513
80	0xbb901ae3	-0.0043977364
81	0x3d5e0971	0.054208223
82	0xb934691c	-0.00017205294
83	0x3d735dc4	0.059415594
84	0x3c9c9132	0.019112203
85	0xbd013050	-0.031540215
86	0xbcba563b	-0.022746196
87	0x3d00adfc	0.031415924
88	0x3d8d5faf	0.06903016
89	0xbc9d64e2	-0.019213144
90	0xbb069610	-0.0020536222
91	0x3c6b4c68	0.014361478
92	0x3d8f0174	0.06982699
93	0x3d7a1183	0.061051857
94	0xb92ed2e8	-0.00016672502
95	0x3d088097	0.033325758
96	0x3d0898f4	0.033348992
97	0x3d4a0dba	0.049329497
98	0xbd4e14f7	-0.050312962
99	0xbbcad11f	-0.00618948
100	0x3d61aebe	0.055098288
101	0x3d0e7210	0.034776747
102	0x3d3dfaf0	0.04638189
103	0x3d87090c	0.065935224
104	0xbcff374f	-0.031154303
105	0x3d03297b	0.03202198
106	0x3d60cf80	0.054885387
107	0xbc04bea4	-0.008102093
108	0xbcd34412	-0.025789294
109	0xbbb3b589	-0.005484287
110	0x3d0fdffd	0.03512572
111	0x3d553efb	0.052062016
112	0x3d55a0d4	0.05215533
113	0x3d7b0ab1	0.061289493
114	0x3d1e91b9	0.03871319
115	0xbc101ef0	-0.008796439
116	0xbc74bff6	-0.014938345
117	0xbd6ca856	-0.057777725
118	0xbc5e5eb4	-0.013572384
119	0x3d234756	0.039862953
120	0xbd1cd7f1	-0.038291875
121	0xbc314748	-0.010820217
122	0x3ba981fd	0.0051729665
123	0x3c87f44b	0.01659598
124	0x3d2f8175	0.04284807
125	0x3c914337	0.017732246
126	0xbc843a77	-0.01614116
127	0xbd227640	-0.039663553
128	0xbcab7947	-0.020931853
129	0x3d837fb9	0.064208455
130	0x3d0ea9d6	0.034829937
131	0x3d5902a0	0.05298102
132	0x3d08da32	0.033411212
133	0x3c6a28f0	0.014291987
134	0x3cb05c9b	0.021528533
135	0x3b816ce0	0.0039497465
136	0x3cecda9c	0.028912835
137	0x3d08ac85	0.033367652
138	0xbcf331e4	-0.029686876
139	0x3d068045	0.03283717
140	0x3d7d03c0	0.061771154
141	0x3c597721	0.013273031
142	0x3c21dc4d	0.009879184
143	0xbd2ed723	-0.04268564
144	0x3d729846	0.05922725
145	0x3b18ab5d	0.00232955
146	0x3d506676	0.050878964
147	0x3d929f0a	0.071592405
148	0x3d8db36f	0.0691899
149	0x3d29b401	0.04143143
150	0x3d6eee9b	0.05833302
151	0x3d56010e	0.0522471
152	0x3d7f3f30	0.06231612
153	0x3d4a6a83	0.049417984
154	0x3ccd8198	0.02508621
155	0x3c8770f6	0.016533356
156	0xbb843d91	-0.0040356596
157	0x3aa7fa7d	0.001281574
158	0x3d1b5fda	0.037933208
159	0xbc216342	-0.009850325
160	0x3d4fb53e	0.050709955
161	0x3d857aba	0.06517549
162	0x3d99941b	0.07498952
163	0x3c720c3d	0.014773426
164	0x3b0e4597	0.002170896
165	0x3b297bc4	0.0025861124
166	0x3d145274	0.036211446
167	0x3ceede82	0.029158834
168	0x3d827e74	0.06371775
169	0x3d753979	0.059869263
170	0x3d249f6d	0.040191103
171	0xbcde4c03	-0.027135855
172	0x3c4b90e3	0.01242468
173	0xbd177dde	-0.03698527
174	0x3da1b182	0.07895185
175	0x3d03158d	0.032002974
176	0xbd1f5fb3	-0.038909625
177	0xb9a9d276	-0.00032390998
178	0x3d0b9428	0.03407684
179	0x3d394f1e	0.045241468
180	0x3d924437	0.07141917
181	0xbc0c3f7a	-0.008560056
182	0xbd2ce71d	-0.042212594
183	0xbce8894a	-0.028385777
184	0x3d4c5a17	0.049890604
185	0xbd0c830c	-0.034304664
186	0xbbd5686d	-0.0065126927
187	0x3d483ff5	0.04888912
188	0x3c0ee3b1	0.008721278
189	0x3a8f624e	0.0010939331
190	0x3db3296f	0.08748137
191	0xbccb2aa3	-0.024800604
192	0x3dbf5d07	0.093439154
193	0x3d063373	0.03276391
194	0x3d28cb2c	0.041209385
195	0xbce40c4d	-0.027837897
196	0x3d377b06	0.04479506
197	0x3caf7048	0.021415845
198	0xbc66f2c2	-0.014095964
199	0x3c4fc14a	0.012680361
200	0xbd0ebaa6	-0.03484597
201	0x3bad3937	0.0052863616
202	0x3d53f93b	0.051751357
203	0xbc8fd001	-0.017555239
204	0x3c8c5e67	0.017134858
205	0xbd1e5022	-0.03865064
206	0x3da86cf4	0.08223906
207	0xbbc82440	-0.006107837
208	0x3d5a6718	0.053320974
209	0x39126491	0.00013961109
210	0x3cc45c20	0.02396971
211	0x39d3679c	0.0004032225
212	0x3d63405b	0.055481296
213	0x3d9fc069	0.07800371
214	0xbcff83e6	-0.031190824
215	0x3cab5d3d	0.020918483
216	0x3da1ce75	0.07900707
217	0xbd2eb136	-0.04264947
218	0x3d695da3	0.056974065
219	0xbc4e8da9	-0.012607017
220	0x3cf920c1	0.030411126
221	0x3ca55cf4	0.020185925
222	0x3d84dda3	0.06487586
223	0x3d9c1cd3	0.07622685
224	0x3d47674b	0.048682492
225	0x3cdcf131	0.026970478
226	0xbcba85cc	-0.022768877
227	0x3d36036d	0.04443686
228	0xbc7daac3	-0.015482607
229	0x3c2a5b21	0.010397703
230	0x3dbaa2cd	0.09113083
231	0x3d1aa9d5	0.03775962
232	0x3d853012	0.06503309
233	0x3d834da6	0.06411295
234	0x3d5ecf11	0.054396693
235	0x3ca3f774	0.020015456
236	0x3d170ef8	0.03687951
237	0x3da73de0	0.081660986
238	0x3d8d14a0	0.068886995
239	0x3cd699a1	0.026196303
240	0xbb96dfb1	-0.004604303
241	0x3d20082f	0.039070304
242	0xbd34b128	-0.044114262
243	0x3b743c82	0.003726751
244	0xbb8b4717	-0.004250418
245	0x3c4ebe86	0.0126186665
246	0xbd616427	-0.055027153
247	0x3c2da598	0.010598563
248	0x3d8b6321	0.06806017
249	0x3d5f88fc	0.054573998
250	0x3d75eb73	0.060038995
251	0xbcb8a37a	-0.02253889
252	0xbc2b7e0d	-0.010467065
253	0x3cbabf1d	0.022796208
254	0xbccbecf0	-0.024893254
255	0x3d4ab608	0.049490005

conv1.lin.weight f4 [256, 182]
0	0xbd31950e	-0.04335504
1	0xbdec5160	-0.115389585
2	0xbd331f50	-0.043731034
3	0x3c893abf	0.016751645
4	0x3d29675a	0.04135833
5	0xbe0bb712	-0.13644055
6	0xbd1b9b15	-0.037989695
7	0x3ce89669	0.028392034
8	0xbd7c6994	-0.061624125
9	0x3b2b848e	0.0026171538
10	0xbe0314ca	-0.12800899
11	0xbdac5ce2	-0.084161535
12	0xbd74d5dc	-0.059774265
13	0xbdade443	-0.08490803
14	0xbc85c170	-0.01632759
15	0x3b172efb	0.0023068774
16	0xbbb549ae	-0.005532465
17	0x3d6f7630	0.05846232
18	0xbc698451	-0.014252738
19	0xbd58ad34	-0.052899554
20	0xbd5c0f5b	-0.05372558
21	0x3c9b7db9	0.018980848
22	0xb9a04b3e	-0.00030573638
23	0x3c38f163	0.01128802
24	0x3d1b41bc	0.037904486
25	0xbc8df0e3	-0.017326778
26	0xbbe4400e	-0.0069656437
27	0xbd0207a5	-0.03174557
28	0x3c4aecd3	0.012385565
29	0x3c3fc4e4	0.011704657
30	0x3c99d3d1	0.01877776
31	0xbcb4eac2	-0.022084597
32	0xbca2a685	-0.019854793
33	0xbcdbed71	-0.02684662
34	0xbc3591f5	-0.011082162
35	0x3bf67de7	0.007522333
36	0xbbf11668	-0.0073574074
37	0x3bcb50fd	0.006204723
38	0x3cb7343d	0.022363776
39	0xbbcd4be5	-0.006265151
40	0xbbb912b1	-0.00564798
41	0x3d2fbffa	0.042907692
42	0x3cdacd65	0.026709268
43	0x3c72a2a6	0.014809286
44	0x3bf14a5d	0.007363601
45	0x3c00c829	0.007860222
46	0x3ce3001f	0.027710019
47	0xbc5c3959	-0.013441407
48	0x3ccb679c	0.024829678
49	0xbbece2e6	-0.007229197
50	0xbc6626db	-0.01404735
51	0x3c9a4ac1	0.018834474
52	0x3cad6070	0.021164149
53	0x3ced8709	0.028995054
54	0xbca56692	-0.02019051
55	0x3ca0e863	0.01964206
56	0xbaa8a066	-0.0012865185
57	0xbc681961	-0.014166207
58	0x3cfa204f	0.030532984
59	0x3c3b477c	0.011430617
60	0x3c27fed4	0.010253627
61	0xbd37baa0	-0.044855714
62	0xbc89ac9b	-0.016805938
63	0x3c042a6f	0.008066758
64	0x3d5c41d2	0.05377371
65	0x3ce2e608	0.027697578
66	0x3c1d380d	0.009595883
67	0xbc6148e4	-0.013750289
68	0xbc418415	-0.011811276
69	0xbd51f9b1	-0.051263515
70	0xbdb19ec1	-0.08672858
71	0x3b128003	0.0022354133
72	0xbbc6ffe2	-0.006072984
73	0xbc00ae80	-0.007854104
74	0x3c98d9af	0.018658487
75	0x3c482e76	0.012218108
76	0x3c2f4827	0.010698355
77	0x3c3a266b	0.011361699
78	0x3d6105b5	0.054937083
79	0x3c1471ba	0.009060318
80	0x3ca5597f	0.020184277
81	0xbcfe3995	-0.031033317
82	0x3d5703af	0.052493747
83	0x3b8685f5	0.0041053244
84	0xbcb38052	-0.021911774
85	0x3d168a32	0.036752887
86	0x3d975c6e	0.073906764
87	0x3bd62076	0.0065346314
88	0x3d30815b	0.043092113
89	0x3cd60505	0.02612544
90	0xbd7b2ec2	-0.06132389
91	0x3c0d9b41	0.008642972
92	0x3ce0b96a	0.027432162
93	0xbd3bf91f	-0.045891877
94	0xbca1faa8	-0.019772843
95	0xba838cea	-0.0010036502
96	0xbc8949b6	-0.01675878
97	0xbc4ec621	-0.01262048
98	0x3be85a66	0.0070908545
99	0x3c7decfb	0.015498395
100	0x3c6053b8	0.013691835
101	0x3be58027	0.0070038023
102	0xbcb9942e	-0.022653665
103	0x3cb6ae15	0.022299806
104	0x3bb13f62	0.005409167
105	0x3d1aaa8d	0.037760306
106	0x3ca0dc34	0.019636251
107	0x3c09da1d	0.008413819
108	0x3baf3efc	0.0053480845
109	0x3bfbbc33	0.007682347
110	0xbbb1891e	-0.005417957
111	0x3d822888	0.06355387
112	0xbcc6ee2c	-0.024283491
113	0xbbdae6f8	-0.0066803657
114	0xbc31da43	-0.01085526
115	0xbb6911ef	-0.0035563668
116	0xbb8a301d	-0.0042171613
117	0xbdaab3b7	-0.08335059
118	0xbd9b68a9	-0.07588322
119	0x3c68bfea	0.014205912
120	0xbd129842	-0.035789736
121	0x3c1428e1	0.009042949
122	0xbc2dd633	-0.010610151
123	0xb7c4c83f	-2.3458268e-05
124	0xbcb0b6db	-0.021571567
125	0x3dd2203c	0.102600545
126	0x3de31b76	0.11089222
127	0x3ccedc00	0.025251389
128	0x3cf90aad	0.030400598
129	0x3b9c2bd5	0.0047659674
130	0x3c882a44	0.016621716
131	0x3c26b00b	0.010173808
132	0x3bd89c83	0.0066104545
133	0xbd35e479	-0.04440734
134	0xbbb02225	-0.005375164
135	0x3d5b6acb	0.053568643
136	0x3c859fc7	0.01631154
137	0xbd86d4c8	-0.065835536
138	0x3c8cfda5	0.01721079
139	0xbbaa85bd	-0.005203931
140	0x3d2afcd3	0.04174502
141	0xbcb2275c	-0.021747284
142	0xbc2862b6	-0.010277441
143	0x3c5ec984	0.01359785
144	0xbc058c23	-0.008151087
145	0x3bc73efe	0.0060805073
146	0xbc6bef42	-0.014400305
147	0x3c8f1aa4	0.017468758
148	0xbd8e75d5	-0.069560684
149	0xbc114a99	-0.008867883
150	0xbc479f47	-0.012183971
151	0x3c50fc03	0.012755397
152	0x3b4ba3e0	0.003107302
153	0xbcf4acc6	-0.029867541
154	0xbde3ee63	-0.11129453
155	0xbcab15eb	-0.020884475
156	0xbc37a4dd	-0.01120874
157	0x3cd0a29d	0.025468165
158	0xbbc321bd	-0.0059549497
159	0xbbd55ffc	-0.0065116864
160	0xbb355ef4	-0.0027675005
161	0x3d2fbd99	0.042905424
162	0xbd319ad0	-0.04336053
163	0x3c5e4e18	0.013568424
164	0xbc73b124	-0.014873777
165	0xbce15592	-0.027506623
166	0x3d13bbe0	0.036067843
167	0xbd8cb0a3	-0.06869628
168	0xbdc0b655	-0.09409777
169	0x3cad98d7	0.021191044
170	0xbd845f35	-0.06463472
171	0xbd3f1d68	-0.046658903
172	0xbd142b7b	-0.03617428
173	0xbc059241	-0.008152545
174	0x3cbf3f6d	0.023345673
175	0xbda5e011	-0.08099378
176	0x3c9242dc	0.017854147
177	0xbbb74c8f	-0.0055938433
178	0xbd16555b	-0.036702495
179	0x3c8f1e25	0.017470429
180	0xbd0e6145	-0.034760732
181	0xbd53c966	-0.05170574
182	0xb9723aba	-0.00023100796
183	0xbdaabf02	-0.08337213
184	0xbd135a07	-0.03597453
185	0x3c9cac0a	0.019125003
186	0xbdf8b6df	-0.12144255
187	0x3be01d30	0.006839417
188	0x3bc9704b	0.0061474196
189	0xbd9170ec	-0.07101616
190	0x3d30f544	0.043202654
191	0xba68c6f4	-0.0008879744
192	0x3d481aca	0.048853673
193	0xbd64ebc6	-0.055888914
194	0xbce811c4	-0.028328784
195	0xbdd476a1	-0.10374189
196	0xbc408e08	-0.011752613
197	0x393a7e44	0.0001778538
198	0x3cf07d14	0.029356517
199	0x3da631f1	0.08114994
200	0x3d87e3ff	0.06635284
201	0xbca17d2f	-0.019713013
202	0xbce2f599	-0.027705
203	0x3b892215	0.004184971
204	0x3c3398e7	0.010961748
205	0x3c4d4683	0.012529018
206	0xbd028701	-0.03186703
207	0xbd1d08b7	-0.03833839
208	0xbd00bd1e	-0.031430356
209	0xbb53dcd2	-0.0032327664
210	0xbd0f0a23	-0.034921777
211	0xbb792df2	-0.003802177
212	0xbc12d2b9	-0.008961373
213	0xbc853cb7	-0.016264303
214	0x3a549b70	0.000811032
215	0xbac963da	-0.0015364841
216	0xba0ef207	-0.0005452935
217	0x3b70677b	0.0036682773
218	0x38f0bb2e	0.00011478957
219	0x3c41d1b3	0.011829781
220	0x3c78829f	0.015167861
221	0xbd0ad57c	-0.033895
222	0x3b9a9bbc	0.004718272
223	0x3bfbf1ea	0.0076887505
224	0xbc97ae6c	-0.018515788
225	0xbcf6ac48	-0.030111447
226	0xbc698eea	-0.014255265
227	0xbd164f42	-0.03669668
228	0xbc362375	-0.011116852
229	0xbb26a590	-0.0025428273
230	0x3b9caea3	0.0047815605
231	0xbd857427	-0.06516295
232	0xbc9a99bc	-0.018872134
233	0xbd69f027	-0.057113793
234	0xbd37516e	-0.04475539
235	0x3b9348ba	0.0044947537
236	0xbdd48860	-0.10377574
237	0xbb74711e	-0.0037298868
238	0xbce450b9	-0.027870523
239	0xbc307a28	-0.010771312
240	0x3cbc5d42	0.022993688
241	0x3c9e4944	0.019322045
242	0xbbb809b3	-0.0056163906
243	0x3a4ed90f	0.00078906206
244	0x3d0be397	0.034152593
245	0xbced86dd	-0.028994972
246	0x3d5db202	0.05412484
247	0x3cd1fa53	0.02563206
248	0xbd01d806	-0.031700157
249	0x3ba3c5f9	0.0049979654
250	0xbaa19f7f	-0.0012330859
251	0xbd9a3f03	-0.0753155
252	0x3caa2dfa	0.020773876
253	0x3d082f3f	0.033248182
254	0xbc1d3519	-0.009595179
255	0x3d4059a0	0.046960473

conv2.att_src f4 [1, 1, 64]
0	0xbcd4ba4e	-0.025967743
1	0xbe541abd	-0.20713325
2	0xbae454a8	-0.0017420249
3	0xbe0f3425	-0.13984735
4	0x3e37a265	0.17933042
5	0x3e0acd7f	0.13554953
6	0x3d76f1e9	0.060289297
7	0xbd7c65f5	-0.06162067
8	0xbe3e58b6	-0.18588528
9	0x3e74c36e	0.23902676
10	0xbe4ac844	-0.19802958
11	0xbdaabf7c	-0.08337304
12	0x3d7896f4	0.060690835
13	0x3e129001	0.14312746
14	0xbdddbe8d	-0.1082736
15	0x3e261b09	0.1622125
16	0xbd397b1c	-0.045283422
17	0xbd7b5850	-0.06136352
18	0x3c2d5832	0.010580109
19	0xbcc2ed8d	-0.023794914
20	0x3cc94beb	0.024572333
21	0x3e17a847	0.14810286
22	0x3df23fb2	0.11828555
23	0xbd2b8dde	-0.041883342
24	0x3e16a811	0.1471255
25	0x3e2bb746	0.16769132
26	0xbd555fea	-0.052093424
27	0x3e0938bc	0.13400549
28	0x3e759a33	0.23984604
29	0xbdc3806d	-0.0954598
30	0xbe2a757a	-0.16646376
31	0x3e180ade	0.14847896
32	0xbd0e07fb	-0.03467558
33	0x3df01f9c	0.11724779
34	0x3e4e395f	0.20139073
35	0xbd415ea2	-0.04720939
36	0x3c62afb8	0.01383584
37	0x3da03fb5	0.07824651
38	0xbe354bd2	-0.17704704
39	0x3ddda0e9	0.10821707
40	0xbd82846d	-0.063729145
41	0x3e85d21d	0.26136866
42	0x3de8aece	0.11361466
43	0xbe63f45c	-0.22261184
44	0x3e8176cc	0.25285947
45	0x3e5d5a5f	0.21616505
46	0x3e11eccb	0.14250486
47	0xbd363290	-0.044481814
48	0x3d530704	0.051520362
49	0x3e82bd78	0.25535178
50	0xbdc4dac4	-0.09612039
51	0x3c139ba5	0.0090092765
52	0x3bcd5b43	0.0062669828
53	0xbd5e42ef	-0.05426305
54	0x3d034152	0.032044716
55	0x3e0e184a	0.13876453
56	0x3dc88e61	0.097927816
57	0xbd2c06a1	-0.04199851
58	0x3e6f5b11	0.23374583
59	0x3e37c7d9	0.1794733
60	0xbda8b662	-0.08237912
61	0x3ca725df	0.0204038
62	0xbdacf725	-0.084455766
63	0xbe20f0b8	-0.15716827

conv2.att_dst f4 [1, 1, 64]
0	0x3d9e41a9	0.077273674
1	0xbe1f4a7f	-0.15555762
2	0x3e2749fb	0.16336815
3	0xbcce1e6a	-0.025160987
4	0x3c8977de	0.01678079
5	0x3d4a417f	0.04937887
6	0xbbff99ce	-0.0078003174
7	0xbd1baa02	-0.03800393
8	0xbd0406c4	-0.032233015
9	0x3cbcf907	0.023067964
10	0xbd1dba51	-0.038507763
11	0xbdbe2118	-0.09283656
12	0xbd6044f5	-0.054753263
13	0x3a06cfdf	0.00051426695
14	0xba79ec96	-0.000953385
15	0xbd001985	-0.031274337
16	0x3ddf704d	0.109100915
17	0xbcc0c9c5	-0.023533711
18	0xbd67681c	-0.05649577
19	0xbd670d75	-0.056409318
20	0xbcb1d9b6	-0.021710258
21	0x3d16c4e2	0.036808856
22	0x3dc39f72	0.09551896
23	0xbd9c4d20	-0.07631898
24	0xbcb7ac52	-0.022421036
25	0x3c1fa2d6	0.009743413
26	0x3d88a8eb	0.066728435
27	0xbcb81781	-0.022472145
28	0x3df14631	0.11780966
29	0xbe230e9a	-0.15923539
30	0xbcbde600	-0.023180962
31	0xbda5b763	-0.08091619
32	0xbcbfae3d	-0.023398513
33	0xbc48cb89	-0.012255558
34	0x3dfce390	0.123480916
35	0x3d8a385e	0.067490324
36	0xbdb18507	-0.08667951
37	0x3e1c7dd3	0.15282373
38	0xbd5adfb6	-0.053436004
39	0x3c1eb873	0.009687531
40	0x3d98952d	0.07450328
41	0x3d46dfef	0.048553403
42	0xbc05f21b	-0.008175398
43	0xbd36c268	-0.044618994
44	0xbd1618b8	-0.036644667
45	0xbcec7428	-0.028863981
46	0x3d216cfd	0.03941058
47	0x3c2ac010	0.010421768
48	0x3d979350	0.074011445
49	0x3da85bc2	0.082206264
50	0x3d36b7df	0.044608947
51	0xbd50ef0d	-0.051009227
52	0x3d27c36e	0.04095786
53	0xbdf39f7f	-0.11895656
54	0xbd38411c	-0.04498397
55	0xbd91468a	-0.070935324
56	0x3daa3518	0.08310908
57	0x3dd37f0c	0.10326967
58	0x3d8e99bf	0.069629185
59	0xbd0b94b2	-0.034077354
60	0x3bffcce4	0.0078064073
61	0x3e5afa07	0.2138444
62	0xbd7185ff	-0.05896568
63	0x3d38362a	0.04497353

conv2.bias f4 [64]
0	0xbdb203fd	-0.08692167
1	0x3df4aa65	0.11946563
2	0x3dfc972c	0.12333521
3	0xbdce1c7a	-0.10064025
4	0xbcb75ea8	-0.022384003
5	0xbdac8d1f	-0.08425354
6	0x3d53232b	0.05154721
7	0xbc9b1533	-0.018931007
8	0x3df0c528	0.117563546
9	0x3dd54e2f	0.10415303
10	0x3dfa14f4	0.12211028
11	0x3df349e4	0.11879328
12	0x3ddbf31d	0.107397296
13	0x3df19874	0.11796656
14	0x3cf4118a	0.02979352
15	0x3ddba814	0.10725418
16	0xbd09cf64	-0.03364505
17	0x3dfa1f3d	0.122129895
18	0x3deca809	0.11555488
19	0x3de8a1dc	0.11358997
20	0x3dcc66cf	0.09980547
21	0x3d71ca61	0.059030894
22	0xbdae4a2d	-0.08510242
23	0x3dcd8a24	0.10036114
24	0x3ddea171	0.10870636
25	0x3df23277	0.11826032
26	0x3de54729	0.11195213
27	0x3cca62b1	0.024705263
28	0x3de8da96	0.11369817
29	0xbd94a948	-0.0725885
30	0xbdaf1ec7	-0.08550792
31	0xbce7d824	-0.028301306
32	0x3da5e606	0.08100514
33	0x3df74710	0.12074101
34	0xbd042d95	-0.032270033
35	0xbdb2b25e	-0.08725427
36	0x3da7b058	0.08187932
37	0xbd9a5280	-0.07535267
38	0x3dc64874	0.09681788
39	0x3dd7b1c1	0.10531951
40	0x3dd7a34a	0.10529192
41	0x3dce5a9f	0.10075878
42	0xbdbb22d9	-0.09137506
43	0xbdadc81b	-0.08485433
44	0xbd64808d	-0.055786658
45	0xbd3a0128	-0.04541126
46	0x3db3d35f	0.0878055
47	0xbd64c00b	-0.05584721
48	0xbd98214a	-0.074282244
49	0x3dbf3a65	0.0933731
50	0x3dc58a32	0.09645499
51	0x3ddab793	0.10679545
52	0xbba8f8a5	-0.005156594
53	0xbcb8ee0d	-0.022574449
54	0xbda2f8a2	-0.07957579
55	0x3de33696	0.11094396
56	0xbd964a23	-0.07338359
57	0xbd9879f8	-0.07445139
58	0x3dbb7a3c	0.09154174
59	0x3db8bb4b	0.09020098
60	0xbd7e22e9	-0.06204501
61	0xbd7a8c8e	-0.0611692
62	0xbd9daf00	-0.07699394
63	0x3df5561e	0.11979316

conv2.lin.weight f4 [64, 256]
0	0xbc279a3b	-0.0102296425
1	0xbd093999	-0.033502195
2	0xbd643f94	-0.055724695
3	0xb9e95fbf	-0.0004451256
4	0xbd99329b	-0.07480355
5	0x3d45eb38	0.048320025
6	0xbc057e9d	-0.008147863
7	0x3d199c46	0.03750255
8	0x3ceb5393	0.028726375
9	0xbd4356ad	-0.047690082
10	0x3d214fcd	0.039382745
11	0xbd31cd18	-0.043408483
12	0xbd86e9a6	-0.06587534
13	0xbd0de4e3	-0.03464211
14	0xbc6e23cc	-0.014534902
15	0xbddeb47e	-0.1087427
16	0xbda930db	-0.082612716
17	0x3d8f77b6	0.07005255
18	0x3c6118b9	0.0137388045
19	0xbe1e936c	-0.15485924
20	0xbd3aecf2	-0.045636125
21	0xbdcda714	-0.10041633
22	0xbc80eff1	-0.015739413
23	0xbc6fd0b1	-0.014637158
24	0xbdb81a01	-0.08989335
25	0x3bc4fd0e	0.006011612
26	0x3d7cda80	0.061731815
27	0xbe0d8320	-0.13819551
28	0xbe313394	-0.17304832
29	0xbe0d0671	-0.13771988
30	0xbc861378	-0.016366705
31	0xbd998e17	-0.074978046
32	0x3d39b221	0.045335893
33	0xbd70cf0a	-0.058791198
34	0xbe282276	-0.16419396
35	0xbd8e8937	-0.069597654
36	0xbcecaa16	-0.028889697
37	0x3bd0c350	0.0063709393
38	0x3d85851a	0.06519528
39	0xbdfda886	-0.12385659
40	0x3d74eb11	0.05979449
41	0xbc142a2c	-0.009043258
42	0xbce21517	-0.027597947
43	0xbd2eb24f	-0.042650517
44	0xbde23303	-0.11044886
45	0xbe1d06f4	-0.15334684
46	0xbd89e7dd	-0.067336775
47	0xbd012df6	-0.031537972
48	0xbc6b763a	-0.014371449
49	0xbdd566bd	-0.104199864
50	0xbb8a5348	-0.0042213537
51	0x3d931065	0.071808614
52	0x3cc94c52	0.024572525
53	0xbd01d2e5	-0.031695265
54	0xbc55d3c4	-0.013050977
55	0xbd9f8d35	-0.07790605
56	0xbdcbae91	-0.09945405
57	0xbb90fccf	-0.0044246684
58	0x39bb3bd9	0.0003571201
59	0xb983813c	-0.00025082554
60	0xbd80258c	-0.062571615
61	0x3a9497f1	0.0011336786
62	0xbdc13d64	-0.094355375
63	0xb9e05f63	-0.00042795678
64	0x3d601439	0.054706786
65	0x3c309caa	0.010779539
66	0xbd23343e	-0.039844744
67	0x3d3d3429	0.046192322
68	0xbd00b84f	-0.03142577
69	0x3d04a716	0.032385908
70	0xbca2ca85	-0.01987196
71	0x3cce5831	0.025188537
72	0xbd913864	-0.07090834
73	0x3d0d87a6	0.034553193
74	0x3d6faf89	0.058517013
75	0xba861bd8	-0.0010231687
76	0xbdf5127a	-0.11966415
77	0xbdcb46a5	-0.09925584
78	0xbd2fc05a	-0.04290805
79	0x3c81c312	0.015840087
80	0xbce2912f	-0.02765712
81	0x3c570c5d	0.013125506
82	0x3ce98121	0.028503956
83	0x3d163039	0.036667082
84	0x3d60a46b	0.0548443
85	0xbdcb8c98	-0.099389255
86	0x3d3373ad	0.04381149
87	0xbccc08bb	-0.024906507
88	0xbdae514e	-0.085116014
89	0x3d8be9be	0.06831692
90	0x3d06cfe6	0.03291311
91	0x3ccb842a	0.024843294
92	0xbdfc8f60	-0.12332034
93	0xbdcff03c	-0.10153243
94	0x3a844929	0.0010092604
95	0x3c82d5a2	0.015971009
96	0x3cf2a149	0.029617922
97	0xbe314486	-0.17311296
98	0x3cf54143	0.029938346
99	0x3bffe35d	0.0078090862
100	0x3ce6f94b	0.028195044
101	0xbcb58213	-0.02215675
102	0xbc62ea42	-0.013849797
103	0xbc9d65bb	-0.019213548
104	0xbca89fa8	-0.020583943
105	0x3b813ccd	0.0039440156
106	0x3b41fb5a	0.002959928
107	0x3dc5b8b5	0.09654371
108	0xbd30154b	-0.042989057
109	0x3d8502c7	0.0649467
110	0xbde4b11c	-0.111665934
111	0xbc888b2f	-0.01666793
112	0xbd290bb4	-0.041270927
113	0x3c10e6c1	0.0088440785
114	0xbcfcc318	-0.030854747
115	0xbe2de990	-0.16983628
116	0xbd3352a1	-0.043779973
117	0xbcebc6d5	-0.028781334
118	0x3c806a9d	0.015675837
119	0xbc31aaad	-0.010843915
120	0x3c922ad9	0.017842697
121	0xbc396674	-0.011315931
122	0xbd33ce27	-0.043897774
123	0xbd3d660f	-0.04623991
124	0x3c3c8187	0.011505491
125	0xbd76fd04	-0.06029989
126	0x3d5d59a5	0.05404057
127	0xbd153f09	-0.036437068
128	0xbd1d0d82	-0.03834296
129	0xbb4cc725	-0.003124663
130	0xbd0eb3e5	-0.03483953
131	0xbbb012d5	-0.0053733387
132	0x3b7023ac	0.0036642356
133	0xbd8c2d92	-0.06844629
134	0xbc339f83	-0.0109633235
135	0xbda26482	-0.079293266
136	0xbcd8aa5c	-0.026448421
137	0x3a7d5d55	0.00096650916
138	0xbdb82d4e	-0.08993016
139	0xbdbcc0c1	-0.092164524
140	0xbdaf90c9	-0.085725375
141	0xbe2be163	-0.16785197
142	0xbd5e4acc	-0.05427055
143	0x3d773a8b	0.060358565
144	0xbcd86dd4	-0.026419558
145	0x3d21a678	0.039465398
146	0xbe071fd3	-0.13195734
147	0xbd3124ff	-0.043248173
148	0xbe0907de	-0.13381907
149	0x3cb9e935	0.02269421
150	0x3c4e9eb3	0.012611079
151	0xbd9930bf	-0.07480001
152	0x3c7f82ac	0.015595119
153	0x3cdf575b	0.027263334
154	0x3d1c8a3b	0.038217764
155	0xbd7b8575	-0.06140657
156	0xbc98b5fc	-0.018641464
157	0xbcefa9bf	-0.029255746
158	0xbcfaac85	-0.030599842
159	0x39752585	0.00023378998
160	0xbe06b314	-0.1315425
161	0xbd1f97ed	-0.038963247
162	0xbded5a37	-0.11589473
163	0xbe090534	-0.13380891
164	0xbe0dc433	-0.13844375
165	0xbdb5dff6	-0.08880608
166	0x3d358775	0.044318635
167	0xbe116b3c	-0.14201063
168	0xbb8a3871	-0.004218154
169	0xbc2feee1	-0.0107381055
170	0x3d038a49	0.0321143
171	0x3d409ae5	0.04702272
172	0x3d1136d2	0.03545267
173	0xbd9eaa71	-0.07747353
174	0xbd9b4e5d	-0.07583306
175	0x3d0a86f8	0.033820122
176	0xbb3502f9	-0.002762018
177	0xbd550da8	-0.052014977
178	0x3ba3cbc4	0.004998656
179	0x3b1c02b5	0.0023805324
180	0xbe11780a	-0.14205948
181	0x3ca4ebf9	0.020132052
182	0xbc9369d5	-0.0179948
183	0xbd858890	-0.06520188
184	0xbdb344d8	-0.08753365
185	0x3cb57429	0.022150116
186	0xbd0234a8	-0.0317885
187	0xbd21d0f1	-0.039505903
188	0xbe0311c9	-0.12799753
189	0xbd17ed5a	-0.03709159
190	0xbe3c24b2	-0.18373373
191	0x3c8031b0	0.015648693
192	0xbd981d14	-0.07427421
193	0xbcd05c2b	-0.025434574
194	0xbd8385da	-0.064220145
195	0xbcc7be3e	-0.024382707
196	0xbc391788	-0.011297114
197	0xbd1106e5	-0.035406966
198	0xbc693e06	-0.014235979
199	0x3d541da7	0.05178609
200	0xbdd7c361	-0.105353124
201	0xbd78a949	-0.060708318
202	0xbc997ec6	-0.018737208
203	0x3cbeaed0	0.023276716
204	0x3cf324d7	0.029680653
205	0xbd5fcee3	-0.054640662
206	0xbda9eabc	-0.08296725
207	0xbc7aa804	-0.015298847
208	0xbbbe0e81	-0.005800069
209	0xbd58d2c8	-0.05293539
210	0xbdcf5152	-0.101229325
211	0xbd9dc777	-0.077040605
212	0xbd9241cd	-0.07141457
213	0xbdbc806c	-0.09204182
214	0x3c50e3c9	0.012749621
215	0x3bc2becc	0.005943155
216	0xbde48394	-0.11157909
217	0xbd500e01	-0.050794605
218	0xbd845487	-0.06461435
219	0xbd1b23f6	-0.037876092
220	0x3c9c859e	0.019106682
221	0x3c94a1b8	0.01814352
222	0xbdb7ffec	-0.0898436
223	0xbdd9cc00	-0.10634613
224	0x3bf1c2b5	0.007377947
225	0xbdeeece9	-0.11666281
226	0xbd5b9703	-0.053610813
227	0x3d81da8a	0.06340511
228	0x3bb713be	0.0055870702
229	0xbd8abb75	-0.06774036
230	0xbd085127	-0.033280518
231	0xbdadacb7	-0.08480208
232	0x3c39827e	0.011322616
233	0xbe052802	-0.13003543
234	0xbd9c8d5b	-0.07644149
235	0xbda9b178	-0.082858026
236	0xbc46622e	-0.012108369
237	0xbd7ff484	-0.062489048
238	0xbd14855b	-0.03625999
239	0x3c7aab20	0.015299588
240	0xbe1df132	-0.1542404
241	0xbc520985	-0.012819652
242	0xbddf40f4	-0.10901061
243	0x3c08dc93	0.00835337
244	0xbd727b7f	-0.059199806
245	0xbc4a9560	-0.012364715
246	0xbd7b12cd	-0.061297227
247	0xbda90803	-0.08253481
248	0x3d93bea7	0.072140984
249	0xbcc8b1f3	-0.024498915
250	0xbdcc2d77	-0.09969609
251	0xbc754ac1	-0.014971436
252	0xbd31f19b	-0.043443304
253	0x3c825f61	0.01591462
254	0x3d80da1b	0.062916
255	0xbcf83358	-0.03029792

classifier.weight f4 [2, 64]
0	0xbd181dfb	-0.037137967
1	0x3d96037a	0.07324882
2	0x3bc37a8a	0.0059655355
3	0xbe16a3f1	-0.14710976
4	0x3d964cbc	0.07338855
5	0xbd9e362f	-0.077251785
6	0x3e06a053	0.13147096
7	0x3d82ada3	0.06380775
8	0x3d532aba	0.05155442
9	0x3d428622	0.0474912
10	0x3c6f8543	0.014619174
11	0xbd18a24b	-0.03726415
12	0x3dbeabb1	0.09310091
13	0xbbd05c65	-0.0063586705
14	0xbdb5dc05	-0.08879856
15	0xbcbd8f54	-0.023139633
16	0x3df727d2	0.12068142
17	0x3db06438	0.08612865
18	0xbd73ca51	-0.059519116
19	0xbcca059c	-0.024660878
20	0xbc67b89f	-0.014143138
21	0x3e0f38b8	0.1398648
22	0xbac101be	-0.0014725251
23	0x3b31de97	0.002714073
24	0xbd998f2c	-0.07498011
25	0xba9f38ec	-0.0012147701
26	0x3d21a22a	0.039461292
27	0x3dd1ba53	0.10240617
28	0x3d61cae0	0.055125117
29	0xbd440a6f	-0.047861513
30	0xbd560502	-0.05225087
31	0x3e070e04	0.1318894
32	0x3ded182d	0.11576877
33	0x3dde90dd	0.10867474
34	0xbd519a4d	-0.051172543
35	0xbb90fc69	-0.004424621
36	0x3d4c2f38	0.04984972
37	0xbc156876	-0.009119144
38	0xbc835a6f	-0.016034333
39	0x3d88bce9	0.06676657
40	0x3dc9a7b4	0.0984644
41	0x3db6fc0b	0.08934792
42	0xbcd0886e	-0.02545568
43	0x3d5a87ec	0.05335228
44	0x3d8c50f3	0.06851377
45	0x3cb4bc16	0.022062343
46	0x3e059bc2	0.13047698
47	0xbd830325	-0.06397084
48	0xbda0ccf3	-0.07851591
49	0x3dbe0e5d	0.09280083
50	0x3d97998f	0.07402336
51	0x3dff1682	0.12455465
52	0xbcdf6f97	-0.02727489
53	0x3c94d32c	0.0181671
54	0xbd90367f	-0.07041644
55	0x3dc2ec4d	0.09517727
56	0xbcef6252	-0.029221687
57	0xbb47b218	-0.0030471142
58	0x3d9bf7c4	0.07615617
59	0x3da38ebf	0.07986211
60	0x3ce50003	0.027954107
61	0x3c8351ae	0.016030159
62	0xbcd749d8	-0.026280329
63	0x3e15ff02	0.14648059
64	0x3ba3a351	0.004993834
65	0x3c7ba2d6	0.015358647
66	0xbc40f2c5	-0.011776631
67	0xbc2281f2	-0.009918677
68	0x3d2f0242	0.042726763
69	0xbc899c5c	-0.01679819
70	0x3d2c9320	0.042132497
71	0xba9f2dd8	-0.00121444
72	0xbd8be3e9	-0.0683058
73	0xbd295236	-0.041338168
74	0x3c3d2b34	0.011545945
75	0xbcb7593e	-0.022381421
76	0xbd20d8ad	-0.039269138
77	0xbdd708b8	-0.1049971
78	0xbdf91600	-0.12162399
79	0xbe13b42c	-0.14424199
80	0x3d8cbbeb	0.0687178
81	0xbada2f7f	-0.0016646235
82	0xbdb31caf	-0.08745705
83	0xbd8d58b6	-0.06901686
84	0xbc6dbe36	-0.014510682
85	0xbd34f373	-0.044177484
86	0x3d67d1cb	0.05659656
87	0xbd3b0ab1	-0.045664493
88	0xbe212925	-0.15738352
89	0x3c4aa346	0.012368029
90	0xbc95d06c	-0.01828786
91	0x3d517738	0.051139086
92	0x3ce6d4c8	0.028177634
93	0xbd8ee309	-0.06976897
94	0xbd2e8851	-0.04261047
95	0x3d82e52e	0.06391369
96	0xbdcf4c72	-0.10122003
97	0xbcb8df15	-0.022567311
98	0xbdbf0ea7	-0.093289666
99	0x3d26a8b4	0.04068823
100	0xbd0b6864	-0.0340351
101	0x3d868d95	0.065699734
102	0x3d167502	0.03673268
103	0xbd2e4d74	-0.042554334
104	0xbc6d86ff	-0.014497518
105	0x3d1fb168	0.038987547
106	0x3cb49b0d	0.02204659
107	0x3d4e70ef	0.05040067
108	0x3da35a3b	0.079761945
109	0xbca85796	-0.020549577
110	0xbd33ea37	-0.043924537
111	0xbdd3af62	-0.10336186
112	0x3d23cb38	0.039988726
113	0xbd62592f	-0.055260833
114	0xbdcd9bad	-0.100394584
115	0x3be0216f	0.006839923
116	0xbdd71dcc	-0.1050373
117	0xbd258c8e	-0.040417247
118	0x3d4fcd20	0.05073273
119	0x3c735156	0.014850935
120	0xbd1d00ec	-0.038330957
121	0x3bd9c7de	0.0066461405
122	0xbcf85cde	-0.03031772
123	0xbda83e6d	-0.08215032
124	0xbbd7c7ae	-0.006585083
125	0x3c0cc5d6	0.00859209
126	0xbcf61033	-0.030037021
127	0x3ce5b65f	0.028041063

classifier.bias f4 [2]
0	0x3e6448cd	0.22293396
1	0xbe2532fd	-0.16132732
