models/gat_engineered_focal_gat_model.pt (torch, 272634 bytes, 10 tensors)

conv1.att_src f4 [1, 4, 64]
000000 29 d0 ec bd 79 51 00 be 8c 79 c8 bc b8 41 cd bb
       -0.11563141 -0.1253108 -0.02447202 -0.006263938
000010 1c 44 9e 3c 3f 42 b3 3d ae 58 e2 bd 24 2b 9b bd
       0.019319586 0.0875287 -0.110520706 -0.07576588
000020 51 ed 8f bd 14 9c a7 bd d1 6b 55 bd b9 69 15 3d
       -0.070276864 -0.081840664 -0.052104775 0.036477778
000030 7b ea 9d 3d c9 4b d5 3d db 3c 39 be db 68 75 3e
       0.07710739 0.104148455 -0.18089621 0.2396578
000040 7c b3 b8 3d 2c 9f 79 bb 2a 8e 06 be 8f 23 24 bd
       0.09018609 -0.0038089259 -0.13140169 -0.040072974
000050 1b bc 4c 3d 2a 8a a9 bd 03 56 f2 3d 62 ea 07 3e
       0.04998408 -0.08278306 0.11832812 0.13273004
000060 fc 87 f0 bd 92 3b a7 3c b1 a1 32 3d a0 e0 bd 3c
       -0.11744687 0.020414148 0.043611232 0.023178399
000070 42 68 13 be f6 d8 9a bc 7a dc 93 3c 7e 28 8d bd
       -0.1439524 -0.018902283 0.018049467 -0.06892489
000080 bc b6 82 bc bf c3 e0 3c 14 57 2f be 8e ee 03 3e
       -0.015956275 0.027437089 -0.17123061 0.1288397
000090 d5 ae 1c 3d 87 1d 54 3d 36 28 66 bd d8 3d ba 3d
       0.03825267 0.051785972 -0.056190692 0.09093827
0000a0 20 24 4a 3d 31 94 9d bd b3 14 4e be de d2 a5 3d
       0.049350858 -0.07694281 -0.20125084 0.0809686
0000b0 9c 42 2b bc 9d 36 b2 ba a7 8a 81 bd 3a 81 ee 3d
       -0.010452893 -0.0013596598 -0.06325274 0.11645742
0000c0 b9 96 79 3c f6 31 83 3d 3b 90 75 3d 62 5e c3 bd
       0.015233689 0.06406014 0.059952002 -0.095394865
0000d0 c2 4b be bd 3b c6 62 3d 7c b9 f7 bc e3 47 c7 3d
       -0.092917934 0.05536483 -0.030239813 0.09730508
0000e0 86 f6 f8 3d a1 95 34 be 32 03 0a be df 9c 53 3e
       0.121563956 -0.17635204 -0.13477781 0.2066531
0000f0 09 31 5c 3c 1a b8 ad bc b8 39 ae 3c 63 a3 c2 3d
       0.013439425 -0.02120595 0.021267757 0.0950382
000100 cb 70 9a bc 3a e4 c5 bd 14 a6 c7 3d 3e af 8f 3c
       -0.018852612 -0.096626714 0.09748474 0.017539617
000110 f5 54 3f 3e 5c d6 53 3e fd 1d 12 bc be 57 1f be
       0.18684752 0.2068724 -0.008918283 -0.15560815
000120 96 07 1c 3d f6 83 12 3e 5d ff bc bc 4c ce b9 3c
       0.038093172 0.14308152 -0.023070985 0.022681378
000130 2b 4a c4 3d b4 ba 2e 3e 66 f2 97 3d 73 ee 84 3d
       0.09584459 0.17063409 0.07419281 0.06490793
000140 05 46 a6 bd 2f 98 ca bc 7c a6 9a bd a6 ff 02 3e
       -0.08118824 -0.02473077 -0.075512856 0.12792835
000150 bd f6 5d be 59 e4 3a be 9d d9 d3 bd 20 42 ee 3c
       -0.21676154 -0.1825117 -0.10344241 0.029084265
000160 e8 b3 0e be 68 29 62 be b9 ad 34 3d 2d e5 15 be
       -0.13935816 -0.22086108 0.044110987 -0.14638205
000170 7e 8e b2 bd 0d ff b1 bd 37 89 d9 bc 8a 54 12 be
       -0.087185845 -0.08691225 -0.026554687 -0.14290062
000180 b7 31 13 bc 5e b8 0c 3e f3 d0 80 3e 1f 9b 47 bd
       -0.008984021 0.13742206 0.25159416 -0.04873192
000190 04 e3 0e 3e 23 03 11 be 98 93 0e 3c 53 f4 53 bd
       0.13953787 -0.14161353 0.008702181 -0.051746678
0001a0 67 ca 6c 3e c9 84 56 3e 57 9f d0 bd 6b a4 b7 bd
       0.23124085 0.20949091 -0.10186642 -0.08966907
0001b0 9b 6f 7d 3e 40 58 05 3e e7 62 ed 3b 2d b6 13 be
       0.24749605 0.13021946 0.007244456 -0.14424963
0001c0 a1 b0 5f bd 68 96 fb bd 55 3f 2b 3c 57 2b 12 3e
       -0.054611806 -0.12284547 0.010452111 0.14274345
0001d0 6a 87 c6 bc 05 51 81 3e f9 46 08 be a0 7f e2 bc
       -0.024234492 0.25257125 -0.13308324 -0.027648747
0001e0 e9 65 2d 3c 33 cd cc 3d 2d e0 b9 3d 7f cc 78 3c
       0.010583379 0.10000076 0.09075961 0.015185474
0001f0 a6 5f 8e bd 5e 8c 78 be 56 3e 87 bd 75 e3 12 be
       -0.06951837 -0.24272296 -0.066036865 -0.1434458
000200 2b 98 8c 3e 57 8b 70 3d 0d 64 a8 bd 98 ca fc 3c
       0.27459845 0.058726635 -0.08222208 0.030858323
000210 f3 bd a6 be f4 39 2c bd 27 bf c5 3c 4c 5e b0 3d
       -0.32566795 -0.042047456 0.024139 0.08611736
000220 a6 84 89 3c 51 b0 f2 3d ed 00 82 bc fc 54 2d 3c
       0.016786885 0.11850036 -0.015869582 0.010579344
000230 e8 58 96 bd f7 8e 06 3e 3d be 3b 3c b0 1c 9a 3d
       -0.07341176 0.13140474 0.011458931 0.07525003
000240 58 32 e5 bd 95 be 5f 3e b2 33 7a 3e 22 2f 14 be
       -0.11191243 0.21850045 0.24433783 -0.14471105
000250 6f 80 15 bd 51 c4 bb bd ec 29 72 3e b7 f4 bd bd
       -0.036499437 -0.09168304 0.23648804 -0.09275191
000260 6b 0e fb 3d 2f 2b 20 3d 86 f3 fc bd 30 3d 1e 3e
       0.122586094 0.039103683 -0.12351136 0.15453029
000270 a1 18 6d 3d 09 c5 77 3e be 02 15 3d 0a 46 0c 3e
       0.057884816 0.24196257 0.03637957 0.13698593
000280 78 d9 5a be 94 df b2 3d ef 72 41 3d 58 e8 62 3d
       -0.2137202 0.087340504 0.04722875 0.05539736
000290 e0 b5 2f be 9f 5b 45 be 2a 12 34 3c 45 b5 43 bd
       -0.17159224 -0.19273232 0.010990659 -0.047780294
0002a0 e4 d1 e4 bd 7f e9 11 3e ef 88 da 3d 64 77 31 3d
       -0.11172846 0.14249228 0.10670649 0.04332675
0002b0 4c e8 8e be 97 76 65 3c db 82 58 3b 1a 44 16 be
       -0.27911603 0.014005325 0.003303698 -0.14674416
0002c0 45 55 b0 bd 43 14 72 be ff 80 2a 3e 85 15 8d bd
       -0.08610014 -0.23640542 0.1665077 -0.0688887
0002d0 1d 0a 4b bc 8a 2d df bd c1 ac 8d bd 8e 63 32 3e
       -0.012392548 -0.10897358 -0.06917716 0.1742079
0002e0 82 c9 06 3e 29 16 33 3e 47 22 5b be 50 6c 53 be
       0.13162807 0.17488922 -0.21399795 -0.20646787
0002f0 5c d2 ad bb d5 b1 14 3e 16 7a a7 3c 1c 47 6e be
       -0.005304618 0.14520963 0.020443957 -0.23269314
000300 68 11 12 be ae ca 70 3d f9 9d 2f be e2 dc 5e be
       -0.14264452 0.05878704 -0.17150106 -0.21763948
000310 00 6c 17 bd 10 46 58 bb d1 9d 42 bc 75 c6 84 3d
       -0.03696823 -0.0033000745 -0.011878447 0.06483165
000320 e1 61 4b 3e 3f 60 2a 3d ea 29 f9 3d 0f 1a 1c be
       0.19861557 0.041595694 0.121661976 -0.15244316
000330 97 e5 3f 3e c2 94 4c 3e 72 5a ea 3d 8e 8d cc 3d
       0.18739925 0.19978622 0.11443032 0.09987937
000340 05 e4 0b be 16 ed 15 be a8 e1 45 3e 8a 03 05 3e
       -0.13661201 -0.14641222 0.19324362 0.12989631
000350 0e 24 c4 3c 58 e7 04 be 34 a9 06 be 57 79 3a bd
       0.023942973 -0.12978876 -0.13150483 -0.045525875
000360 fd fe 0d be 9f a8 1c 3d 03 92 0d 3e bb c0 94 bb
       -0.13866802 0.038246747 0.1382523 -0.004539577
000370 76 33 20 3e 64 c0 1c 3d da a6 4e be 76 4c 98 3d
       0.15644631 0.038269415 -0.20180836 0.07436459
000380 c3 4f cc 3d 9c 28 1d bd 28 c9 01 be 14 8b aa 3d
       0.09976151 -0.038368806 -0.12674391 0.08327308
000390 b4 98 81 bd fc 9a 55 3e 12 17 46 bc 24 2b a5 bb
       -0.06327954 0.20859903 -0.012090461 -0.005040543
0003a0 9a a5 39 3e c1 d4 fa 3a 41 ea de 3b 12 d0 b4 3d
       0.18129578 0.0019136892 0.0068028276 0.08828749
0003b0 52 d8 3e be a3 a4 b8 3d 2b b5 7f bd ab 5b 49 be
       -0.18637207 0.09015777 -0.062428635 -0.19663875
0003c0 aa e8 2f bc b6 8a ff 3c f2 56 52 be c6 38 23 3c
       -0.010736624 0.031194072 -0.2054098 0.009962266
0003d0 58 39 00 be 08 eb 3f be cd a6 74 bd 5c c6 75 3e
       -0.12521875 -0.18742001 -0.059729386 0.2400145
0003e0 98 af 0a be f8 d4 07 be e4 09 96 bb da 15 9b 3d
       -0.13543546 -0.13264835 -0.004578816 0.07572527
0003f0 d1 6f 4c be 4a ac c0 3c 4c a6 c8 bc 15 bc eb 3c
       -0.1996453 0.023519654 -0.024493359 0.028776208

conv1.att_dst f4 [1, 4, 64]
000000 cf 61 9d 3d 59 02 c1 bc bb 13 86 3c c1 8c 1a 3d
       0.07684671 -0.02356069 0.01636683 0.03773189
000010 e2 a6 6c 3c e6 a8 1f bb 5a a3 fd bc cd 00 22 3d
       0.014444085 -0.0024362146 -0.030961681 0.039551545
000020 6d 11 c9 3d 89 cf c9 3d fa 47 07 be 48 48 29 3c
       0.09817777 0.09854037 -0.1321105 0.010332175
000030 c8 b9 b0 3d 9d 6b 89 bc 0e 22 1d bd fb 8d 90 bd
       0.08629185 -0.016774947 -0.038362555 -0.070583306
000040 65 37 30 bd cf 19 b0 3c ed d1 ef 3c d0 54 30 bd
       -0.04302158 0.021496681 0.029274905 -0.043049634
000050 60 98 54 be 3f da da bc b4 e7 bd 3d fd 26 4d bc
       -0.20761251 -0.026715396 0.092727095 -0.012521503
000060 23 52 62 3d 36 cb dd 3b 28 9b 9c 3c f1 13 c7 bc
       0.055254113 0.0067686094 0.019116953 -0.024301501
000070 40 c5 1b bd de 0a 2c bd 10 bd 89 bb 3b 29 c2 bd
       -0.03802991 -0.04200255 -0.004203446 -0.0948052
000080 c6 a5 f8 bc a8 fc a0 bc a8 e2 59 3b 85 24 07 bc
       -0.030352484 -0.019651726 0.003324667 -0.008248453
000090 8f bf bf bd fc 0d f1 3c 60 0f a5 3d b9 06 75 3d
       -0.09362709 0.029425614 0.08059573 0.059820864
0000a0 cb 9d 1b bc 11 da 4c bd dd 2c 97 bd f9 06 75 3d
       -0.00949807 -0.05001265 -0.07381604 0.059821103
0000b0 0f 92 ef bc 41 c6 4d bc 16 2d 10 bd de 38 5d 3d
       -0.02924445 -0.012559474 -0.035199247 0.05400931
0000c0 d8 ef c4 bb b5 e1 77 bc e8 00 2d bd 79 1b af bd
       -0.006010037 -0.015129496 -0.042237192 -0.08550162
0000d0 12 88 62 bc c2 eb 59 bc ad fc bd 3d b5 4c 85 bd
       -0.013826387 -0.013300838 0.0927671 -0.06508771
0000e0 63 45 00 be f9 bb 87 bc 0d 5b 94 bd d6 42 42 bd
       -0.12526469 -0.016569125 -0.07243929 -0.04742702
0000f0 88 ad fe bc f0 13 d2 3c 49 e1 20 bd 92 e4 ec 3b
       -0.031088606 0.025644273 -0.03927735 0.007229396
000100 46 7d 22 bd 7b 36 53 3c c5 35 82 3d 18 0c a2 bb
       -0.03967025 0.012891407 0.06357912 -0.0049452893
000110 a4 fc 93 bc a3 1c 75 bc a2 f8 96 3d 51 e8 b0 3c
       -0.018064804 -0.014960441 0.07371642 0.021595152
000120 b6 97 ae bc cc 78 62 bd c4 3b db 3c 40 70 88 3d
       -0.021312576 -0.055290982 0.026761897 0.06662035
000130 03 08 f5 3c 69 ab 4c 3d 0b 3c a0 3a a5 06 25 bd
       0.029911047 0.049968157 0.0012224925 -0.04028954
000140 61 a0 9c bc cc de 02 3d 93 af f0 3c d3 3f 40 bc
       -0.019119443 0.031950757 0.029380595 -0.011733967
000150 22 09 f8 3c 97 99 b3 bc ae 30 95 bc 8a 46 6d bc
       0.030277792 -0.021923823 -0.018211689 -0.01448215
000160 4f d0 3f bc 4d 88 75 bc 8a 48 88 3c 50 1b 6f bc
       -0.0117073795 -0.01498611 0.016636152 -0.014593914
000170 67 ce 3b bc 52 66 dd 3c 04 1f 4a bb 6b e3 2e bb
       -0.011462784 0.02702633 -0.003084124 -0.0026685845
000180 95 05 e4 bd 4f bb f6 ba 6c 59 ac bb 6e 99 a3 bb
       -0.11133877 -0.0018824133 -0.0052596834 -0.0049926555
000190 c9 8a 3b 3d 66 fe c2 3c 64 e7 b0 bc d6 89 36 3c
       0.045786653 0.023802947 -0.02159471 0.011141261
0001a0 69 3b d1 3b 67 6b 08 3c f1 24 0f bc 17 e6 3a 3d
       0.006385256 0.008326388 -0.008736835 0.045629587
0001b0 52 ff dd 3c 2c 23 b9 3a 94 59 7a 3b 0d 59 ef 36
       0.027099285 0.0014124862 0.0038200365 7.133122e-06
0001c0 2e 4a 64 3a 7a ac 8c bd d0 fc 41 3d 4f 78 13 3d
       0.00087085634 -0.06868835 0.04736024 0.036003407
0001d0 6b fd 58 bd e9 47 95 bd 56 cf 94 bb 65 6d 71 bc
       -0.052976053 -0.072891064 -0.004541318 -0.014735554
0001e0 f8 98 3a 3c 0f 65 a9 bc 15 f2 a6 3c 66 a3 c2 3c
       0.01138901 -0.020678071 0.020379106 0.023759555
0001f0 98 dd 09 bc c4 3a 24 3d da 47 80 3c 51 c4 0e 3d
       -0.0084146485 0.040095106 0.015659261 0.03485519
000200 e8 00 5a bd f5 2f ae bc f8 36 b5 3c 32 b2 cb bb
       -0.05322352 -0.021263102 0.022120938 -0.006216311
000210 04 d4 c5 3c c1 9e 99 3d 81 52 21 3c d0 34 41 bd
       0.024148948 0.07500983 0.009846331 -0.047169507
000220 54 be 00 3d 2f a0 d1 bc db 72 06 bc 06 2f 14 bd
       0.03143151 -0.025589077 -0.008206095 -0.036177658
000230 68 9a 43 bc 5c eb 99 ba 6e 98 cf bc 41 fc ee ba
       -0.011938669 -0.0011743116 -0.025341239 -0.0018233137
000240 92 fb 87 bb 83 6c 1f 3c 75 2d 65 bd e2 75 b1 3d
       -0.0041498626 0.009730461 -0.055951554 0.086650625
000250 87 bf 40 bb 52 b7 17 bd 2a 30 db bc 29 6a bc 3b
       -0.0029411034 -0.037040062 -0.026756365 0.00574996
000260 0d 55 f9 bc a3 32 1c bc d0 50 96 bc 66 cb 46 3c
       -0.030436063 -0.009533557 -0.018349081 0.012133455
000270 7e ee a0 3c a1 e0 4c bb a2 09 0d 3d 7a 07 33 bd
       0.019644972 -0.003126182 0.034433015 -0.043708302
000280 4a f6 70 bd 35 32 16 bb d7 a8 44 bd 10 40 4f 3c
       -0.05882863 -0.002291811 -0.04801258 0.012649551
000290 2d 91 98 bd f8 34 17 bd c6 ff 94 3d 8b 5b 33 3d
       -0.07449565 -0.03691575 0.072753474 0.043788474
0002a0 8a 5c 5e bb 97 30 ab bc 9d 38 af 3b 65 fb a0 bd
       -0.003392967 -0.020897193 0.005347325 -0.0786045
0002b0 9f d6 8c 3c b1 24 c9 3c a3 87 46 3d f6 e9 4c 3b
       0.017192183 0.024553629 0.048469197 0.0031267381
0002c0 83 3f 63 3d 8f 28 f3 bb 7f bc 14 3b 21 78 14 3d
       0.05548049 -0.0074206064 0.002269536 0.036247376
0002d0 f7 05 2e 3d 40 3b 31 3c cb ba a0 bc 4a f5 06 bd
       0.042486157 0.010817349 -0.01962032 -0.03294877
0002e0 98 03 06 bd c4 16 77 3b e1 2c 6a 3c e0 d6 26 bd
       -0.03271827 0.0037702778 0.0142929265 -0.040732265
0002f0 93 78 28 bd 58 2c 46 bd 42 8a 60 bd 67 e9 08 3d
       -0.041130614 -0.048382133 -0.054819353 0.033425715
000300 39 f1 4a bd e3 75 f5 3b 94 69 4d bb 5f 6f 98 3d
       -0.049546454 0.00749086 -0.0031343447 0.07443117
000310 07 4d 6a bd a5 7f 42 3d 7a 40 be bb c9 79 24 bd
       -0.057202365 0.047485013 -0.005806026 -0.040155206
000320 d5 0b 93 bc ce aa 63 bd 20 b7 aa bc ab 79 21 bc
       -0.017949978 -0.055582814 -0.020839274 -0.009855668
000330 d1 16 77 3c 50 23 0a bd 1a ad 59 bc e9 5a af 3c
       0.015081123 -0.033725083 -0.0132859 0.021405654
000340 3b 48 cb 3c 47 3b 91 bc b4 8b 95 bc 16 51 ca 3c
       0.024814716 -0.017728461 -0.018255092 0.024696868
000350 e4 f9 a3 bc 61 2f c9 3c 78 5d c9 bc 6f 06 e2 3c
       -0.020016618 0.024558725 -0.024580702 0.027590958
000360 c0 a1 c3 3c 27 c0 5c bb a8 5e ae bb b5 cd d6 3c
       0.02388084 -0.0033683868 -0.0053213425 0.026221136
000370 1b 14 ec bc d1 00 04 3d ed 58 6e bd 70 17 2b bc
       -0.02881818 0.03222734 -0.058190275 -0.0104426
000380 c7 5f 7e 3d 43 1e 28 3d 15 e8 58 bd 42 e1 56 3a
       0.06210306 0.041044485 -0.052955706 0.0008197018
000390 8b 79 33 bd 64 9e df 3c 5d e8 b9 bc c9 9d 13 3c
       -0.043817084 0.027297206 -0.022693807 0.009009787
0003a0 3d c8 b4 bd b7 c5 8f 3c f2 69 02 bd 9e f2 b9 ba
       -0.08827255 0.017550332 -0.03183932 -0.0014186685
0003b0 b9 b0 97 bd 2f bd b9 bc af 18 0f bd 03 a8 42 bd
       -0.07406754 -0.022673218 -0.03493565 -0.04752351
0003c0 8a a1 11 3d 2a a0 97 3c bc f5 9f bc 27 cc bb bc
       0.035554446 0.01850899 -0.019526355 -0.022924496
0003d0 ee b8 39 bc 28 90 32 be d4 07 46 3c 20 04 29 bd
       -0.011335595 -0.17437804 0.012086827 -0.0412637
0003e0 82 68 97 bc f4 6a 35 bd 68 99 c6 3c 07 0e e3 3c
       -0.01848245 -0.04429145 0.024243072 0.02771665
0003f0 0c ef af bc 38 94 91 3d cc 57 90 bc 9f cd 88 bd
       -0.021476291 0.071083486 -0.01761999 -0.06679844

conv1.bias f4 [256]
000000 6f b6 04 bd 67 f7 48 3d 10 55 6e 3d d5 24 7b bc
       -0.032400545 0.049064066 0.05818659 -0.015328606
000010 89 70 44 3d ee 75 2a 3d c5 c9 07 bd 5d c9 2c 3d
       0.047958884 0.041616373 -0.033151407 0.042184222
000020 0e 81 60 3d 51 76 36 bd fe 4f 47 3d d6 29 86 3d
       0.054810576 -0.04454643 0.04866027 0.06550948
000030 27 73 d0 bc b1 ec c3 3c 0b 37 18 3d 6a 0b 7d 3d
       -0.025445534 0.023916574 0.037161868 0.061778463
000040 9c 0c 0e bd 63 f8 35 3d b5 34 9a 3d a5 f2 55 3d
       -0.034679994 0.044426333 0.07529584 0.052233357
000050 4b 80 17 3d 3b 72 54 3d c8 dc 07 bd 0c 28 97 bc
       0.036987584 0.05186675 -0.033169538 -0.018451713
000060 8b a2 80 3d f3 29 79 3d c6 33 87 3c 39 88 7d bc
       0.062810026 0.06083102 0.01650418 -0.015474373
000070 fb ea 41 3d 76 f5 48 bd 86 26 3b bb da 91 00 3c
       0.047343235 -0.049062215 -0.0028556897 0.007847274
000080 d5 a0 0c 3d d0 02 6a bc 49 c6 0b 3c eb ba 9d 3c
       0.03433307 -0.014282897 0.008531162 0.019254168
000090 63 a6 85 3d 4f 6c 9e 3c c4 3c 85 bc a9 6d 65 bc
       0.065258764 0.019338755 -0.016264327 -0.014003196
0000a0 95 2b 3f bc 52 67 68 3d 98 20 18 3b f0 3b 24 3d
       -0.011668106 0.05673916 0.0023212787 0.040096223
0000b0 b8 e9 bb bc c9 47 b9 3b 0c 15 4e 3d 5e 3d fb bc
       -0.022938594 0.0056543094 0.05031304 -0.03066891
0000c0 24 8d 0f bc e3 da 4d 3d a4 6a 50 bd 69 2d bd bb
       -0.008761678 0.050257575 -0.05088295 -0.0057732356
0000d0 09 0c 90 3d a9 77 e9 3c 00 3a 46 bd 1a 6a d6 bc
       0.070335455 0.028499441 -0.048395157 -0.02617364
0000e0 ae cd 9a bb 35 13 b9 3c ae 24 6e 3a 8c e9 34 3d
       -0.004724226 0.022592166 0.0009084445 0.04416804
0000f0 40 21 ad bb ec b3 07 bc 9c 5e 53 3d 9b 56 38 3d
       -0.0052835047 -0.008282643 0.0516039 0.04500447
000100 17 5d 05 bd 37 18 6d 3d cf a6 ab 3d cb 17 16 3d
       -0.03255948 0.05788442 0.083814256 0.036643784
000110 0a 5d 00 bd 98 14 c9 ba 27 78 a2 3d 70 f9 f2 3c
       -0.03133873 -0.001534122 0.079330735 0.029659957
000120 85 b9 d0 3c cb ec 6a 3b 92 90 4c 3d 13 f7 93 3d
       0.025479088 0.0035846706 0.04994256 0.0722486
000130 b1 5f b2 3d 99 c8 85 3d 79 5e 74 3d 4a e0 1d bd
       0.08709658 0.065324016 0.05966041 -0.038543977
000140 ab 5d 65 3d 37 ea f1 3c 44 a0 24 3c 1f 48 bb bc
       0.05599753 0.029530628 0.010047976 -0.022861538
000150 55 4a 40 3d de 18 28 bd d2 7d 27 3d 03 1c 14 bd
       0.04694589 -0.04103934 0.040891476 -0.036159527
000160 42 58 c9 bc c9 04 dc 3c 1f f7 59 3d 53 ad fe bc
       -0.024578217 0.02685775 0.05321419 -0.031088507
000170 22 71 30 3c f0 7d 07 3d 45 da 08 bc a1 df 42 bc
       0.01076916 0.033079088 -0.008352821 -0.011894138
000180 0c 74 a9 bb 2c e6 70 3d d1 b9 89 3d 51 40 c0 3c
       -0.0051713046 0.05881326 0.06724895 0.023468168
000190 0d 2b 85 3d e8 e7 10 3d 90 ce 0b bd 6a 32 68 3c
       0.06502352 0.035377413 -0.03413254 0.014172176
0001a0 ef d5 06 3d e7 c7 af 3b 2e 5e 63 3d 38 c3 32 3d
       0.032918867 0.0053644064 0.05550974 0.043643206
0001b0 33 a6 30 3d 60 1a d2 bb f2 f6 96 3d 99 c5 18 bd
       0.04312725 -0.0064118356 0.0737132 -0.03729782
0001c0 5e 66 77 3d ae 43 9d 3d 66 f1 eb 3c a8 9e e8 3c
       0.06040036 0.076789245 0.028801631 0.028395966
0001d0 e7 0d 42 3d 24 15 56 3c f6 74 85 3d c4 3a 94 bd
       0.04737654 0.013066564 0.06516449 -0.07237771
0001e0 13 0d 4a 3d 69 1c a0 3b 08 62 49 bc 49 fb 69 3d
       0.049328875 0.0048861993 -0.012291439 0.05712441
0001f0 5d 2f 76 3d cd 49 8d 3d 4b 91 27 bd ee 45 ae 3d
       0.060103763 0.06898842 -0.040910047 0.08509432
000200 b6 7c 5e 3d 4f ba 74 3d 9d 69 33 ba 9d ba 65 3d
       0.054318152 0.05974799 -0.0006844046 0.05608617
000210 de fc 76 3d 1d 3a 0b bb a6 5d 2d 3d 76 a0 14 3c
       0.060299747 -0.0021244355 0.04232564 0.00907146
000220 5c c0 ad 3d 66 30 ef ba 59 8d c3 bc 01 13 9b 3d
       0.08483955 -0.0018248677 -0.02387111 0.07571984
000230 a7 85 88 3c c7 43 54 3d fe 80 94 3d 6b e2 5d 3d
       0.016665293 0.05182245 0.07251166 0.054171007
000240 67 7b 07 3d 45 be 3b 3d 1e 93 12 3c 2c 5a 61 3d
       0.03307667 0.045835752 0.008946208 0.055017635
000250 ef 9d f8 3b 48 4e 49 3d 1c fc 81 3d 58 19 3c bc
       0.0075871865 0.04914692 0.06346914 -0.011480652
000260 98 20 82 3c 27 a6 af 3d 08 b4 22 3d e2 e0 b7 3b
       0.015884683 0.08576613 0.039722472 0.005611525
000270 38 d8 5d 3c 47 0e 80 bc 51 f8 a6 3d 72 96 2b 3d
       0.01354032 -0.015631808 0.08152831 0.041891523
000280 ee 18 15 bd c3 03 cc 3c bd 89 3b 3d f3 b4 3c 3d
       -0.036400728 0.024904137 0.045785654 0.046071004
000290 20 7d d1 bb 51 ae 70 bb b7 7e dd 3c 98 e0 29 bc
       -0.00639309 -0.0036724994 0.027037961 -0.010368489
0002a0 72 e9 11 3d 34 09 24 3d ac f8 78 bc 28 37 52 bd
       0.03562302 0.04004784 -0.015196007 -0.051322132
0002b0 81 94 66 bd 51 89 53 3d a4 92 36 3d 3b ee 4f 3d
       -0.056293968 0.051644627 0.04457344 0.050764304
0002c0 ff e6 6b bb e8 cc 28 3b ef 1c 96 bc de bf cb bc
       -0.0035995839 0.00257569 -0.018324343 -0.024871763
0002d0 3f 5d 11 bd a9 ab 95 3d 3a 23 36 bd 5f 02 6f 3d
       -0.035489317 0.07308132 -0.04446719 0.05835187
0002e0 eb a6 b8 bc 5e 5f 8f 3d f1 bf 80 3d 6e 36 ae 3c
       -0.02254053 0.07000612 0.0628661 0.021266188
0002f0 b0 5c 0e 3c 0e 7f 69 3d 68 0a 17 3d c9 2e 8c 3d
       0.008689091 0.057005934 0.03687516 0.06844861
000300 dd fe 3c bb c2 49 65 bb 45 13 4d 3d ba a2 a3 3d
       -0.0028838434 -0.003498659 0.050067205 0.07990022
000310 98 14 75 3a 10 18 92 3b 1d 5a 8b 3d 2f b3 4c 3c
       0.0009349077 0.004458435 0.06804297 0.012493893
000320 92 50 15 3d 65 c3 99 bc b2 0c 9c 3d aa cf 55 3d
       0.03645379 -0.01876993 0.07619609 0.052199997
000330 26 54 1f 3d 3c 55 33 3d a4 fa 85 3d c7 c4 ab 3c
       0.03889861 0.043782458 0.065419465 0.020967854
000340 05 34 8b 3d 35 39 12 3d 72 7c 04 bd 41 39 26 3d
       0.06797031 0.035699088 -0.032345243 0.040581945
000350 b0 88 48 3d 0e 3d 7e 3d 0c 3a ac 3d d3 25 ef 3c
       0.04895848 0.062069945 0.08409509 0.02919284
000360 32 d0 82 3c 00 5e 7e 3c 6d 76 25 3d ce 03 7c bc
       0.015968416 0.015525341 0.040396143 -0.0153817665
000370 fa 8e 51 bc d0 62 78 3d c5 a8 5e bc 34 a1 97 3b
       -0.012790436 0.06064111 -0.0135900425 0.004627371
000380 06 2c 0b 3d 2a 57 10 3d c4 91 91 3d 10 63 58 3d
       0.03397753 0.035239376 0.07107881 0.05282885
000390 04 19 42 bd e7 cb 54 bc 0f fd dd bc a1 d8 68 3d
       -0.047387138 -0.012988067 -0.027098207 0.05684722
0003a0 7a 13 7b 3d 5a b8 3d bc 27 83 57 3d 65 2b 38 3b
       0.06129787 -0.011579597 0.05261531 0.0028102037
0003b0 46 2a 37 3d d3 c6 57 3d f9 67 0d bd 9c a9 db 3c
       0.04471805 0.052679848 -0.034522984 0.026814274
0003c0 09 17 5c 3d da d1 b9 3c 01 c0 1a bd 27 fe 46 bc
       0.053732906 0.022683073 -0.037780765 -0.012145556
0003d0 2a 78 a4 3c 6e 56 57 bb 3a 82 0d 3d 93 75 63 bd
       0.02007683 -0.0032857913 0.03454802 -0.05553205
0003e0 74 41 b7 3c f7 80 2d 3d 7e f3 da 3c 08 8e e8 bc
       0.022370078 0.04235932 0.026727434 -0.028388038
0003f0 10 02 c6 3a 00 e6 34 3d cd 93 fb 3c ac 69 a4 3d
       0.0015106816 0.044164658 0.030710125 0.08027968

conv1.lin.weight f4 [256, 194]
000000 4e d4 53 bb 62 e1 1d 3c d8 83 a3 3c 0c 78 f4 3b
       -0.0032322588 0.009636255 0.019960329 0.0074605998
000010 9f 6e e1 bb 3e 1b 2f 3c 90 d7 f8 3c 62 98 19 bd
       -0.006879642 0.010687647 0.030376226 -0.03749884
000020 f0 db 06 ba e1 c1 da bb cc 39 28 3c d0 d4 f2 bb
       -0.00051444676 -0.006675944 0.010267686 -0.007410623
000030 2d f0 8d bc 75 ad e5 3a 34 98 aa 3b 12 88 81 bb
       -0.017326439 0.0017523008 0.0052061323 -0.0039529884
000040 50 c9 08 bc 83 8b ac bb f4 ef 5c bb f7 4b 93 bc
       -0.008348778 -0.0052656545 -0.003371236 -0.017980559
000050 b7 c8 86 bc a2 d0 cd bb ad 6c 35 bb d3 1a ce bb
       -0.01645313 -0.0062809745 -0.0027683184 -0.006289819
000060 5b 7c ad 39 b6 92 08 3c 4f f6 75 3c 05 9e 85 b8
       0.00033089783 0.00833576 0.015012338 -6.3713676e-05
000070 d6 e0 b9 bb 09 c8 29 38 00 28 5d 3a 1d b2 85 3c
       -0.0056725545 4.0479037e-05 0.00084364414 0.016320283
000080 31 02 0b 3c 8e 03 e1 bb 13 32 ee 3b 1f a6 5d bb
       0.008484409 -0.006866879 0.007269153 -0.003382094
000090 ce b5 49 bc 47 4f 09 3c 15 1e 00 3c 81 2c 83 bc
       -0.012311412 0.008380718 0.007819672 -0.016012432
0000a0 04 22 8e bb b0 0c 6d bb c1 4e 62 bc 59 0f 9d 3c
       -0.004337551 -0.0036170892 -0.013812722 0.019172357
0000b0 92 22 e3 3c fe 15 ce bb 6f ad 18 bc 10 c3 23 3b
       0.027726445 -0.0062892428 -0.009318694 0.0024988092
0000c0 16 ec 92 bb a3 fb 00 3d da ca a1 3c 5c ee e3 bc
       -0.00448371 0.03148998 0.019750047 -0.02782362
0000d0 7e 2e a6 bc 22 cb cf bb 6b dc b5 bc 06 69 71 ba
       -0.020285841 -0.006341354 -0.02219983 -0.000920907
0000e0 09 04 03 bb 29 b1 8c bc dc 31 34 bc 16 fd 84 bb
       -0.0019991419 -0.01717432 -0.0109982155 -0.0040584905
0000f0 c7 99 05 bb 64 ae 1f ba d4 78 d2 bb 09 3e a3 bc
       -0.0020385848 -0.0006091355 -0.0064230952 -0.019927042
000100 36 00 cc bb b7 d5 f6 bb 52 94 e9 bb 5c 0a 37 3b
       -0.006225611 -0.007532801 -0.007128277 0.0027929759
000110 b3 7a b5 3b 7a a5 ee 3c b5 fc 26 3a 95 2c 35 3b
       0.0055383085 0.02913164 0.0006370054 0.0027644981
000120 3a 0c 88 3c 65 5e 05 bc 8e 0f b1 3b 8c 44 ea bc
       0.016607393 -0.008140181 0.0054034656 -0.028597139
000130 ae 2f 0e bc 9e d5 a2 bb 44 f2 40 bc 01 24 2c bc
       -0.00867836 -0.004969313 -0.011776511 -0.010506631
000140 3a 4a 89 bc a4 46 80 bc d3 c8 78 3b 96 bb 5c ba
       -0.016759027 -0.015658684 0.0037961497 -0.00084202865
000150 5c ef 17 bc af ac 53 3b 09 fe e3 ba c3 ae bd bb
       -0.009273376 0.0032298972 -0.0017394434 -0.0057886555
000160 fe 09 36 bc 2b e0 7c bc 35 ab 15 bd 3a 81 ba 3c
       -0.011110781 -0.015434305 -0.03654023 0.022766698
000170 65 57 3c 3c b8 65 87 3c 05 f1 44 bc 4b 2f 11 bc
       0.011495446 0.016527995 -0.012020354 -0.008861373
000180 ba ea f1 b8 ca 34 ab 3c 43 9b b0 bb a6 d3 9d 3b
       -0.00011535497 0.020899195 -0.0053896024 0.00481649
000190 02 a2 1c bb 2c cc f2 ba c2 e3 0c 3c 25 4b e6 3b
       -0.0023900275 -0.0018523983 0.008599224 0.007028001
0001a0 d5 33 a1 3c ab 7c d1 bb 28 61 e6 ba a5 ac 08 3c
       0.019678036 -0.0063930354 -0.0017576562 0.008341943
0001b0 96 b0 61 3c 32 91 a5 3c 5c f6 60 3c 16 5f 01 3d
       0.0137750115 0.020210836 0.013730612 0.03158482
0001c0 88 00 cb 3c a4 3a 0c 3b 72 dc 09 3d f4 cf 86 3c
       0.024780527 0.0021397257 0.0336575 0.016456582
0001d0 a5 42 24 3c e4 81 96 bb d2 61 88 bc ed 80 95 3a
       0.010025655 -0.004593121 -0.016648207 0.0011406221
0001e0 57 5f 51 bc 05 e6 c1 3b ae 99 50 3c 7f 92 71 bc
       -0.012779078 0.005917313 0.012731953 -0.0147444
0001f0 22 43 1d bc d9 48 99 ba 08 a6 62 bc 66 d0 bc 3c
       -0.009598525 -0.0011694684 -0.01383353 0.02304859
000200 52 ae 01 bb 7c 6b 1f 3c eb 78 e8 3a 8b 16 89 bc
       -0.001978774 0.009730216 0.0017736232 -0.016734382
000210 cd 81 42 bc 1e 32 11 bd f6 6f 8f bc 6a b6 57 3c
       -0.011871767 -0.035448186 -0.017509442 0.0131660495
000220 6b 0f d7 bc 1f 58 aa bc f4 84 2a bd c6 3c 88 3c
       -0.026252469 -0.020793973 -0.0416307 0.016630542
000230 99 bc 67 3c a3 f9 20 3d 52 6d 34 3c 2a b1 4f 3c
       0.014144086 0.039300572 0.011012392 0.012676517
000240 78 10 bc 3c 7b ea b9 3c 95 d2 1a 3c 1d 44 01 bc
       0.022957072 0.022694817 0.009449621 -0.007889775
000250 2c 1c 8f 3c 44 b7 69 3c 96 13 9e 3b f7 f4 33 3c
       0.017469488 0.014264885 0.004824112 0.010983697
000260 80 01 3b 3c 70 47 44 3c 7b dd 95 3c e3 ea 22 bc
       0.011413932 0.011979923 0.018294087 -0.009943697
000270 4e cb 77 bb 39 3b 30 b9 45 8f bd ba ce 89 d2 bb
       -0.0037810388 -0.0001680673 -0.0014462253 -0.006425119
000280 20 39 40 bc 41 3a 0e bc f4 9c 7c bc 13 2d 73 bc
       -0.01173237 -0.008680881 -0.01541828 -0.0148422895
000290 e0 a4 9f bc 8f 56 c7 3c b5 0b 50 3a 52 ef 24 bb
       -0.019487798 0.024333267 0.0007936315 -0.002516706
0002a0 18 68 2a bc cf a9 43 bc 87 06 a6 3c 1f 78 45 bc
       -0.010400794 -0.011942341 0.020266784 -0.012052565
0002b0 04 aa 75 bc 8a 5f f4 bc f4 02 3f bd 02 bf fd bc
       -0.014994148 -0.029830713 -0.046633676 -0.030974869
0002c0 dc 45 81 bc 74 5d 80 bb 4a fe 7b 3b 0c 64 c0 bb
       -0.015780382 -0.0039173905 0.0038451129 -0.0058713015
0002d0 0f 49 3a bc f5 25 bb 39 1a cb 1d bc 67 e2 ae 3b
       -0.011369958 0.000356957 -0.009630943 0.005337048
0002e0 52 69 7d bc 5c 36 95 bb ef 01 28 3d fb 85 ba bb
       -0.015467005 -0.0045535993 0.04101747 -0.0056922412
0002f0 47 1b 9d 3c 46 4d 8e bc da d1 8f 3b fd 73 05 bc
       0.019178046 -0.017370831 0.00438903 -0.00814533
000300 eb 85 52 bd ee b3 2d bd 0e 3a 8a bc 72 17 14 bd
       -0.051397245 -0.042407922 -0.016873386 -0.03615517
000310 f2 71 e5 3c 5c c5 d9 3c 3d 32 a9 3c 4a b9 61 3c
       0.028008435 0.026583366 0.020653838 0.0137770865
000320 16 d7 aa 3c b8 9b a5 bc 1f 70 18 3c 10 bb f1 ba
       0.020854514 -0.020215854 0.0093040755 -0.001844259
000330 7a 1d 8e 3b c2 00 9b 3c 9f 8d 86 bc 91 43 a2 3c
       0.00433701 0.01892126 -0.016424952 0.019807609
000340 a7 f6 04 bd 0d db 09 ba c1 bc 13 bd 11 0c 67 3c
       -0.03246179 -0.00052587764 -0.03606868 0.014101998
000350 0a ae 6c 3c 8a 2c c4 b9 a1 af 6a 3b 36 ad 73 3c
       0.014445791 -0.00037417217 0.003581025 0.01487284
000360 26 7f d1 3a 1c 59 59 bb 43 07 c2 3b 7f 95 dc 3b
       0.0015983328 -0.0033164686 0.005921276 0.0067316885
000370 d1 fb 57 3c a7 09 a4 3c f1 2e bb ba 7b 9b 71 bb
       0.013182596 0.020024134 -0.0014280957 -0.0036866355
000380 97 6d 5c 3a 2c e8 ab 3c 63 f5 81 3b 1d aa 51 bb
       0.0008408664 0.020984732 0.00396602 -0.0031992265
000390 05 dd 86 3b 4d b6 1f 3c 69 4b 98 bb 6c 5e 1a 3b
       0.004115703 0.009748054 -0.0046476615 0.0023554815
0003a0 e7 6c bf 3b 44 76 8a 3c 85 e2 99 3d 45 0d aa 3b
       0.0058418396 0.016902097 0.07513908 0.00518957
0003b0 9b 95 17 bb 02 58 b3 3c 01 84 10 3d 91 04 4a 3d
       -0.0023129943 0.021892551 0.03528214 0.04932076
0003c0 af af e9 3c e3 63 15 bb 53 7d 04 3d cf 2f 8e 3c
       0.028526155 -0.0022795133 0.03234608 0.017356781
0003d0 86 f8 2e 3d 9b be 77 3c 06 8d 03 3d 2e 73 9b bc
       0.04271748 0.0151211275 0.032116912 -0.01897582
0003e0 c1 0b 0c 3c 57 f7 89 3c 07 ac 0c 3c 16 7a 6d 3b
       0.008547724 0.016841574 0.008585936 0.00362361
0003f0 9a 3e 11 3c c3 c5 03 3b ff 99 c9 3c 97 d6 77 3b
       0.008865023 0.002010689 0.024609564 0.0037817114

conv2.att_src f4 [1, 1, 64]
000000 6d 33 9d bd 3c b0 b8 3c 11 0c 46 bd 73 86 93 bd
       -0.07675824 0.022544973 -0.04835135 -0.072033785
000010 6d 47 90 3d 46 a5 9d bd 5b bc 11 be 5f 9a 8a bd
       0.070448734 -0.07697539 -0.14232008 -0.06767725
000020 68 67 99 3d 99 f6 26 be 05 ab a1 bd ef 5b 10 3e
       0.07490426 -0.16305007 -0.078939475 0.1409757
000030 3d 91 b7 bc ea 83 09 3e 0c d2 6a 3d 3e 94 c1 bd
       -0.022408122 0.13429227 0.057329223 -0.09452103
000040 e4 c2 f1 3c 0a 08 ca 3c 0e 53 63 be 09 c4 3f bd
       0.029511876 0.024662036 -0.22199652 -0.046817813
000050 70 a3 09 be 7e b0 93 bd d3 57 14 bd 66 1c 2e 3e
       -0.13441253 -0.072113976 -0.03621657 0.1700302
000060 b6 74 db bd 78 67 3a be 71 bb fe 3b 7c e9 f0 3c
       -0.1071562 -0.18203533 0.0077738096 0.029408209
000070 2f c0 24 be a2 f6 37 be 62 6d 11 3e df 1d c5 bd
       -0.16088937 -0.17965177 0.14201882 -0.09624838
000080 98 9b 97 bd e6 81 e5 3d da a5 5e bc 85 d3 d4 bd
       -0.07402724 0.11206417 -0.013589347 -0.10391907
000090 91 51 68 3d 4b 6c d3 3b 97 b3 3d 3d 23 42 23 3e
       0.056718413 0.0064521185 0.04631385 0.15943198
0000a0 89 c5 ab ba f8 60 69 3e 15 eb ce bd 32 2e 1f 3e
       -0.0013105135 0.22790897 -0.10103432 0.15544966
0000b0 0e 7a d6 ba 8a 7e a2 3d 90 3b d2 bc 9c 5d 1c be
       -0.001636328 0.07934292 -0.025663167 -0.15270084
0000c0 76 08 9b bc 17 65 c7 3d 53 e4 8c 3c d2 fd 53 3d
       -0.018924933 0.09736078 0.017198717 0.051755734
0000d0 30 ef e6 3d 66 af 73 bc 17 d0 20 be 47 08 85 bc
       0.1127609 -0.014873361 -0.1570438 -0.016239299
0000e0 6a fe 33 bc 18 10 8c 3e 6d 4d 06 be ba 9b 5f 3d
       -0.01098595 0.2735603 -0.13115473 0.05459187
0000f0 14 1f 4c 3e 48 37 b7 bd 25 e4 22 3d d2 7f 92 bc
       0.1993373 -0.08946091 0.039768357 -0.017883215

conv2.att_dst f4 [1, 1, 64]
000000 6e d0 91 3c d8 38 06 bd 5e 46 4d 3c bb ae cf bb
       0.017799582 -0.032769054 0.012528984 -0.006337968
000010 c5 89 f6 bc 83 74 7d bd a6 99 b5 3c 1c 0f a5 3d
       -0.03009499 -0.061878692 0.022167992 0.080595225
000020 00 2a 64 bd 94 ce 8c bd 65 76 6c 3d 26 f8 0d bc
       -0.055704117 -0.06875339 0.057730097 -0.00866512
000030 d1 76 9b bc a8 e4 14 bd bd 40 c0 3d 67 0d 7b 3d
       -0.018977555 -0.036350876 0.09387348 0.06129208
000040 da 4a 7b bc 26 e0 c8 bc de d5 10 3d 45 70 71 bd
       -0.01533767 -0.024520945 0.03536021 -0.05894496
000050 36 f6 87 3c ff 9f 08 3e af 43 f1 bb 4c e5 a9 bc
       0.016596895 0.13342284 -0.007362805 -0.02073922
000060 bd ad 8e 3b a6 0f 61 bd cf 0f 3a 3e 13 80 72 3d
       0.0043542073 -0.054946564 0.18170093 0.059204172
000070 6b 4e 2c 3d 76 fa 95 3c fa 8b a7 ba 5f ba 1b bd
       0.042066973 0.018307906 -0.0012782805 -0.038019534
000080 9e 2b da b9 b4 ef 19 bd 38 f7 28 3e 2d 52 2d 3d
       -0.00041612698 -0.037582114 0.16500556 0.042314697
000090 ae a4 b5 3d c9 43 d3 bd bf 9e c7 bc 53 d4 d6 3d
       0.08869301 -0.10315663 -0.024367688 0.104897164
0000a0 9e aa 06 3e 5b 32 2e 3d 3e 52 a9 bd 39 ae 91 3d
       0.13151023 0.04252849 -0.082676396 0.071133085
0000b0 24 fa ce bd 07 45 2d bd 77 86 97 ba e2 85 89 3c
       -0.10106304 -0.042302158 -0.0011560459 0.016787473
0000c0 40 b6 be bd b0 68 11 bc 6b 89 3c bd b6 da ab 3c
       -0.09312105 -0.008875057 -0.04602949 0.020978313
0000d0 e4 73 53 bd 64 71 20 3e 54 a4 9d bd 0e a9 95 bd
       -0.051624194 0.15668255 -0.07697359 -0.07307635
0000e0 dc fd da bd ee 10 7e 3d d1 4b bd bc 8e b1 d6 3d
       -0.10692951 0.062027864 -0.023107441 0.104830846
0000f0 f4 8f 79 3e ba ae cf 3d c9 48 18 3e 26 31 a8 3c
       0.2437132 0.10140748 0.14871515 0.020531248

conv2.bias f4 [64]
000000 36 54 e5 bc c0 e2 31 3d 62 ad 27 3e a2 cc c3 bd
       -0.027994256 0.043429136 0.16374734 -0.09560515
000010 81 d1 03 bd 07 7d 19 3e f0 0b 9e bd d6 b6 25 3e
       -0.03218222 0.149891 -0.07717121 0.16183028
000020 53 43 e5 bc 86 10 ed bb b6 98 1a 3e 66 4b 20 3e
       -0.027986204 -0.0072346358 0.15097317 0.15653762
000030 d2 f0 27 3e b9 5f 27 3e 55 56 21 3e d5 1a 70 3d
       0.1640046 0.16345109 0.1575559 0.05861934
000040 8e 9f 2a 3e 41 64 65 bc 46 7f 32 3e e5 a6 28 3e
       0.16662428 -0.014000953 0.17431363 0.16469915
000050 fd b6 39 bd e9 61 b3 3d 3c 63 e0 bd 65 9e 84 bd
       -0.045340527 0.08758909 -0.109564275 -0.06475524
000060 fb 70 1d 3e ce aa 06 3e 6f 6f de bd ea 8b d3 bd
       0.1537513 0.13151094 -0.10861098 -0.10329421
000070 4a f2 c4 bd 3a ef 8f 3d 51 bc 11 3e 72 3b 2c 3e
       -0.096165255 0.07028051 0.14231993 0.16819552
000080 c7 2c d2 bc b9 28 51 bd 7a ff 87 3d 0f d5 27 3e
       -0.025656117 -0.051064227 0.06640525 0.16389869
000090 de de 23 3e 7a 66 28 3e f3 d7 6d bd b4 1c 39 3e
       0.16002986 0.16445342 -0.058067273 0.18077356
0000a0 73 09 01 3e 0f 75 37 3d b5 3b 2f 3e c0 10 21 bd
       0.12601261 0.04478937 0.1711262 -0.039322615
0000b0 5d f2 9a 3d 78 21 32 3e 3d 12 94 bd 53 af 06 3e
       0.075657584 0.1739558 -0.07230041 0.13152818
0000c0 e7 a2 1c 3e c5 0b 45 3e f6 45 26 3e 6b 27 14 3e
       0.15296517 0.19242771 0.16237625 0.14468162
0000d0 7a 7d 3b 3e 61 b9 20 3e 96 84 2f 3e 70 e1 11 3e
       0.18309584 0.15695716 0.17140421 0.14246154
0000e0 be 36 3d 3e 3f 24 20 3e cf 7b f9 bc fc 05 22 3e
       0.18477914 0.15638827 -0.030454544 0.15822595
0000f0 44 07 ca bd 5a 64 00 3e 72 7c d4 bd f4 d1 27 bc
       -0.09864667 0.12538281 -0.103752986 -0.010242928

conv2.lin.weight f4 [64, 256]
000000 39 7c 1f 3b 1b 2d cb 3a 61 02 04 3c 7c 0c 1b ba
       0.0024335517 0.0015501113 0.008057208 -0.0005914641
000010 78 f2 95 3b d3 8e 30 bc 92 96 4a bc 52 76 2a 3d
       0.0045760237 -0.010776239 -0.012365 0.041616745
000020 fe ff c1 3b f1 ea 30 39 24 f9 33 3c 70 64 54 bc
       0.005920409 0.0001687219 0.010984693 -0.012963399
000030 a7 a2 59 bd c0 78 59 bd db 25 dd bb ac bc c4 3b
       -0.053133633 -0.05309367 -0.0067488975 0.0060039368
000040 f0 cb 1a 3d bd 1e 94 bc 64 3d f1 ba 83 6c b1 bb
       0.037792146 -0.018081063 -0.0018405137 -0.005414547
000050 d8 54 1c 3c 85 03 d6 bb 16 b2 a3 bc 86 47 3f bd
       0.009541713 -0.0065311813 -0.019982379 -0.04669907
000060 74 ca 40 3a e9 4e 3e bb 2f c6 12 3a ec 9e d0 3a
       0.00073543866 -0.0029038733 0.00055989897 0.0015916503
000070 03 a0 4f bc e4 64 05 bd 0c 0d 22 bd c1 cd 90 bd
       -0.012672427 -0.03256692 -0.039563224 -0.070704944
000080 9f 22 0b 3d 22 f5 24 3d 36 54 84 bd 11 75 82 3c
       0.033968564 0.04027284 -0.064613745 0.015924962
000090 72 40 e0 3c e0 19 0c ba f3 6f 76 bd 91 6d ac 3c
       0.02737448 -0.0005344432 -0.060165357 0.02104834
0000a0 ac 3b 8c bb 9b e1 a7 3b d7 d8 86 39 c7 e7 3e bd
       -0.0042795744 0.00512333 0.0002572003 -0.04660776
0000b0 5c 8b c2 bd 64 90 dc ba 59 8c 99 bc a9 2f 3a 3c
       -0.09499237 -0.00168277 -0.01874368 0.011363902
0000c0 78 1f c8 bb 4c 2d 14 3c 83 00 53 bb 27 a9 a6 bb
       -0.006107267 0.009044003 -0.003219635 -0.0050860825
0000d0 9a ec 3f 3b b8 82 1d bb 37 96 c0 bb 15 21 0e 3d
       0.0029285313 -0.0024034213 -0.005877282 0.03469952
0000e0 d3 d6 61 bc e2 66 10 b9 db 20 38 bc 25 36 cf bc
       -0.013784128 -0.00013771237 -0.011238302 -0.025294373
0000f0 70 3b df bc c1 ef 1f bc a6 60 27 bd 40 26 ed bb
       -0.027250022 -0.009761752 -0.040863656 -0.007237226
000100 30 ab 5c bd a8 07 ba 3c a4 91 ce bc 4c 7b 2d 3c
       -0.053874195 0.022708729 -0.025215931 0.010588478
000110 0c 32 2c bd e5 8c 88 bd 4d b3 08 3d e5 14 a6 3b
       -0.042039916 -0.066674985 0.03337412 0.005068409
000120 20 52 62 3a 3f 00 0e 3c 06 b8 b9 bc a7 f8 2a bd
       0.00086334534 0.008667051 -0.022670757 -0.04174104
000130 0e 4c fc bc d4 e1 da bd f7 4c 67 3c d0 23 28 bd
       -0.030797984 -0.106876045 0.014117471 -0.04104978
000140 97 33 fe 3b ef dd 89 ba a0 ae d7 3b f9 85 09 3d
       0.007757615 -0.0010518412 0.006582096 0.033575032
000150 55 08 44 bc 55 3d ac bd 52 3b 55 bc 5c 77 26 3c
       -0.011964877 -0.08410136 -0.013014631 0.010160293
000160 9c 31 e6 3c 95 79 57 3c b3 56 20 3c 46 51 1c bc
       0.028099827 0.013151546 0.009786296 -0.0095408615
000170 b9 22 e0 bc fc ab 3f 3b e6 3d 75 bc 0b 5b 0e bb
       -0.027360307 0.0029246798 -0.014968371 -0.0021721746
000180 8c 7b 1c b9 cb 6b b3 bb 69 b8 9b 3c d3 90 90 bd
       -0.00014923344 -0.0054754964 0.019008832 -0.07058873
000190 00 d4 70 bd b8 19 99 39 28 b9 02 bc c1 e2 89 3a
       -0.05879593 0.00029201596 -0.007978715 0.0010519848
0001a0 02 3d 1a bd 1e f7 02 3b 33 f8 c6 3c 68 fe cc ba
       -0.037655838 0.001998372 0.024288272 -0.0015639784
0001b0 bb 33 8d bb 37 f8 1a 3d 55 02 a8 bd 48 3d e7 bc
       -0.0043091453 0.037834372 -0.0820357 -0.028227463
0001c0 97 a2 fa 3a 1c ac 44 bd 4b c5 9b bd 11 98 98 bd
       0.0019121942 -0.0480157 -0.0760599 -0.07450879
0001d0 a9 d6 6b bd 2b 9a 2b bc 7d c0 88 bc 6c c2 c4 bb
       -0.057577763 -0.010473768 -0.016693348 -0.006004622
0001e0 49 44 18 bc 9d 7a 35 3d 56 ac a8 bc bd ab 17 3d
       -0.009293624 0.044306386 -0.020589989 0.037029017
0001f0 91 6a 0c 3d fb b6 02 bc 45 3c 6d bd 32 b5 88 bb
       0.034281317 -0.007978196 -0.057918806 -0.004171991
000200 af b7 76 bb 04 c3 7b 3c 0d 62 4b 3d 67 10 b7 3b
       -0.0037646105 0.01536632 0.049654055 0.005586672
000210 21 f5 b3 bd f7 48 69 bd 75 0e 4b 3c 04 99 2c 3d
       -0.08786989 -0.05695435 0.012393584 0.042138115
000220 c1 3a b3 bd 0b a8 e1 bd de 43 d3 3c 41 db 1a bd
       -0.08751441 -0.1101838 0.025789198 -0.037806753
000230 f2 4d dc 3b 33 31 c9 bc 91 6c 42 bd dd 92 cd ba
       0.006723159 -0.024559593 -0.04746682 -0.0015684027
000240 3e b1 ff 3b a1 d8 c8 bc 45 2e d7 bd 84 91 69 b9
       0.0078031113 -0.02451736 -0.10506872 -0.0002227482
000250 8f 09 b8 3b 88 bd 1d bc b4 31 71 3c 61 83 75 bd
       0.005616374 -0.009627707 0.014721323 -0.059939746
000260 ff cf 22 3c 3d 30 37 bc aa ea 04 bd ec 3f 10 3d
       0.009937285 -0.0111809345 -0.032450356 0.03521721
000270 4c 9d ae 3b 4d 8e fc 3b 81 0a 91 bd 6a 4f f1 bd
       0.00532881 0.0077073933 -0.070820816 -0.11782725
000280 fd f2 a0 bd c6 e2 97 3c d4 fd 13 3d 45 11 39 bd
       -0.07858846 0.018540751 0.03613074 -0.045182485
000290 f0 b8 1e 3d 63 e7 a6 bb fe bf eb bd 2d e1 55 bd
       0.03875059 -0.0050935014 -0.11511229 -0.052216697
0002a0 dd 36 76 3c 69 50 d4 3a d8 a4 72 bc 94 0e b4 bd
       0.015027729 0.001619828 -0.01480981 -0.08791843
0002b0 b5 8d 50 bd 46 c2 32 bb 3f 80 df bc d5 69 72 b7
       -0.050916392 -0.002727644 -0.027282832 -1.4448965e-05
0002c0 44 00 8d 3c 64 d7 af 3c 39 bc b5 bb db 98 a7 bb
       0.01721204 0.021465011 -0.0055461195 -0.0051146573
0002d0 9b cd 19 bd 3f a7 c8 bc a7 5a df bc ac c7 ae bc
       -0.037549596 -0.024493812 -0.027264906 -0.021335445
0002e0 f1 35 d4 3c fe 0d ab bc af 45 39 bd 99 85 74 3c
       0.025904628 -0.020880695 -0.04523247 0.01492443
0002f0 f9 c5 d1 bd ca eb 08 bc 52 86 ec bc 15 be 07 bd
       -0.102428384 -0.008356998 -0.028872643 -0.03314026
000300 85 74 f0 ba 85 81 7c bd 8f a7 06 3c 05 8d c6 3b
       -0.0018345272 -0.061646957 0.00821866 0.0060592913
000310 47 25 82 bd 7a af 05 bd 0d 7b bb bb d2 e8 21 3c
       -0.06354766 -0.03263805 -0.005721456 0.009882169
000320 59 28 8d 3c 8a 5c 17 bc a0 ca 48 3d 25 85 22 bc
       0.017231153 -0.009238372 0.049021363 -0.009919439
000330 30 9f de 3c a5 5e 24 3d d9 4f fc bb c5 40 25 3d
       0.027175516 0.040129323 -0.0076999483 0.040344972
000340 3d 0f 21 3b b1 79 84 bc 73 9c de bc d2 4d 3e 3d
       0.0024575733 -0.016171308 -0.02717421 0.046460934
000350 2c 61 e2 3b 02 02 34 3d c2 73 e0 bc 59 e5 92 bd
       0.0069085564 0.043947227 -0.027398948 -0.07172651
000360 a3 da 93 3c 6c 88 3c 3d 13 19 c9 bd fd da f3 bd
       0.01804859 0.04602854 -0.09819236 -0.11907003
000370 74 e5 05 be 10 2a 9c 3c f4 82 26 bb bb 5a bf bb
       -0.1307581 0.019063026 -0.0025407644 -0.0058396733
000380 3a 10 1f bd af 7d 5e bd e0 15 ac 3c 03 e1 63 3b
       -0.038833834 -0.05431908 0.021006525 0.0034771569
000390 e2 09 dd 3c a8 78 bc bc f1 29 04 be b4 cd a1 bc
       0.026982252 -0.023006752 -0.12906624 -0.019751407
0003a0 71 00 93 3b e9 cc e4 bb cc 68 dc bc 08 31 f9 3b
       0.0044861366 -0.006982435 -0.02690544 0.007604722
0003b0 74 6d e9 b9 d6 4c 24 bd 67 b5 74 bd a6 77 ac bd
       -0.00044522772 -0.04011234 -0.05974331 -0.08421259
0003c0 42 bb d6 bc 37 b7 3e 3d 79 8e f3 bc 09 da 0c bd
       -0.026212338 0.046561446 -0.029731022 -0.034387622
0003d0 41 e6 e0 3c 15 d8 cf bc 2c b5 0d bc 43 aa 03 bd
       0.027453544 -0.02537159 -0.008649152 -0.032144796
0003e0 ba 04 64 bc 9b 23 1b bd 95 ac 0e bc e9 c1 86 bd
       -0.0139171425 -0.037875753 -0.008708139 -0.06579954
0003f0 f8 45 dd 3c 0d a2 86 3c 79 9e 3d bd c1 26 60 3c
       0.027010903 0.016434694 -0.04629371 0.013681115

classifier.weight f4 [2, 64]
000000 fe 9c ab 3d fb 96 95 bd 05 d2 bb 3d a7 72 68 3b
       0.08379553 -0.07304188 0.091709174 0.0035468729
000010 bb ae 8b bd de 01 d3 3d e6 00 93 3d 80 f5 a4 bc
       -0.068204366 0.103030905 0.07177906 -0.020136595
000020 79 74 59 bd 43 df a8 bd 10 10 45 3c d1 ed ae 3c
       -0.053089593 -0.08245709 0.012027755 0.021353634
000030 ff 5b bd 3d ce 5a 7e 3d 5a 29 3c 3b fe d0 93 bd
       0.092460625 0.062098317 0.002871117 -0.072175965
000040 91 59 c5 3d 23 d2 9a 3d 87 4d a8 3d 09 12 5c bc
       0.09636224 0.07559612 0.08217912 -0.013432034
000050 20 81 93 bd d7 ec e5 bc 90 8f 75 bd c3 90 6e bd
       -0.07202363 -0.028067036 -0.059951365 -0.058243524
000060 ec 44 91 bd d4 7d 04 3e 61 ca b3 bd cb 86 30 bb
       -0.07093224 0.12938625 -0.08778835 -0.0026935812
000070 50 0d d5 bb 93 17 ad bd 95 1f 67 3d 5c b2 4d 3c
       -0.006501831 -0.08451762 0.056426603 0.012554731
000080 45 4b b1 bd ed e4 44 3d ef 61 3f bd b7 12 4a 3c
       -0.08656935 0.048069883 -0.046724256 0.0123335635
000090 55 b5 49 3c 10 2b 41 bd 27 37 49 bd 30 14 99 3d
       0.012311299 -0.04716021 -0.049124863 0.074745536
0000a0 d9 e8 15 3e c6 c3 34 bc 47 a9 2a 3d 77 e2 30 bd
       0.14639606 -0.011033004 0.04166534 -0.043184724
0000b0 f5 fd d9 3d f8 fb b6 3d 3a 71 84 3d af ba d9 bd
       0.106441416 0.08934778 0.06466909 -0.1063131
0000c0 b1 8e 58 3d 54 78 53 3d 7e 31 ca 3d 78 a2 0f 3e
       0.052870456 0.051628426 0.09872721 0.1402682
0000d0 5c 58 26 3d 76 4d e7 3c 96 03 84 bc 28 66 7f bc
       0.04061161 0.028235178 -0.016114991 -0.015588321
0000e0 76 da 9f 3d e0 6c 6f 3c 3e d3 8d 3d 9c dc f2 3c
       0.0780534 0.01461336 0.06925057 0.02964621
0000f0 44 0e 81 bd 50 60 ec bb 4e e5 76 bd 9e 7e ce 3d
       -0.06301549 -0.00721363 -0.060277276 0.10082744
000100 b1 de 48 3d 31 f6 20 bd 9f ae 97 3a 83 ae 5f 3d
       0.0490405 -0.039297286 0.0011572427 0.054609787
000110 d5 b2 e3 bd 63 1a a0 3d 3c e2 8e 3d d6 3d 5e bd
       -0.11118094 0.07817533 0.069767445 -0.05425819
000120 ae c2 be bd 04 95 cc bd 93 6c 95 ba 05 11 8b bd
       -0.09314476 -0.0998936 -0.0011400155 -0.067903556
000130 30 43 19 3d 94 11 83 3d 65 fe c2 bd f0 4c 01 be
       0.03741759 0.06399837 -0.09521178 -0.12627006
000140 12 7c 7c 3d ad df 17 3d 8b 0d ac 3c e0 90 af bd
       0.06164176 0.03707855 0.021002552 -0.085725546
000150 e1 7c 94 bd ce 70 b9 bd 2a 4f a2 3d 52 03 92 bd
       -0.07250381 -0.09054719 0.079252556 -0.071295395
000160 40 2d bf bd a7 62 ef 3d 1e 62 ba 3d 67 c8 7f 3d
       -0.09334803 0.11688738 0.091007456 0.062446978
000170 fd 33 23 3d c7 c9 0c be 55 67 0f bd 0d 0f b6 bd
       0.0398445 -0.13748847 -0.035010654 -0.088895895
000180 04 a4 83 bd ba af 05 3d fb 4f b0 bd 02 56 20 bd
       -0.06427768 0.03263829 -0.08609005 -0.039144523
000190 0f 5f fb 3b 80 41 d8 bd ca 8c 91 bd 72 be 28 bb
       0.007671244 -0.10559368 -0.071069315 -0.002574828
0001a0 42 49 9e 3d 14 02 36 bd 18 78 c4 bc 8f 05 66 bd
       0.077288166 -0.044435576 -0.023983046 -0.056157645
0001b0 47 4b 61 3d 1b c0 18 3d 04 a2 8a 3d 3d 1a 0c bd
       0.05500343 0.03729258 0.06769183 -0.03420471
0001c0 52 ae 6c 3d 2b 18 83 bd 09 d8 5e 3c 32 0d 87 3d
       0.057783432 -0.06401094 0.0136013115 0.06594314
0001d0 17 1a 4b bd 9d f8 10 bd f0 d4 e7 bd f5 d4 21 b9
       -0.049585428 -0.035393346 -0.113199115 -0.00015433489
0001e0 84 3e 02 bb 5b 54 c1 bd 92 29 d9 3d f3 a6 1f bc
       -0.0019873688 -0.09439918 0.10603632 -0.009744394
0001f0 c2 f4 77 3c 05 20 73 bb 9d 54 da 3c 1b 0d ba 3d
       0.015134038 -0.0037097943 0.026651675 0.09084531

classifier.bias f4 [2]
000000 f4 98 a0 3d c9 44 56 be
       0.078416735 -0.20924677
