models/gcn_baseline_focal_gcn_model.pt (torch, 130074 bytes, 6 tensors)

conv1.bias f4 [128]
000000 cb 93 5e bd ce 60 f5 bc 00 52 94 bd a5 3e a3 bd
       -0.054340165 -0.029953387 -0.07242203 -0.07970933
000010 9f 28 44 bd 6b 23 09 bd c3 d6 02 3c 5f 8f 52 3d
       -0.0478903 -0.033481043 0.0079857735 0.05140626
000020 05 f4 96 bd 88 51 43 3d 49 8f 3b bd cc fd 40 bd
       -0.07370762 0.047685176 -0.045790944 -0.04711704
000030 d0 57 a3 bd 3d 3a 25 bd 9c f5 21 3a d0 fb c5 bd
       -0.07975733 -0.040338743 0.0006178261 -0.0966717
000040 b0 6c 0e 3b a7 70 ef bd a5 4f b1 bc fd 9a 28 bd
       0.0021732263 -0.116914086 -0.021644423 -0.041163433
000050 c5 28 23 bc 81 da 7f 3c e2 98 1f 3d 7a 1f e5 bd
       -0.009958451 0.01561606 0.03896416 -0.11187644
000060 d5 37 37 3c 35 31 f2 bd e2 2f 2c bd 6c 68 39 3b
       0.011182745 -0.11825792 -0.042037852 0.0028291
000070 3c 71 a1 bc ed ff 8a bd f2 63 0f bd ee d3 03 bd
       -0.019707315 -0.06787095 -0.035007425 -0.032184534
000080 66 9f 0a 3d 3e d1 94 bb e7 78 a1 3b 64 27 b6 bd
       0.03384342 -0.004541545 0.0049277428 -0.08894232
000090 d7 a2 72 bc 0a cc c2 3c a9 dd f9 bc ce be fe bd
       -0.014809332 0.023778934 -0.030501204 -0.12438737
0000a0 fd 75 df 3b 76 65 95 3d c9 81 4e bc 32 34 19 be
       0.006819485 0.07294743 -0.012604185 -0.14961317
0000b0 70 a3 bf 3c 50 1c cb bc 83 c0 93 3d 20 9b ee bc
       0.023393363 -0.024793774 0.07214453 -0.029126704
0000c0 32 74 de bd 71 8c 8c bd 90 b3 90 bd a9 51 25 3d
       -0.10862006 -0.068627246 -0.07065499 0.04036108
0000d0 29 58 3a 3c 31 9d f3 bc 74 4c 7c 3c 9b 39 26 bd
       0.011373558 -0.02973804 0.015399087 -0.04058228
0000e0 dd 04 9a 3c f3 61 f2 bd 5b 70 c6 bd 52 60 e7 3c
       0.018801147 -0.118350886 -0.09689399 0.028244171
0000f0 8a 48 49 bd ef dd a6 bd a4 55 7a 3d 7e d6 e0 3c
       -0.049141444 -0.08147799 0.06111683 0.027446028
000100 f3 c3 2c 3d da 80 6b bd 78 e4 43 3d 50 9c 9f 3d
       0.04217906 -0.05749593 0.047825307 0.07793486
000110 5d cb 22 be 68 d2 c8 bc 32 a8 d2 bd 01 21 9a 3d
       -0.1589789 -0.024514392 -0.10285987 0.07525826
000120 21 64 0a bd a2 f5 8c 3c c1 17 21 3b d4 e8 72 3b
       -0.033786897 0.01720697 0.0024580809 0.0037065046
000130 83 36 0a bd 5e a9 e9 3c 82 09 de bc b2 95 da bd
       -0.033743393 0.028523143 -0.027104143 -0.10673083
000140 a7 76 9f bc 7e 6d f1 3c ca 54 b9 bc 91 9e f1 3c
       -0.019465758 0.029471155 -0.022623438 0.029494556
000150 34 47 13 3c 48 de 16 3d 08 65 92 3d a5 4e 13 be
       0.008989144 0.036833078 0.071481764 -0.1438547
000160 ad 26 20 3d 32 15 12 bd 46 77 08 bc dc 0b 53 3d
       0.039099384 -0.035664745 -0.008329218 0.05152498
000170 2c 03 47 3c 0a 52 df 3d 32 ac 13 be ea 72 3f 3d
       0.012146752 0.109043196 -0.14421156 0.04674045
000180 f8 95 1d bd 4c 94 1b 3d 9f 0c c6 bc 60 8a bb ba
       -0.0384731 0.037983224 -0.02417594 -0.0014308207
000190 42 92 99 3d dd c8 e0 bd a4 ec 8d bd 3d ce 0e be
       0.074985996 -0.10975812 -0.06929901 -0.13945861
0001a0 93 d3 3a 3d 20 49 07 bd 63 a3 2d 3d c8 eb ae 3c
       0.04561193 -0.03302872 0.042392146 0.021352664
0001b0 9e e8 aa bd c9 b4 da bd f4 35 e9 bd 9b 24 09 bd
       -0.083451495 -0.10679013 -0.11387244 -0.033482175
0001c0 82 11 74 bd c0 3e f5 3c 79 dc 2f 3d e4 6c c4 bd
       -0.05958701 0.029937148 0.04293487 -0.09591082
0001d0 66 93 dd 3c ae 3a f2 bc 22 7d c4 bc 61 93 62 bd
       0.027047824 -0.029568996 -0.02398545 -0.055316333
0001e0 38 2f c0 bd c2 06 13 3d 68 90 90 3c 6d 5f b3 3d
       -0.09384006 0.035895117 0.017646983 0.087584354
0001f0 53 b2 36 bd 76 36 90 bc 5f b4 0c 3d 52 14 f2 bd
       -0.044603657 -0.017604094 0.034351703 -0.11820282

conv1.lin.weight f4 [128, 182]
000000 c4 1d 47 bc 25 35 1b bd 74 1e 9a 3d 82 1a 37 3b
       -0.012153093 -0.03789248 0.0752534 0.0027939384
000010 7d 26 b9 3a b8 38 f6 3b e4 ee ba bc 76 41 13 bc
       0.001412585 0.0075140856 -0.02281899 -0.008987775
000020 c3 19 25 bc 59 f9 57 bb 32 a9 21 bc 12 ff 20 bd
       -0.010076943 -0.003295502 -0.009866999 -0.039305754
000030 bc 30 13 bd 02 a6 b7 3a b0 05 6e bc fb b3 97 bb
       -0.03593515 0.0014011266 -0.014527723 -0.0046296096
000040 bc 1f 38 bc 04 f3 8a bc 6c b6 b1 bc 54 fc 6d bc
       -0.011238035 -0.016961582 -0.02169343 -0.014525492
000050 09 b8 5b bc 6c 78 35 bb f0 0e 92 3b 4e 31 0d 3c
       -0.013410577 -0.0027690185 0.004457347 0.008617712
000060 8d 3b ef 3a 0f 44 f0 bc 67 09 9a bc 8b b0 35 bb
       0.0018252 -0.029329328 -0.018803312 -0.0027723636
000070 63 1d 92 3b fb 03 0e 3c 2b 7a f2 3a 39 5e f2 bc
       0.0044590696 0.008667941 0.0018499544 -0.029585944
000080 04 11 99 bc ac 1b 06 bc 58 ad 1a bc 42 94 a9 bb
       -0.018684871 -0.008185308 -0.009440742 -0.0051751444
000090 c2 76 0f bc 05 16 a2 3c 59 ac 51 3c 94 91 b3 3b
       -0.008756341 0.01978589 0.012797439 0.0054800007
0000a0 7b d7 d8 3b 1b e2 07 3c 5a 5a d1 3b b3 37 49 bb
       0.006617484 0.008293654 0.0063889446 -0.0030703365
0000b0 48 32 df 3b 74 0c 37 3c 60 1b 42 3c e5 01 23 3c
       0.006811414 0.011172403 0.011847347 0.009949182
0000c0 b4 db 40 3c f3 05 cd bb ab 9d a1 39 8b ca 3d 3c
       0.011771131 -0.0062568127 0.00030825785 0.011583935
0000d0 ab 41 2d 3c ea d6 54 3b 45 3a a7 3c be 11 66 bc
       0.0105747385 0.0032476732 0.020413527 -0.014042316
0000e0 92 a7 56 bc e1 88 8e 3b af f8 51 b9 7f ce 24 3a
       -0.013101475 0.0043498133 -0.00020024435 0.0006286874
0000f0 53 38 ab 3a c7 4a ca 3c c2 82 da 3c bb 8a 8b 3b
       0.001306305 0.02469386 0.026673678 0.0042584813
000100 a0 89 53 b9 f8 5c 23 3a 3a 6e ab 3a b7 51 7e 3c
       -0.00020173797 0.000623181 0.0013079115 0.015522412
000110 f1 3f 8e 3c 99 16 33 bb 4c 02 6a bc ee 0a ef bb
       0.017364474 -0.0027326702 -0.014282774 -0.007295004
000120 87 20 b1 bb bc 7d a9 3c 73 26 af 3c 5b f1 41 bc
       -0.005405489 0.020689838 0.021380639 -0.011837329
000130 d6 41 08 bb 82 ae 98 3a 3e a0 47 ba 32 de d3 3c
       -0.0020791194 0.0011648687 -0.00076151255 0.025862787
000140 a5 d2 ea 3c 58 41 7c bb 0d b2 8f 3b e5 58 f3 3b
       0.028664896 -0.0038491096 0.004385239 0.0074263685
000150 58 61 ee 3b e9 d6 e5 3c 1e 54 ce 3c c7 79 bf 3c
       0.007274788 0.028056579 0.025186595 0.023373498
000160 11 c1 a5 3c 5f 74 13 3d cb d6 ea 3c 55 5f aa 3c
       0.020233663 0.035999652 0.028666874 0.020797411
000170 a3 e4 6b 3c 05 4d 43 3c 79 54 86 3c 5f ba 68 3c
       0.014397773 0.011920218 0.016397702 0.014204591
000180 53 65 6a 3c fa ae 3a 3c ed 83 64 3c 8f 06 b3 3c
       0.014306384 0.011394257 0.013947469 0.021853713
000190 2f ff e5 3c 92 56 45 3c 17 5d d9 3c b0 cb 25 3c
       0.028075783 0.012044566 0.026533647 0.010119364
0001a0 00 d8 dd 3b 19 d5 c2 3a 51 be 55 bc 1e 8b 48 bc
       0.006770134 0.0014864533 -0.013045863 -0.012240199
0001b0 a9 e7 be bb 8a 63 c7 3c de bb d7 b9 88 fd 40 bb
       -0.005825956 0.024339456 -0.00041147968 -0.0029447991
0001c0 9e 95 4d bc 8e dc 6a 3c b7 b2 5f bb 26 42 fd 3b
       -0.012547879 0.014334811 -0.0034133622 0.007728833
0001d0 13 86 ce ba 78 c0 36 bb cd 54 42 bc cd c0 d6 ba
       -0.001575651 -0.0027885716 -0.011861038 -0.0016384363
0001e0 c2 98 fc ba a2 fc ad 3c 2d db 99 3c eb d2 cd 3b
       -0.00192716 0.021238629 0.018781269 0.006281247
0001f0 b6 36 94 3b 26 b7 c9 3a 0b 07 c4 3b 41 ec 25 bc
       0.0045231236 0.0015389665 0.005982285 -0.010127128
000200 42 60 96 bc ef 91 64 3c 56 56 88 bc 56 8d 81 bc
       -0.018356446 0.013950809 -0.01664273 -0.015814465
000210 d0 f3 36 bc 36 7a 90 3c e6 4e 69 3c b0 ee 99 3c
       -0.011166528 0.0176364 0.014240002 0.018790573
000220 00 17 c3 3a ae 86 a5 3b b1 88 aa 3c 01 ab a6 3c
       0.0014884174 0.0050514555 0.020817133 0.020345213
000230 1a 79 8e 3c 72 38 12 bd 43 d9 0a bd 86 57 51 bc
       0.01739173 -0.03569836 -0.033898603 -0.012777215
000240 ec d9 a5 bc 04 70 f5 3c af 22 d7 3c 28 80 87 bd
       -0.020245515 0.02996064 0.026261656 -0.06616241
000250 07 bd 19 bc 5b 1c d7 3d 2d ba 54 bd cd 6a 21 bd
       -0.009383447 0.10503455 -0.051935364 -0.039408494
000260 ab df 23 bd 46 ab 36 3c 0d b1 2c 3c 3a 16 ff 3c
       -0.04000823 0.011149233 0.010540259 0.031138528
000270 c6 a0 10 3d b0 63 c2 ba 3e e5 3b 3b 59 50 e6 bc
       0.035309575 -0.0014830735 0.0028670575 -0.028114485
000280 65 b5 83 bb 7f 57 9f bb 87 8f 88 bc c2 31 e0 bc
       -0.0040194266 -0.0048627253 -0.016670002 -0.027367476
000290 8e f8 f4 bc ed bc 47 3b 2d 1e 3d 3c 41 ac 47 bc
       -0.029903676 0.0030477599 0.011542839 -0.012187065
0002a0 87 47 1b bd 48 f9 db 3a 94 d0 47 3b 2b a4 ba 3a
       -0.03791001 0.0016782666 0.0030489312 0.00142396
0002b0 91 24 13 bc 38 f7 2a bc 2d 4a 24 bc e7 42 0a bc
       -0.008980886 -0.010434918 -0.0100274505 -0.008438802
0002c0 22 10 45 bc db a0 8c bb 6d 72 36 bc 84 26 99 bc
       -0.012027772 -0.0042916364 -0.01113568 -0.018695123
0002d0 3d 6e 94 bc af ed 46 bc 3a d5 cd bc b3 83 8a 39
       -0.018118972 -0.012141629 -0.025126088 0.00026419535
0002e0 b8 db 7f bd 22 fa 3a bc 13 4a 5e 3b 6e bd 79 bc
       -0.0624654 -0.011412175 0.0033918663 -0.015242917
0002f0 d0 bc 85 39 83 55 e7 bc 7d 1c d6 bc 14 17 96 3b
       0.00025508413 -0.028239017 -0.026136631 0.004580388
000300 df 08 eb bc 55 ae 95 3c ce 2b 75 3b 30 e9 47 3b
       -0.028690754 0.018271605 0.0037410143 0.003050398
000310 27 91 23 3d e8 fd 0c 3c 92 a2 be bc 25 68 f7 b9
       0.03993335 0.008605458 -0.023270879 -0.00047189105
000320 f2 e5 2d 3c 27 a3 5e b9 99 0d 2d ba a0 68 0e 3c
       0.010613905 -0.00021232349 -0.00066014525 0.008691937
000330 cf 29 43 3c e2 f2 3f 3c 3e 72 2f 3c 79 f7 33 bc
       0.011911823 0.011715623 0.01070839 -0.010984295
000340 7b 9a 9a bc bd 7c 08 3c a5 96 41 3c fd e0 3f 3c
       -0.01887249 0.008330521 0.011815702 0.011711356
000350 66 84 2e 3c 07 ff 3e bc c3 58 a3 bc a7 4c f0 ba
       0.010651683 -0.011657483 -0.019939786 -0.0018333391
000360 fc ed bc bb d6 3d f9 bb ef 6a 8b bb 0c 63 04 ba
       -0.0057656746 -0.0076062484 -0.004254691 -0.00050501595
000370 0d 40 26 bb 65 4a 73 3b e1 1e 59 3b eb aa cd 3b
       -0.0025367767 0.00371232 0.0033129978 0.0062764785
000380 25 f9 73 3b 3d a6 8c 3c 95 e0 03 3c 94 3d 44 3b
       0.003722736 0.017169112 0.00804915 0.002994393
000390 94 ff 86 3b 9e 6e 21 3c af ca 80 3b 89 ce a5 3c
       0.0041198228 0.009853033 0.003930412 0.020240085
0003a0 7a e9 4c 3c ff 39 bb 3c 8a 81 03 3d 43 cd d3 3c
       0.012506837 0.022854803 0.03210596 0.025854712
0003b0 40 bc 20 3d 8c bb 4f 3b 3a 61 80 3c 68 63 14 3b
       0.03924203 0.003169748 0.015671361 0.0022642259
0003c0 36 d9 5b 3c 33 93 78 3c b0 71 70 3c f7 8d 12 3b
       0.013418486 0.015171814 0.014675543 0.002236245
0003d0 d7 1e 35 3b e3 7f 0f 3b 1b e7 5d 3c 98 e8 78 3c
       0.002763679 0.0021896295 0.013543869 0.015192173
0003e0 b6 45 6b 3c 52 57 43 3b 45 03 6c 3b ae 9f 04 bd
       0.014359882 0.0029806686 0.003601269 -0.032378845
0003f0 1d 9f 69 bb 18 70 c1 ba b7 d2 1b bc f0 9b 0d bb
       -0.0035647817 -0.0014758138 -0.009510688 -0.0021607839

conv2.bias f4 [64]
000000 c6 6a 23 3d a8 89 19 3d 6e 09 d1 3c d0 56 6f bc
       0.03989675 0.037484795 0.025517192 -0.0146081
000010 83 4c c4 3c 55 ee 4f bc 29 8b b0 3c d9 3d 10 3d
       0.023962265 -0.0126911 0.021550732 0.035215233
000020 4c 80 03 3e 57 33 ec bc 5d 1c 17 3d 47 4f c6 3c
       0.1284191 -0.028833074 0.036892284 0.024207724
000030 f5 66 2f 3d e2 a8 0f 3d 47 d4 12 3d e1 6a ce 3c
       0.042822797 0.03507317 0.035846975 0.025197448
000040 54 d2 1c 3d fa d1 6c 3d f4 47 cd 3c 62 a9 fb 3c
       0.038286522 0.057817437 0.025058724 0.030720416
000050 e7 5b fb 3c 1c db 04 3d 73 7d e7 3d 60 a3 8c bc
       0.03068347 0.03243552 0.113032244 -0.017167747
000060 49 15 27 3d ab 1e 25 3d 0a 30 25 3d d0 5c f4 bb
       0.040791783 0.04031245 0.040329017 -0.007457353
000070 b0 ea 74 3c 4f 50 21 bd 22 05 2c 3d 8e 1b df 3d
       0.014948532 -0.03938323 0.041997083 0.108939275
000080 02 aa 1c 3d 22 d3 fa 3c 52 e1 2a 3d 73 db e8 3c
       0.03824807 0.030618254 0.04171879 0.028424954
000090 67 c3 d2 3c 29 2f 00 3e 2e 89 23 3d c8 f5 1b 3d
       0.02572794 0.1251799 0.039925747 0.038076192
0000a0 31 b1 2b 3e f5 5b 0b 3d 36 df 23 3e 05 d0 8c bc
       0.16766812 0.034023244 0.16003117 -0.017189035
0000b0 0a 45 3d 3e 43 2c 2b 3d f3 e7 1a 3d 39 da 07 3d
       0.18483368 0.04179026 0.03781886 0.033167098
0000c0 a0 71 11 3d 3c 75 c8 3c d3 a0 1d 3d f8 5f e8 3c
       0.035508752 0.024469964 0.038483452 0.028366074
0000d0 d4 aa 42 3d b3 15 1e 3d 59 56 25 3d 01 07 09 3d
       0.047526196 0.038594913 0.04036555 0.033453945
0000e0 db 1e 2b 3d 97 73 36 3d 6f 2f 2e 3d 9b 7b 2b 3d
       0.041777473 0.04454383 0.042525705 0.041865926
0000f0 a7 05 d3 3c 05 6f 0f 3d 2c bd 19 3d 56 20 51 bc
       0.025759531 0.035017986 0.037533924 -0.012764057

conv2.lin.weight f4 [64, 128]
000000 7c 7c a1 bc 86 71 ac bc 6e 84 c5 3c 84 91 b6 bc
       -0.01971268 -0.021050226 0.024110999 -0.022286184
000010 7a 75 1b bc 13 89 46 3c 60 95 ce 3c 0f db 3e 3d
       -0.009488458 0.012117642 0.025217712 0.04659563
000020 ef 70 a1 bc ff 45 46 3c 14 90 fb bc b4 cd d7 bc
       -0.019707171 0.012101649 -0.03070835 -0.026343204
000030 a1 1b 1e bd fa e4 5b 3c b6 a6 7b 3b bc 52 f4 bc
       -0.038600568 0.0134212915 0.0038398928 -0.029824607
000040 65 81 82 3c 10 27 63 bd f7 35 89 3c 80 d4 95 bc
       0.01593084 -0.055457175 0.016749365 -0.018289804
000050 87 2a ac bb 1d 57 d2 3c 60 0e f7 3c d8 2e 26 bd
       -0.005254093 0.025676304 0.030158222 -0.040572017
000060 12 8d 28 3d 94 ea 18 3d 2b fe 27 3d 59 f6 e9 3c
       0.04115016 0.037333086 0.041013878 0.02855985
000070 52 93 5c 3c 02 37 91 bc d2 3f 91 bc 58 8f 37 bc
       0.013462858 -0.017726425 -0.017730627 -0.011203609
000080 e9 1e 2f 3d ff 6d 8d 3c 41 67 98 3c a8 43 91 bc
       0.042754088 0.017264364 0.018603923 -0.017732456
000090 f5 e7 34 3c d3 18 dc 3c f2 c6 d9 3b a1 56 53 bd
       0.011041631 0.026867306 0.0066460306 -0.051596288
0000a0 d4 13 51 3c 70 55 f3 3c e5 10 14 3d d1 e6 08 3d
       0.012761075 0.029703826 0.036148924 0.03342325
0000b0 40 12 0a bc 1f 4f 0e 3c 0c cf 80 3c cc 52 a2 bc
       -0.008427203 0.008685856 0.015723728 -0.019814871
0000c0 a8 c2 ba 3c b8 a3 7d 3c 8b 96 20 bd 00 bd 23 3d
       0.022797897 0.015480928 -0.03920607 0.039975166
0000d0 b3 a6 e0 3c 8a 2e 20 3d da 99 8e 3c a5 75 06 3d
       0.027423238 0.039106883 0.017407347 0.03282704
0000e0 ce e4 b0 3c b1 79 12 3d c9 f0 20 bd 92 c3 fc 3c
       0.021593478 0.035760585 -0.03929213 0.030854974
0000f0 3f 3f a8 bc 84 d2 92 bc d0 61 8b 3c 62 aa 4d bc
       -0.02053797 -0.017922647 0.017014414 -0.012552829
000100 ec 23 93 3c b2 c9 3e bd af d4 b8 3c 55 3a eb 3c
       0.017961465 -0.04657907 0.022562353 0.028714338
000110 95 4d 22 3d 8b 67 b4 3c 85 ca 00 3d a8 67 22 3d
       0.03962477 0.02202203 0.031443138 0.039649636
000120 38 fe 45 bc f7 dd e8 3c fd 61 1b 3c bd 31 ce bb
       -0.012084536 0.028426154 0.009483811 -0.0062925504
000130 6a a5 69 bc 73 ce d8 3c 5e 8c 58 bb 8c 8f e4 3c
       -0.014260629 0.02646563 -0.003304265 0.02790048
000140 43 4a 57 bc 44 f4 6d 3c d9 d3 8a bc 3a 61 f7 3c
       -0.013140264 0.0145235695 -0.01694672 0.030197728
000150 d0 83 9e 3c 2c 93 e6 3c 58 7d d7 3c 57 90 49 bd
       0.019349962 0.028146349 0.026304886 -0.04920992
000160 a7 45 73 3c 80 3e 85 bc a3 62 f8 3c 4f c4 fa 3c
       0.014848149 -0.016265154 0.030320471 0.030611185
000170 15 da 82 3b c9 c7 f4 3c e2 25 46 bd 30 10 a3 3c
       0.0039932826 0.029880421 -0.04837597 0.01990518
000180 f3 05 99 3c 28 b1 ac 3c 2a 4e 69 3c cb 1a 62 bc
       0.018679595 0.021080568 0.014239827 -0.013800333
000190 a0 39 a1 3c 6d 21 13 3d 9b dd 0a 3d 50 41 27 3d
       0.019680798 0.03592055 0.033902746 0.04083377
0001a0 39 00 b7 3c fa 0d 90 3a cd 95 16 3d 89 ef d4 3c
       0.022338973 0.0010990493 0.036763955 0.025993126
0001b0 57 4a 12 bd 73 42 28 3d 05 a4 36 3d 3e 3f 84 bc
       -0.035715427 0.041078996 0.044590015 -0.016143437
0001c0 8c 41 e9 bc bc a7 fd 3a 35 63 e0 3c df 06 4a 3c
       -0.028473638 0.0019352357 0.027391056 0.01233074
0001d0 4b 2b 36 3d 4d 96 75 bc aa 63 41 3c 61 58 e6 3c
       0.04447488 -0.014989448 0.011803547 0.028118314
0001e0 a0 3d 2c 3d bc 44 8c 3c 1e e1 e9 3b 63 07 af 3c
       0.042050958 0.017122619 0.0071374318 0.021365827
0001f0 82 da 6e bc a6 cd 0f bb d8 fb c9 3c 9a 77 00 3d
       -0.0145784635 -0.0021942644 0.024656221 0.03136406
000200 a8 f8 e1 bc d5 40 d3 bc 21 a7 64 3d 69 f3 69 bd
       -0.027584389 -0.02578775 0.05582345 -0.0571169
000210 19 1b 14 bd f4 12 b6 3c f6 03 a7 3c c9 48 7f 3d
       -0.036158655 0.022225834 0.02038763 0.062325273
000220 ea c8 32 bd 1f 32 a3 3c 35 e9 00 bd 37 90 f6 bc
       -0.043648638 0.01992136 -0.031472404 -0.030098064
000230 28 a8 9b bd 45 21 c1 3c e9 d0 02 3c 34 80 3f bd
       -0.07600433 0.023575434 0.007984378 -0.046753123
000240 98 da 5b 3c 21 ab c8 bd df 7f be 3c a5 5c 16 bd
       0.013418816 -0.09798265 0.023254333 -0.036709446
000250 e7 10 f3 bb 48 f1 18 3d 89 99 3d 3d 05 cb 73 bd
       -0.0074177864 0.03733948 0.046289 -0.059519786
000260 6d 3f 78 3d 67 b9 5f 3d 96 dd 6b 3d 07 16 23 3d
       0.060607363 0.054620173 0.057584368 0.03981593
000270 9b 0d 8a 3c 51 da a7 bd c6 55 5b bd eb 66 1c bd
       0.01685219 -0.081959374 -0.053548597 -0.038184088
000280 35 39 75 3d 62 db da 3b aa ec ed 3c ed cc 4d bd
       0.05986901 0.0066789845 0.029043514 -0.05024426
000290 b2 25 25 3d 8f d4 49 3d 6a 51 99 3c 60 d2 96 bd
       0.040319152 0.049274977 0.018715579 -0.073643446
0002a0 82 ea e6 3c 22 11 15 bb e3 32 51 3d 44 19 66 3d
       0.028187994 -0.0022745808 0.05107392 0.05617644
0002b0 71 a4 88 bc df 76 fe 3b be 79 4c 3b 90 9b 04 bd
       -0.016679974 0.0077656354 0.0031200494 -0.03237492
0002c0 76 80 3f 3d 28 e6 6f 3d 40 17 15 bd 05 8d a2 3d
       0.04675337 0.058569103 -0.036399126 0.079370536
0002d0 27 ba 24 3d 55 68 85 3d 19 36 ac bc 23 2d ad 3c
       0.04021659 0.065140404 -0.02102189 0.021139687
0002e0 62 f0 19 3d 62 ad 74 3d 51 4d 3d bd 48 80 56 3d
       0.037582763 0.059735663 -0.046216313 0.052368432
0002f0 dc 6d e7 bc a6 e9 1c bb 50 87 4f 3d 56 30 14 bd
       -0.028250627 -0.0023942976 0.050666153 -0.03617891
000300 ed 9b 20 3d 88 db 67 bd fd 81 86 3d 87 08 8b 3d
       0.039211202 -0.056605846 0.06567762 0.06788736
000310 d6 c9 80 3d c7 5a 78 3d 42 ec 8c 3d 5b 5a 0c 3a
       0.06288497 0.060633447 0.06881 0.000535404
000320 ce 0e 4d bc be 91 48 3d 27 ca 8e 3c 01 00 84 3b
       -0.012515737 0.048967116 0.017430378 0.004028321
000330 5b 48 f8 bc 92 2c 37 3d 07 fe b1 bc 61 f6 f3 3c
       -0.03030794 0.04472024 -0.021727575 0.029780569
000340 fa 4c 2d bc 20 96 04 3d 24 ea 1f bd 41 1b 75 3d
       -0.010577435 0.032369733 -0.039041653 0.059840444
000350 34 e1 fc 3c d9 1d 97 3d 15 ef b5 3c b4 15 b0 bd
       0.030869104 0.0737874 0.02220873 -0.085978895
000360 8c 17 a6 3c 3d e9 01 bd 9c 64 82 3c 07 82 88 3d
       0.0202749 -0.031716574 0.015917115 0.06665426
000370 19 79 0d 3c 2b a4 85 3d 32 a6 76 bd 53 84 1f 3c
       0.008634829 0.06525453 -0.06021709 0.009736138
000380 75 e9 0a 3d 52 45 e4 3c 59 2f c7 3c 4e 12 8d 3c
       0.03391405 0.027865086 0.02431457 0.017220642
000390 68 33 2d 3d 8b 8b 0d 3d ef 70 0e 3d ad fb 90 3d
       0.042285353 0.034556907 0.03477567 0.07079253
0003a0 3a f3 0f 3d 8b b3 81 3c e9 f9 7d 3d e5 9f d8 3c
       0.03514407 0.015832683 0.06200591 0.026443431
0003b0 ce c3 45 bd 9e d0 2e 3d ce af 44 3d dc 74 42 bc
       -0.048282437 0.04267942 0.048019223 -0.011868682
0003c0 16 8c 55 bd df 20 ac 3c 9f b1 40 3d 96 2f 0c 3d
       -0.05213555 0.021011768 0.047044393 0.03422507
0003d0 09 b4 35 3d ac cb 11 bd a9 3c 03 3c a3 67 27 3d
       0.044361148 -0.035594627 0.008010068 0.04087032
0003e0 fd 91 66 3d bc 21 0b bc 36 70 1d bd 48 45 2f 3d
       0.05629157 -0.00849193 -0.03843709 0.04279068
0003f0 eb f5 7b bd 62 38 a3 ba 0c 13 49 3d d0 19 4a 3d
       -0.061513823 -0.0012452716 0.04909043 0.049341023

classifier.weight f4 [2, 64]
000000 a4 dc fc 3d d5 5d 85 3e e2 6f 00 3e ff 97 f4 3b
       0.12346771 0.2604815 0.1254268 0.0074644084
000010 8f 97 dd bc 6f a4 b1 bc c3 f3 b4 3d 05 22 91 3e
       -0.027049808 -0.021684853 0.08835556 0.28346267
000020 2c d8 0f be 7f 15 be bc 8d d2 3e 3e 50 09 a4 3e
       -0.14047307 -0.02320361 0.18635006 0.32038355
000030 ad 1e ba 3d d6 5b 31 3e 08 6b e9 3d 1a 24 b4 3d
       0.09087882 0.17320189 0.11397368 0.08795948
000040 69 c0 56 3e fe c3 92 bd d8 19 b5 3e 7b 76 9c 3d
       0.20971836 -0.07166289 0.3537128 0.07639786
000050 b8 93 bc 3d 7a e0 fa 3d 0f 9c 0c be d5 9a 0e 3d
       0.092078626 0.12249847 -0.13731407 0.034815628
000060 23 e7 11 3e 06 9d 80 3d 8f 39 01 3e c0 ac 27 3c
       0.14248328 0.0627995 0.12619613 0.010234058
000070 ce e6 ba 3d 47 1f c4 bc 2a ca 06 3e 6d 49 26 be
       0.09126054 -0.023940695 0.13163057 -0.16238947
000080 6e b3 f9 3d 43 cb a5 3e c3 8d e1 3d 3b 79 42 3e
       0.121924266 0.3238164 0.11013367 0.18991558
000090 5d 0e 14 3e f7 f1 52 be a6 3a 0d 3e bd be 59 3e
       0.14458604 -0.20600115 0.13791904 0.21264167
0000a0 b0 5e 71 be 20 4f 71 3d 4c f0 de be 91 da 86 3b
       -0.23571277 0.05891335 -0.43542707 0.0041154106
0000b0 5b 2e d0 be 92 e5 02 3e 1a 00 ec 3d ee e0 6f 3c
       -0.40660366 0.12782887 0.11523457 0.01464103
0000c0 c7 c8 b0 3d 5d 4b 73 3d b7 01 0e 3e 28 ee f8 3d
       0.08632045 0.059398044 0.13867842 0.121548
0000d0 60 c0 24 3e de 34 c3 3d a0 de 33 3e 85 7b 20 3e
       0.1608901 0.09531568 0.17565393 0.15672119
0000e0 14 05 94 3d 51 93 06 3d 4c ce db 3c 0c 54 65 3e
       0.07227531 0.032855336 0.026831768 0.22395343
0000f0 d9 43 91 3e 29 bb 3a 3e 8c 8d 13 3e ed 85 e9 bc
       0.28372076 0.18235458 0.14409465 -0.028506244
000100 e7 16 dd bd 96 7e 78 be 0d f3 d2 3c a4 b2 28 bd
       -0.10795384 -0.24267039 0.025750661 -0.04118599
000110 89 65 14 3c b2 c6 a2 bb b2 59 a3 39 25 4e 30 be
       0.009057411 -0.004967534 0.0003115661 -0.1721731
000120 86 13 54 3e d6 9d ba 3c ae e5 15 be ec c6 6e be
       0.20710573 0.02278034 -0.14638397 -0.2331807
000130 0e 43 8d bd ea b2 84 be ca 3c 7a be 31 8f 72 3c
       -0.06897555 -0.2591775 -0.24437252 0.014804647
000140 62 0e 0b be ed 97 4c 3d 12 0a 8e be 7d f0 88 bd
       -0.13579705 0.049949575 -0.27742058 -0.066864945
000150 64 11 ae bd d6 f3 32 be d9 62 3c 3e 4c a6 05 3a
       -0.08499411 -0.17475829 0.18397082 0.00050983275
000160 ee ec ed bd b1 c1 26 be c3 f9 d0 bd fe 4c 52 bd
       -0.116174564 -0.16284825 -0.10203888 -0.051342957
000170 1e 73 1c 3d bf 2e 09 3d 96 28 34 bd 92 a2 53 3e
       0.03819572 0.033491846 -0.04398402 0.20667484
000180 c0 d3 d8 bd 9e d2 9a be 38 f2 98 bd 04 3e 8c be
       -0.10587263 -0.30238813 -0.074680746 -0.27391064
000190 c0 4f 54 be 8a 8a 1d 3e 8d 59 8f bd 4d 72 16 be
       -0.20733547 0.1538488 -0.06999502 -0.1469204
0001a0 cf ed 8c 3e 2b 98 c8 bd 97 6b dd 3e b9 f5 1b 3c
       0.27525184 -0.09794649 0.43246147 0.009519034
0001b0 4c 4d a9 3e ca 4e 4c be e0 9e 8a bd 3f ea 01 be
       0.33066785 -0.1995193 -0.06768584 -0.12687014
0001c0 f3 cf e6 bd 22 02 e6 bb 80 da 16 be ab 4d 0b be
       -0.11270132 -0.007019297 -0.14731789 -0.13603847
0001d0 5d 15 3d bd 4f 7e 10 be 8c a1 0a be ef 92 58 be
       -0.04616295 -0.14110683 -0.13538188 -0.211498
0001e0 e8 2f 65 be 34 fb 71 be 03 4b 59 be 48 e6 b1 bd
       -0.22381556 -0.23630983 -0.21220021 -0.08686501
0001f0 a2 0d 82 be 05 77 58 be 89 e2 c9 3c 12 98 0d bd
       -0.25401026 -0.21139152 0.024644153 -0.034568854

classifier.bias f4 [2]
000000 d6 d6 83 be 41 1e 2d 3d
       -0.25749844 0.04226518
