models/gcn_engineered_focal_gcn_model.pt (torch, 136238 bytes, 6 tensors)

conv1.bias f4 [128]
000000 76 60 07 3d 31 3f 34 3d df 72 18 bd 29 fd ca 3d
       0.033050977 0.044005577 -0.037218925 0.09911568
000010 48 04 0c bb 18 e3 76 bd d0 14 d6 bd c2 b2 d9 bd
       -0.0021364857 -0.060275167 -0.104531884 -0.106297985
000020 c4 42 ae bb 8c d2 0e be 0e ca a3 bc a7 61 27 3d
       -0.0053180177 -0.13947505 -0.019993808 0.040864613
000030 94 ba 33 bd 9a 23 42 bd 22 3d 26 bc 73 30 15 3c
       -0.043879107 -0.047397234 -0.010146411 0.0091057895
000040 f7 d8 8d bd a1 d6 19 bd 8d 54 63 3d 80 14 87 3d
       -0.069261484 -0.0375582 0.055500556 0.06595707
000050 e3 8a 08 bd 0b 30 af bd a9 37 51 bb ee 77 07 bd
       -0.033335578 -0.08554085 -0.0031924045 -0.03307336
000060 2e 45 a9 3b c4 73 68 bd 8f f5 86 bd a6 f0 4a 3d
       0.0051657176 -0.056751028 -0.06589805 0.049545906
000070 7d fc b6 bc fd 3f 36 bd 81 8e 0e 39 7f cf 3e 3d
       -0.022337193 -0.044494618 0.00013595262 0.046584602
000080 60 5a b9 3c be aa 0d 3c a9 29 1f 3d 3f 4c d6 bd
       0.022626102 0.008646665 0.03885809 -0.104637615
000090 da 76 02 3b 7f 76 4b bd 25 5e b3 3d 12 6e 8b 3d
       0.0019907267 -0.049673554 0.08758191 0.068081036
0000a0 ec dd 0c be cd d3 ec 3c 9a c3 98 bc af 62 44 3d
       -0.13756531 0.028909588 -0.018647958 0.047945675
0000b0 7e ad a2 3d f4 51 b2 3d 46 5f c3 bd 6a 98 53 3d
       0.07943247 0.087070376 -0.09539656 0.051659025
0000c0 60 69 37 3d 77 37 18 be 5a 42 11 3d 55 c5 05 bd
       0.044778228 -0.14864908 0.03546367 -0.032658894
0000d0 22 46 39 3d c4 0c 30 3d 27 d6 fd 3c 62 47 0f 3d
       0.0452329 0.042980924 0.030985905 0.034980185
0000e0 1f d8 47 bc 27 81 cc bd 16 ad fb bc a7 32 04 be
       -0.012197523 -0.09985571 -0.030722182 -0.12909947
0000f0 9e 56 ac bd 87 4b 32 bd 15 4c d7 bc 76 19 8e bd
       -0.084149584 -0.04352906 -0.026281396 -0.0693845
000100 4a 85 50 3c 50 38 17 bd cb d6 40 bd 60 f2 58 bc
       0.012727091 -0.03691894 -0.047079843 -0.01324138
000110 3a 11 4a bd b2 98 02 3d 70 ee c4 bd 8d d3 6a 3d
       -0.049332835 0.031883903 -0.09615791 0.057330657
000120 82 b4 1d 3d 00 29 9a 3d ac a5 35 3d 49 b8 18 bc
       0.038502224 0.075273514 0.04434745 -0.009321281
000130 77 8c bc 3d e5 2b 30 bc 87 16 f6 bb 20 27 72 3c
       0.09206479 -0.010752653 -0.0075100097 0.014779836
000140 20 2a 31 bc e2 a4 16 be 63 08 ea bb 8a f6 3d 3d
       -0.010813266 -0.14711335 -0.007142113 0.046377696
000150 79 37 ab bc 31 a1 50 ba 37 ff c6 bd 85 3d e3 bb
       -0.020900475 -0.00079585897 -0.09716647 -0.006934824
000160 92 ef 73 3d 77 ec 2e 3d 53 0c da bd 8c 94 55 3d
       0.059554644 0.04270598 -0.10646882 0.05214362
000170 32 dd 4f bd 66 f9 ce bc 19 86 84 3d f6 a5 9f bb
       -0.050748058 -0.025265407 0.064708896 -0.004872079
000180 43 f2 f4 3c e3 be 76 3c 5c 52 4f 3c 39 7e 13 bc
       0.029900676 0.015060159 0.012653913 -0.009002262
000190 73 67 ac bb 14 1e 6e bd 3b c9 d3 3b 20 c2 f2 3c
       -0.0052613555 -0.058134153 0.0064631975 0.029633582
0001a0 ce 10 4d 3d 7d 87 69 bd 90 a1 96 bd 72 ba 07 bb
       0.050064854 -0.057013977 -0.07355034 -0.0020710495
0001b0 85 ff 01 3d 7d 3f 91 bd 3d c8 ec 3b f3 4a 2b 3d
       0.031737823 -0.070921876 0.0072260187 0.041819524
0001c0 7d 28 5d bd 30 ab 52 bb c4 29 92 3d 73 f3 2b 3d
       -0.05399369 -0.0032145493 0.071368724 0.04198022
0001d0 bb 0e 6a bd 98 2c 3d bd 47 a9 2b bd 3d f8 09 be
       -0.057142954 -0.046185106 -0.041909482 -0.13473602
0001e0 6e ec c1 bd 1a 3a 4f bd 3a 20 14 bc a4 41 d9 3c
       -0.094689235 -0.05059252 -0.009040887 0.026520558
0001f0 9a c7 97 bc 7f 92 6c 3c fc 99 11 bd 51 78 ab bd
       -0.018527795 0.014439224 -0.03554724 -0.08372558

conv1.lin.weight f4 [128, 194]
000000 bf c4 7f ba 9b 7f 0d 3d bf e3 92 3c 76 01 a3 ba
       -0.00097567955 0.034545522 0.017930863 -0.0012436348
000010 fa 20 19 3c da 92 94 bb fe 96 66 3c c6 b9 25 bc
       0.009346241 -0.0045341076 0.014074085 -0.010115093
000020 fc 2d c7 bb d4 5d 16 3b ca 12 1e bc df aa a2 3b
       -0.00607848 0.002294411 -0.009648034 0.004964217
000030 60 07 71 3c 87 17 29 3c 56 72 b7 bb 83 57 6c bc
       0.014711231 0.010320551 -0.0055983467 -0.014425161
000040 6b 01 88 ba 65 ae 05 bc e9 3d 10 bc 16 45 d5 3b
       -0.0010376399 -0.008159255 -0.008803823 0.00650848
000050 c4 21 96 3b 1c a0 e8 ba 07 f6 50 bb 28 34 ef ba
       0.004581662 -0.0017747912 -0.0031884925 -0.0018249797
000060 8b 5e 50 bb d8 6a 16 3b 47 62 b7 3a 19 47 e1 ba
       -0.0031794633 0.0022951867 0.0013991081 -0.0017187326
000070 74 93 3a bb d9 19 e6 ba 48 92 57 bb 6d 8b 1b 3b
       -0.0028469237 -0.0017555311 -0.0032893587 0.0023734227
000080 a6 07 eb 3a ce 48 a1 bb a7 1c 6d bb 9f 46 0e ba
       0.0017931357 -0.004922009 -0.0036180408 -0.00054273935
000090 04 36 8d bb b5 42 5d bc f8 3a 0e bc 00 16 c1 39
       -0.0043094177 -0.013504674 -0.008681051 0.0003682822
0000a0 4f 99 1a 3b c0 c7 b5 3b 71 29 90 3a fd 37 53 3c
       0.0023589914 0.0055474937 0.0010998679 0.012891767
0000b0 b9 b6 29 3c 14 02 fd b9 39 a3 6d 3a d2 03 ab 3b
       0.010358506 -0.0004825747 0.00090651546 0.0052189613
0000c0 3b 28 ab b9 bf dd 9a 3c a0 9c 83 3c f4 24 25 3d
       -0.00032645636 0.018904565 0.016065896 0.040318444
0000d0 3c 22 84 3d b1 70 1b 3c 75 6a 4a 3d 9f a8 46 3c
       0.06451842 0.009487317 0.04941793 0.012125163
0000e0 86 e2 7c 3c b1 f1 fd 3b fd a5 8d b7 80 46 62 b8
       0.015434867 0.007749759 -1.6885804e-05 -5.3948257e-05
0000f0 cc e8 82 3a bb b6 bd 3c 0a 3b a3 3c 77 1d ff 3b
       0.0009987592 0.023158422 0.019925613 0.007785495
000100 5c 5a a1 b9 cc 9e 0a ba 95 2c 10 3a 9e 57 c5 3c
       -0.00030775636 -0.0005287945 0.00054998073 0.02408963
000110 24 cf aa 3c b9 30 df 3a b7 87 6c bb a1 e1 06 3c
       0.020850725 0.001702807 -0.0036091635 0.008232505
000120 cc 90 47 3b 7e 5c a4 bc 7c 01 b0 bc e4 d1 03 3c
       0.0030451296 -0.020063635 -0.021485083 0.008045647
000130 8b 9f 93 3b 4c 8a 4b 3b e6 1e 72 3b 9a 84 d2 3a
       0.004505103 0.0031057773 0.0036944686 0.0016061247
000140 57 ce 8a ba 95 7d 14 3c 97 05 a2 b9 4d d4 ba ba
       -0.0010590059 0.009063144 -0.00030903213 -0.0014253944
000150 26 0c 85 39 e1 c2 0b bc 62 71 0f bc b3 d4 16 3d
       0.00025376788 -0.0085303495 -0.00875506 0.03682394
000160 26 13 0c 3d f9 e6 45 3c 00 93 11 3d 84 92 9a 3c
       0.03419795 0.012078994 0.03554058 0.018868692
000170 91 87 90 3c 3b ed 89 3b c5 ac f4 3b 3f 38 23 ba
       0.017642768 0.0042091883 0.007466885 -0.0006226338
000180 5f b1 fc 3b cd f9 79 bc 34 8e 39 bc 42 d1 e4 bc
       0.007711574 -0.015257311 -0.011325408 -0.027931813
000190 2d 09 42 bc c1 57 c8 3b 04 61 59 bc ec 1f 96 ba
       -0.011843008 0.0061139767 -0.013267759 -0.0011453605
0001a0 e9 94 b1 3b a2 1a af 3c b6 fe 44 3c 4d 24 5b bc
       0.005419363 0.021375004 0.012023618 -0.013375354
0001b0 9b 18 07 3c 6a 36 82 ba 07 0a 33 3c 47 49 ed bb
       0.0082456125 -0.000993443 0.010927684 -0.0072414014
0001c0 62 ae bc 3c 6d c3 d8 3b 65 4a be 3b d8 2a a6 bc
       0.023032371 0.0066150934 0.0058072084 -0.020284101
0001d0 e6 eb 1d bc f9 7c 91 bb b2 7e d3 3c f4 4a 3b bb
       -0.009638762 -0.0044399467 0.025817249 -0.002857861
0001e0 7f 51 13 bb 71 3f 57 3c 21 bc 2d 3c 8b 93 b0 3b
       -0.0022478995 0.013137684 0.010603935 0.0053886822
0001f0 c9 62 29 3c 4a a9 15 3c e8 ab 05 3c d2 eb 12 bc
       0.010338494 0.0091346 0.008158661 -0.008967357
000200 8b 81 4a bb ba 41 b8 bb 68 98 9f 3b 1b 5b 9f 3b
       -0.0030899968 -0.0056230696 0.004870463 0.0048631555
000210 2e 62 cc 3b b2 d9 05 bc e7 2d 30 bc 16 c5 1a bc
       0.00623729 -0.008169578 -0.0107531315 -0.009446403
000220 64 44 ed 3c fb 77 9a 3c 05 00 3f bb 2d 6d bf 3c
       0.028963275 0.01885604 -0.0029144299 0.023367489
000230 9a 54 a4 3c 12 60 3d 3c b6 8d c5 3c b9 fe eb bc
       0.020059872 0.0115585495 0.024115425 -0.028807985
000240 3d 98 eb bc 4e 50 c9 bb 8a f4 8b bb ac ba c3 bc
       -0.028759116 -0.0061436063 -0.0042710947 -0.023892723
000250 b6 7c 3d 3d e0 45 36 3d 11 b2 8a 3c 86 19 d9 3b
       0.04626151 0.04450023 0.016930612 0.006625357
000260 14 d1 00 3c 08 8e 00 3c 78 ca b7 3b ea 3e 9c bc
       0.007862348 0.007846363 0.005608853 -0.019072969
000270 3a e9 e4 bc 96 00 b2 3c d4 c0 9d 3c 54 30 8f 38
       -0.027943242 0.021728795 0.019256987 6.827773e-05
000280 d4 24 6b 3b 33 25 8c bb 18 38 15 3c be 9b 2e b9
       0.0035880106 -0.0042768954 0.009107612 -0.00016651952
000290 66 6f 25 bb c3 4c cb 3c ac 70 4a 3c d4 ff 81 ba
       -0.00252434 0.024816876 0.012355965 -0.0009918162
0002a0 31 f1 09 3d 8d a5 86 3c 12 75 e9 ba 71 15 1a 3c
       0.033677284 0.016436363 -0.0017811379 0.009404526
0002b0 9f 95 32 bc 42 a8 c8 bb 86 82 24 bc 99 fa 25 bc
       -0.01089993 -0.0061235735 -0.010040885 -0.010130548
0002c0 15 36 92 ba 29 59 68 bc 86 98 b2 ba 97 ab 10 bc
       -0.0011155034 -0.014181414 -0.0013625778 -0.008829973
0002d0 a2 e2 bc 3c f1 7c a4 ba 1f d2 1c 3c 98 bc ab bb
       0.023057286 -0.0012549442 0.009571581 -0.005240988
0002e0 54 ca ba 3c 62 90 0b 3d 1c 65 1f bd b1 5c 0f bd
       0.022801556 0.03407324 -0.038914785 -0.035000507
0002f0 92 b0 fa 3c fe d1 e9 3c 9b 07 6b 3c 34 fa 5c bc
       0.030601773 0.028542515 0.014345075 -0.013487387
000300 10 04 9a bc 69 a6 b7 3c 29 38 0a bc 69 2e 5e bc
       -0.018800765 0.022418218 -0.008436241 -0.01356087
000310 60 51 33 bb 63 91 06 3c e8 1d 72 ba 52 c3 08 3b
       -0.0027361736 0.008213374 -0.0009236024 0.0020868373
000320 73 35 04 3c 11 c7 cd bc 92 37 22 3b 33 ce d3 3b
       0.008069384 -0.025119336 0.002475236 0.00646379
000330 41 b6 fc 3c f9 dd 77 3c ca 74 85 3c dc c7 29 ba
       0.030848624 0.015128606 0.01629104 -0.000647662
000340 8a 5f 9d 3c 6a eb 88 3c a5 b9 fa ba d7 fe f9 3c
       0.019210596 0.016713817 -0.0019128813 0.030517025
000350 4e 03 04 3d 67 b0 86 3b a0 ab 5f 3b 36 db f8 3b
       0.032229714 0.0041103843 0.0034129396 0.0075944914
000360 08 93 12 3c 3e 9a b1 3b 05 64 29 3c 48 cf aa 3c
       0.008946188 0.0054199984 0.010338788 0.020850793
000370 16 64 30 3c f9 3c 22 3c 99 10 0b 3c 14 82 b1 3b
       0.01076605 0.009902232 0.008487844 0.005417118
000380 48 b8 3f 3c 79 38 af 3c d4 91 30 3c e0 76 64 3b
       0.011701651 0.021389233 0.010776956 0.0034860894
000390 66 f3 23 3b 20 ae e8 3b d6 bd 6a ba e6 7e 00 3b
       0.0025016903 0.0071008354 -0.00089546794 0.0019606887
0003a0 eb ee 71 3b 8c 52 56 3c 8f 2d 8c 3c c8 60 24 3c
       0.0036916088 0.013081204 0.017111568 0.01003284
0003b0 cb 73 7e 3c ef a8 08 3c 11 ea 6b 3b 3a 58 3c 3c
       0.015530537 0.008341058 0.0035997669 0.011495644
0003c0 1d 25 7a 3c e5 c2 44 3c b1 6a 5a 3c 50 f7 71 3c
       0.015267638 0.012009357 0.013331101 0.014768437
0003d0 bf 37 2a 3c 21 19 88 bc e5 3e bc bb 6d b7 15 3c
       0.0103892675 -0.016613545 -0.0057448023 0.00913797
0003e0 42 3e 55 bc 6f ef 48 bb 9e be be bb ca 8e 8a 3c
       -0.013015332 -0.0030660292 -0.005821063 0.01691379
0003f0 e7 e7 9a 3c 4a e0 8e 3c 34 3c a3 3c d6 a8 d6 3c
       0.018909408 0.017440934 0.019926168 0.026203554

conv2.bias f4 [64]
000000 7b a0 1f bd fe 90 5d 3c c9 72 f8 3c d4 6d b9 bc
       -0.038971405 0.013523338 0.030328171 -0.022635378
000010 89 4d 91 3d 49 b1 d3 3c 53 b6 11 3e 7c 6f f8 3b
       0.07094867 0.025841372 0.14229707 0.0075816493
000020 4e 01 e9 3c 17 fd a9 3d 7f dd b8 3c c2 21 c2 3c
       0.028443005 0.08300226 0.022566555 0.023697738
000030 72 c3 08 3e e7 04 3e bc 96 07 c9 3d e3 58 28 3d
       0.13355806 -0.0115978485 0.098159 0.041100394
000040 a1 05 7e 3c 4e a4 05 bd cb 04 84 3c 28 07 06 bd
       0.015504272 -0.032627396 0.016115567 -0.03272167
000050 93 5c 8a 3c 6d d9 d6 3c 85 70 09 3d 36 4a fe 3c
       0.016889846 0.026226724 0.033554573 0.031041246
000060 da 5f 09 3d 8b 64 f2 bc 96 89 94 bc 24 ce b8 3c
       0.033538677 -0.029588958 -0.018132012 0.022559233
000070 4f bc 2f bd b1 32 5d bc 45 0a ab 3c 98 c0 09 bd
       -0.042904194 -0.013500855 0.02087892 -0.033630937
000080 0f db 0e 3d a3 6e 08 bc 2a 43 ec 3c 39 90 5e 3c
       0.03487688 -0.008327159 0.02884062 0.01358419
000090 8f 9a ce 3b 0f 87 10 3e 8d 32 0e bc 9d bf 1b 3d
       0.006305046 0.14114021 -0.008679044 0.038024534
0000a0 8d e1 81 3b e8 1d ae 3c a3 e5 c9 3d de 5a db 3c
       0.0039636553 0.021254495 0.09858253 0.026776727
0000b0 08 e7 1e bd d8 8d a6 3c 5d 66 34 3d 68 ad f4 3c
       -0.038794547 0.020331308 0.044042934 0.029867843
0000c0 57 12 a3 3c e5 b3 20 bd 9a 49 2a bd 90 aa 40 3d
       0.019906206 -0.03923406 -0.0415741 0.04703766
0000d0 c9 e6 90 3c 12 4b 37 bc 32 98 35 3d e9 3c 41 bd
       0.017688172 -0.011187332 0.044334598 -0.04717723
0000e0 39 48 94 bc 9c d0 9e 3c 4f bc c3 3c fb 6c ed 3c
       -0.018100845 0.019386582 0.023893503 0.02898263
0000f0 cb 83 d8 3d b9 50 08 bd b4 6b 72 3c 42 06 d6 3c
       0.105720125 -0.033280108 0.014796186 0.02612603

conv2.lin.weight f4 [64, 128]
000000 46 fb e8 3c ce b6 94 bd 74 1a e0 bb 38 2d d6 3c
       0.028440129 -0.0726143 -0.006839091 0.026144609
000010 a8 bb 37 bd d2 11 b1 3c 75 1b 49 3d 07 c3 bc 3c
       -0.044856697 0.021614943 0.04909845 0.023042215
000020 5f b6 37 3d b7 fe c7 3b e0 58 18 3c 8b 73 c3 3c
       0.044851657 0.0061033624 0.009298533 0.023858806
000030 b5 38 fa bb 76 ec 2c bd 1d 2b 3f 3d f2 fe cc ba
       -0.0076361545 -0.042217694 0.046671975 -0.0015639944
000040 f1 8d 89 bc 34 22 59 bd 0d 1d 6a bd 10 12 44 bc
       -0.016791316 -0.053011134 -0.05715661 -0.011967197
000050 bd 11 36 3d 70 8e 79 3c 06 80 8b bb c1 aa 01 3d
       0.04445051 0.015231714 -0.004257205 0.031656984
000060 3a 6b 5c bd 0a ad 3d bd f5 89 44 bb ed 17 ae bc
       -0.053813197 -0.0463076 -0.0029989455 -0.021251643
000070 64 4d 21 bd eb 74 66 bd 46 9a a0 bd c9 34 5c 3b
       -0.039380446 -0.056263845 -0.07841925 0.0033600798
000080 73 55 60 3c c3 5a 00 3d 8c aa 12 bc 34 78 31 bd
       0.013692248 0.031336557 -0.008951794 -0.043327525
000090 09 2a f0 bc 7b d1 9a bd 78 dd 93 bd 9b a1 dc bd
       -0.029316919 -0.075594865 -0.07219976 -0.10773011
0000a0 80 94 ef 3b ab 7a a9 bc f9 52 fa bc 99 be f6 bb
       0.0073114038 -0.020688375 -0.030557143 -0.007530045
0000b0 6b 58 dd 3c 7e ce de bc 3b 28 6c bc e0 0f 69 bd
       0.0270197 -0.027198073 -0.014413889 -0.056899905
0000c0 e0 22 cf 3c f2 1f 66 bd 02 f1 22 bd 54 12 2a bb
       0.025285184 -0.05618281 -0.039780624 -0.0025950866
0000d0 ea 90 aa 3b c9 c4 0f bc 97 35 45 bd ed 5d 84 3c
       0.0052052634 -0.008774945 -0.04814681 0.016158069
0000e0 fc a5 31 3d d0 75 59 bc 7b 8e 92 bc eb ce af 3b
       0.043371186 -0.013272718 -0.017890206 0.0053652427
0000f0 99 a0 08 bd 74 81 c4 3b e1 4f 14 3c e8 c1 e7 3c
       -0.033356283 0.0059968773 0.009052248 0.028290704
000100 5a 83 3b 3d bc e8 24 bd 75 92 95 bd 32 cb b7 3c
       0.045779563 -0.040261015 -0.07303325 0.022435758
000110 38 02 11 3d 4e 43 50 3c 60 1c d5 bc c6 07 4f bd
       0.035402507 0.012711359 -0.026014507 -0.050544523
000120 64 bd da bc 7c 66 62 bc 72 80 0f 3d b6 d9 a5 bc
       -0.026701637 -0.0138183795 0.035034604 -0.020245414
000130 39 08 50 bd 92 d1 2f 3d 13 22 5c 3c 38 53 10 3b
       -0.05078909 0.04292447 0.013435858 0.0022022258
000140 4e c9 10 bd ad 3b 6c bd 6b d7 2b 3d bf 9c 9c bd
       -0.03534823 -0.0576741 0.041953485 -0.076470844
000150 f3 63 18 3d 4d de 06 3d aa 5b 89 bd ab 0d c7 ba
       0.037204694 0.032926846 -0.06706937 -0.0015186568
000160 be e0 20 3c 89 93 6e 3c 01 0d 2f bd e9 ba cd bc
       0.009819208 0.014561542 -0.04273701 -0.02511354
000170 93 94 0a 3b 12 fa 38 3c a2 f2 d8 bc 52 2e ff bc
       0.0021145686 0.01129009 -0.026482884 -0.031150017
000180 14 fa b1 bd 7c 18 8b bc 85 a5 36 3c 37 da f1 bc
       -0.08690277 -0.016979448 0.011147861 -0.029522998
000190 bb b6 c1 bc 80 4f 1f 3d ab 1c f8 bb b6 8b 58 bd
       -0.023646703 0.038894176 -0.007571777 -0.052867614
0001a0 1d 39 43 3c 07 96 aa 3c 2f 75 9e 3c 29 32 15 3d
       0.011915472 0.020823492 0.019342987 0.03642479
0001b0 91 8e 45 bc 04 16 b0 bd 11 89 79 bb 64 a2 af bc
       -0.012057916 -0.08597949 -0.0038076083 -0.021439739
0001c0 30 68 8e bd 83 1b d8 bc 74 cb 27 bd 01 f8 07 bb
       -0.06953466 -0.026380306 -0.040965512 -0.0020747187
0001d0 0a 6d f1 3c c9 7e 59 bd 6c cb d5 3c 77 43 e8 bb
       0.02947094 -0.053099427 0.026097976 -0.0070881206
0001e0 62 23 98 bd 62 08 90 bd 71 b9 25 bd a5 e2 47 bd
       -0.07428624 -0.07032849 -0.040460054 -0.04880013
0001f0 23 ef a8 3c 96 3d 0d bd 55 f1 42 b9 5c 84 35 3c
       0.020621842 -0.03448256 -0.00018591185 0.01107892
000200 cf b8 dd 3c 39 42 8c 3c 29 88 42 3d bf 59 af 3d
       0.027065663 0.017121421 0.047493134 0.085620396
000210 7d 87 e4 3c 50 d8 7b 3d 5f 0d 15 bd e6 ef b4 bc
       0.027896637 0.06148559 -0.036389705 -0.022087049
000220 81 e8 61 3d 05 33 6e bd c9 6a c9 3a 47 17 22 3d
       0.055153374 -0.058154125 0.0015366907 0.03957298
000230 36 6f ce 3c 76 1e 95 3d 04 e7 e0 3b b1 61 2e 3d
       0.025199514 0.072812006 0.0068634767 0.042573635
000240 36 93 c8 3c ef ed 4d bd c9 b0 6d 3d 5a a9 56 3d
       0.024484258 -0.05027574 0.058029924 0.0524076
000250 21 a0 2b 3d 9b ea 5d 3d 65 e8 a8 bb 87 6d 9f bc
       0.041900758 0.054178815 -0.0051546567 -0.019461406
000260 cf 58 0a 3d dd 09 f0 bc 25 b3 97 3d 01 97 76 3d
       0.0337761 -0.029301578 0.07407216 0.060202602
000270 de 1b 93 bc 34 93 09 3d 84 c6 21 3b 4c 10 67 3d
       -0.017957624 0.03358765 0.0024684975 0.056412026
000280 5c a7 62 3d 6e 0b 15 3d 23 a4 fd 3b 8b 45 09 3c
       0.055335388 0.036387853 0.007740514 0.008378397
000290 5d 5d 23 3d 4f 43 12 3d dc 49 df 3c 3c 66 3f 3d
       0.03988396 0.03570872 0.027256899 0.046728358
0002a0 0e d0 50 bc 84 53 00 3d 2a ed 07 3d af 06 30 3d
       -0.012744917 0.031329647 0.03318516 0.042975124
0002b0 60 d1 45 3d 74 53 b8 3d 25 6a 7c 3d b0 7a 1f 3d
       0.04829538 0.090002924 0.061624665 0.038935363
0002c0 65 b0 80 3d 02 46 82 bd 0a c4 1d 3d 7b 2a ab 3b
       0.062836446 -0.06361009 0.038517036 0.00522357
0002d0 61 5b 40 3d fa 74 71 3d a0 77 dc 3c bf 1d df 3c
       0.046962146 0.05894945 0.02691251 0.027235864
0002e0 8a 15 81 3d d3 69 44 bd cd 15 36 3d 2b 71 2a bd
       0.063029364 -0.047952484 0.044454385 -0.04161183
0002f0 99 11 6c 3d 8e 25 36 bd ba f9 70 3b 07 cb 6f 3d
       0.05763397 -0.04446941 0.0036769942 0.05854323
000300 64 8c fc 3c 2f a8 83 bd 64 bc 05 bd 4b 53 6b 3d
       0.030828662 -0.06428563 -0.032650366 0.05745248
000310 d0 a3 89 3d 60 41 b1 3c d1 c7 7c 3d 29 19 67 3d
       0.06720698 0.021637619 0.061713997 0.05642048
000320 2c 55 f8 3c 5f a3 99 3d e1 73 08 3d 41 45 49 3d
       0.03031405 0.07501864 0.033313636 0.04913831
000330 81 0c 48 3d f0 82 bc bc 78 4c 94 3d 69 17 80 3c
       0.04884005 -0.023011655 0.07241148 0.015636163
000340 4e 13 66 bc 22 cc 0e bd 0e 43 e2 3c 10 b6 04 3d
       -0.0140426885 -0.034862645 0.027619865 0.03240019
000350 3f 64 aa bb ee d7 05 3d 73 12 48 3d e7 2a a4 3c
       -0.0051999385 0.03267663 0.04884572 0.020039989
000360 64 c2 6a 3d b5 f6 b8 3c dd 3b c9 bb 65 e3 a6 3d
       0.05731429 0.022578577 -0.0061411695 0.08148841
000370 4e 1f 67 3c fe 38 38 3d d4 45 8a 3d 7f 22 4d 3b
       0.014106585 0.044976227 0.067516 0.003130108
000380 20 29 3d 3c 82 15 75 3c ec 8f 0c 3d 62 4e 78 bc
       0.0115454495 0.014958741 0.034316942 -0.015155407
000390 ad e0 a7 3c 0f a0 e3 3c 5e f7 0d 3d c3 14 1b 3d
       0.020492876 0.027786283 0.034659736 0.037861597
0003a0 ff 28 12 3d 99 e3 1e bd 93 27 63 3d 21 75 87 3d
       0.03568363 -0.038791273 0.055457663 0.066141374
0003b0 22 4b 62 3d 5b 51 81 bd cf 51 b5 3c d9 4a 2d 3d
       0.055247433 -0.063143454 0.022133736 0.04230771
0003c0 2f a4 6d 3d 8e 3c e6 bc 68 13 12 3d 3b 9b 11 3d
       0.058017906 -0.028105047 0.03566304 0.03554843
0003d0 a5 c4 8a bd d9 ec 8d bd 53 eb 9d 3c 73 9e 89 bc
       -0.06775788 -0.06929941 0.01927725 -0.016799187
0003e0 d8 05 ac 3d b8 16 38 bd 89 7f 01 bd 89 e1 67 3d
       0.08399552 -0.04494354 -0.031615768 0.05661157
0003f0 67 b7 0c 3d a9 c6 8c 3d a8 73 b1 bc d0 8c a0 3d
       0.034354594 0.06873829 -0.021661595 0.07839358

classifier.weight f4 [2, 64]
000000 c5 6a f2 3c da e4 47 3e e2 f5 84 3e 7f eb 34 3d
       0.029591927 0.19520894 0.25968844 0.0441699
000010 14 ca da bd 45 f1 35 3e 8d d7 15 be c3 4c a7 3e
       -0.106830746 0.17767818 -0.14633007 0.32675752
000020 ee 97 ed 3d 14 fb 8d bd ff 63 1d 3e 35 32 2f 3e
       0.11601244 -0.06932655 0.15370177 0.17108996
000030 da 23 4a be 16 bf 61 3d 45 f5 3f be b0 39 8d bc
       -0.19740239 0.055113874 -0.18745907 -0.017239422
000040 29 11 9d 3e ad 63 57 bd ee 4b 27 3e 6e 69 54 bd
       0.30677155 -0.052585293 0.16337559 -0.051858358
000050 b2 bb 28 3e 4a 8e 73 3d c7 95 b3 3d fa 42 0a 3e
       0.1647785 0.05946187 0.08768802 0.13502112
000060 98 5e e1 3d 6d ff 14 3c 2d c9 1e 3a 70 64 05 bd
       0.110043705 0.009094101 0.0006057199 -0.032566488
000070 22 fb 26 bc d0 ed 17 3a 2f 44 2b 3e 54 04 a1 3c
       -0.010191711 0.00057956297 0.16725229 0.019655384
000080 d0 70 38 3e 20 95 5b 3d f9 81 e5 3d 1b 18 73 3e
       0.18011785 0.053609014 0.11206431 0.23739664
000090 cb 66 ea bc 77 87 eb bd da 40 8c bd 78 1f 63 bc
       -0.028613469 -0.11500447 -0.06848307 -0.013862483
0000a0 22 47 71 3b ad 6c 82 3d 8b 9c 00 be ba 88 b7 3d
       0.003681608 0.063683845 -0.12559716 0.089616254
0000b0 14 93 ee bb 78 38 ea 3d b5 fa 11 3e c5 8b cd 3d
       -0.0072807167 0.11436552 0.14255793 0.100364245
0000c0 ac 2a f1 3c 27 5d bf 3b c0 1c ee 3d 51 d9 e2 bd
       0.029439293 0.005839962 0.116265774 -0.11076606
0000d0 6d 89 44 3e 6b 61 bd 3b ea 3f 57 3d bd 23 75 bd
       0.19193049 0.0057794354 0.052551188 -0.059848536
0000e0 b0 a9 b4 3d 82 38 de 3d a3 fc bd 3d 1f 68 49 3d
       0.08821428 0.10850622 0.09276702 0.049171563
0000f0 33 a4 4c be 09 2c c4 3d 37 95 05 3e 03 45 5e 3e
       -0.19984512 0.095787115 0.13045202 0.21706013
000100 3e c0 e3 3a 75 19 22 be 59 99 c9 bd 69 3a ee bc
       0.0017376018 -0.15830024 -0.09843702 -0.029080587
000110 42 f2 e9 3c 1a 40 1e bd f5 8d 60 3e a9 5b a9 be
       0.0285579 -0.03863535 0.21929152 -0.33077744
000120 37 fa 21 be 3b 6f 13 3e a9 c7 7d bd 73 f7 8c bd
       -0.15818106 0.143979 -0.06195799 -0.06883135
000130 56 b8 70 3e 31 e3 b3 3c 58 4a 07 3e 9f 49 3b be
       0.23507819 0.02195892 0.13211954 -0.18289803
000140 20 64 95 be 0e 3e d4 bd 33 3d 40 bc c9 ac 32 bd
       -0.29177952 -0.103633985 -0.011733341 -0.043621812
000150 33 b4 6e bd fc f5 f5 bd 5d 9d 16 be ad fd 8f bc
       -0.05827732 -0.120098084 -0.14708467 -0.017577017
000160 17 90 77 bd f1 e5 b8 3c e9 d1 78 bc 9c 1b 10 be
       -0.06044015 0.022570582 -0.015186765 -0.14073032
000170 84 c6 33 bc 44 c2 75 bd 66 21 05 be 29 ef 2a bd
       -0.010972623 -0.05999972 -0.13001022 -0.041731987
000180 95 36 a9 bd c2 b8 92 3d 0d 4b 99 bd ca 4d 9d be
       -0.08262364 0.07164146 -0.07485018 -0.3072341
000190 9d 78 c7 bd 00 c7 54 3e b4 a5 2f bd 30 f6 50 be
       -0.09739802 0.20779037 -0.042882636 -0.20406413
0001a0 65 82 95 bd a3 b9 b9 3b b4 fb 05 3e 5c 6d 1b be
       -0.073002614 0.0056678816 0.13084298 -0.15178436
0001b0 d1 0c 18 bd 47 a7 3f be 31 67 02 be 7b 78 23 be
       -0.037121598 -0.18716155 -0.12734677 -0.15963928
0001c0 5e 24 bc bd c2 92 31 bd 8e 3d d9 3c 67 0a ee bc
       -0.09186624 -0.04335285 0.02651861 -0.029057695
0001d0 93 83 46 be 76 89 a2 ba 43 a9 10 be 31 8a 42 3c
       -0.19386129 -0.0012400586 -0.14127068 0.011873768
0001e0 95 05 e4 3c 6f 03 f0 bd a5 f8 0f be 2c 9b 4f be
       0.027834693 -0.11719405 -0.14059694 -0.20274037
0001f0 49 ff 17 3e 16 e5 86 3d 51 fd 32 bd 09 1f 53 be
       0.14843477 0.065866634 -0.043698613 -0.20617308

classifier.bias f4 [2]
000000 23 00 20 be 4a 7d 14 3c
       -0.15625052 0.009063074
