models/graphsage_engineered_focal_graphsage_model.pt (torch, 269156 bytes, 8 tensors)

conv1.lin_l.weight f4 [128, 194]
000000 dc 6a cb ba 01 04 36 bb c5 57 18 bc 23 d5 14 3b
       -0.0015519517 -0.0027773383 -0.00929827 0.0022710047
000010 ac 2c 1b 3b 7e 77 9d 3a 91 75 2b bd fc 92 9b bb
       0.002367775 0.0012013761 -0.041860167 -0.0047477465
000020 32 4d a2 ba 0e 1b 1a 3c d6 df 37 bb ac ff ff bb
       -0.0012382625 0.009405864 -0.0028057 -0.007812461
000030 92 9f a3 bb 2d f3 b2 3a 8c b9 18 bb da b8 54 3b
       -0.0049933875 0.0013652794 -0.0023303954 0.0032458813
000040 d1 06 bc ba 77 b1 72 bb e5 74 ad bb 54 6e 1d bb
       -0.0014345293 -0.0037032047 -0.005293476 -0.002402206
000050 a9 3d 13 3b 86 61 f2 3b 6a c6 08 bb 39 2f 6b b9
       0.0022467172 0.0073968796 -0.0020870217 -0.00022428938
000060 6c 3b b4 3b ea 04 10 bc f4 2e 5a bc 59 f3 c4 3a
       0.0055002477 -0.008790234 -0.013316859 0.0015026137
000070 f1 40 24 3c a8 91 1e 3b ea 95 a2 39 57 49 2b bc
       0.010025249 0.0024195705 0.00031010743 -0.010454497
000080 d6 6d 49 bc 83 0a a4 ba 74 c6 74 3a d8 83 4d 3b
       -0.012294253 -0.001251534 0.0009337433 0.0031359103
000090 16 49 63 b9 ee a6 d7 bb d4 6e ec bb 17 ad 01 bb
       -0.00021675634 -0.006581179 -0.00721536 -0.0019787007
0000a0 81 ad 8c 3b 63 fc 1f ba ae 59 9b 3b f3 1c 87 bc
       0.004293144 -0.0006102977 0.0047409153 -0.016493296
0000b0 a0 0e 11 bc 76 9f 17 bb 53 2f 13 bb 97 0f 70 3a
       -0.0088535845 -0.0023135818 -0.0022458627 0.00091575965
0000c0 e2 9d c2 bb 4c c6 87 bc f0 f1 1f bc 7a 4a 72 bb
       -0.0059392313 -0.016574048 -0.009762272 -0.003697066
0000d0 bd a3 31 3d 42 12 9b 3c 9f e2 4a 3d 6c 1e 0e 3c
       0.043369044 0.018929604 0.04953253 0.008674245
0000e0 6c 3e 0e 3c a1 59 c1 bb 88 3b e1 39 21 79 be 3c
       0.008681875 -0.005900577 0.00042959698 0.023251118
0000f0 6d eb 20 3c 16 87 76 3c 67 13 7b 3c 7d ec c9 bb
       0.009821755 0.015046855 0.01532445 -0.006162225
000100 62 68 6a 3c e8 a5 9b 3c b9 05 2d 3b ee a1 76 3c
       0.014307113 0.019000009 0.0026401116 0.0150532555
000110 f9 67 7d 3c c6 30 44 3c 7c f5 5b bb 9f 24 66 bb
       0.015466684 0.011974519 -0.0033563068 -0.0035117043
000120 1d 03 2e bb 09 97 a9 3c 18 ba cd 3c 14 8c 1e bb
       -0.0026552149 0.020701902 0.02511315 -0.002419238
000130 1d 10 88 3c 22 c9 b3 bb 0c ec 20 3b ac 6b ef 3c
       0.016609246 -0.0054866234 0.0024554757 0.029226147
000140 0a da bf 3c 0c c8 d8 bb e1 dc 38 ba 0a 63 81 3c
       0.023419399 -0.0066156443 -0.00070519565 0.015794296
000150 75 7d 86 bb 27 82 70 3c 85 70 95 3c fe fa 94 3c
       -0.004104311 0.014679468 0.01824213 0.018186089
000160 7a e0 20 bc 29 6d 0b 3d 97 e1 9c 3c 32 5b ac 3c
       -0.009819144 0.03403965 0.019150538 0.021039579
000170 3e dd 6d 39 b8 99 eb ba 81 75 d4 39 d0 47 7e 3b
       0.000226845 -0.0017974889 0.00040523338 0.0038800128
000180 ef 59 44 bb 95 08 eb bb c9 65 71 bc 10 fe c9 bc
       -0.002996083 -0.007172654 -0.01473374 -0.02465728
000190 17 8d 6c bc f6 18 8f bb 4f e7 71 bc 23 4d db bc
       -0.014437935 -0.0043669892 -0.014764621 -0.02677018
0001a0 6b 96 bd bc ec d1 cf 39 bd fc a1 bb a8 35 a0 bb
       -0.023143014 0.0003963852 -0.004943459 -0.004889209
0001b0 28 38 4e 3a 27 31 96 3c 44 dc a5 3c 4c 87 65 bb
       0.00078666443 0.018333985 0.020246632 -0.003502327
0001c0 8b 60 60 3b ca 4a 74 3c cd a6 8c 39 2f 13 0a bc
       0.0034237232 0.014910409 0.00026827157 -0.008427425
0001d0 b1 5d 16 bc 8c 5a 05 bb a9 42 83 3c 0b d7 ad 3c
       -0.009177611 -0.002034816 0.016022997 0.021220705
0001e0 f1 51 d5 3a da 39 0a bd c5 71 e9 bc f8 e6 82 ba
       0.0016275031 -0.033746578 -0.028496632 -0.0009987047
0001f0 bd 14 ae bb e9 e9 e3 bb 43 36 d6 3b 75 1c 77 38
       -0.005312531 -0.0069553745 0.00653723 5.891589e-05
000200 ea b4 99 ba 20 28 97 3a 58 dc cc 3c de 0e 47 3a
       -0.001172689 0.0011532344 0.025007412 0.0007593463
000210 be a5 6b bb c8 df 2a 3c ca 03 50 3c 09 d9 af bc
       -0.0035956944 0.01042933 0.012696216 -0.021465795
000220 d5 0b 0c bd ce c5 01 bc ab cb e8 bc 7a 9b 12 bb
       -0.03419097 -0.0079206955 -0.028417429 -0.0022370503
000230 05 5d 41 bb b9 76 64 3b 29 1a f8 3c 35 60 9f 3c
       -0.0029504907 0.0034860803 0.030285912 0.019455055
000240 28 eb 93 3c 56 33 63 bc 01 fa 52 bc 1d 04 c7 3a
       0.018056467 -0.01386722 -0.012876988 0.0015183721
000250 2d 5d 1e 3c 23 ad cf bb ba e0 e9 3b cd 21 74 ba
       0.0096657695 -0.006337778 0.007137385 -0.0009312898
000260 51 67 cd ba ea fd 21 bb 89 9a 48 3c 1f 9d 18 3c
       -0.001567105 -0.0024717995 0.012243875 0.009314804
000270 37 76 6e 3a ef 9c ae 39 61 23 3d 3b 68 88 b5 ba
       0.0009096595 0.0003330479 0.0028860199 -0.0013849856
000280 2e 07 c8 39 9d fe b3 3a 16 0f a3 ba 41 45 8c 3c
       0.00038152322 0.0013732497 -0.0012440409 0.017122867
000290 5b f8 8f 3c 22 d0 32 bd eb ec 78 3c 43 dc 2d ba
       0.01757448 -0.043655522 0.015193204 -0.0006632248
0002a0 3e 39 2f 3b 43 ed 04 3b 7d d2 a0 3a 45 4b d6 3a
       0.0026737 0.002028302 0.0012269762 0.0016349336
0002b0 cc d2 9c bb 3c 7d f8 b9 a2 b2 22 bb a7 a4 1f bb
       -0.004785871 -0.00047395553 -0.0024825712 -0.0024359615
0002c0 14 3f c2 b8 14 a7 f2 3a c3 3c 2f bb 63 96 a9 bb
       -9.26239e-05 0.0018512928 -0.0026739098 -0.005175398
0002d0 65 ff cb bb 9d f3 97 b9 09 7b f7 3a 7f db c2 3a
       -0.0062255138 -0.0002898247 0.0018881272 0.001486644
0002e0 f4 73 48 3b 62 7a ad bc 31 78 0c bc 61 1e 55 bb
       0.0030586692 -0.02117652 -0.008573578 -0.0032519328
0002f0 80 46 7c bc 03 ea 32 bc be 4a 18 bd a3 e5 e8 39
       -0.015397668 -0.010920051 -0.037180655 0.0004442158
000300 1f 0f 95 bc 16 a6 90 ba 60 6b 86 ba 9c 80 cf bc
       -0.018195687 -0.0011035826 -0.0010255389 -0.02532988
000310 79 8d f8 3b e2 c8 c9 ba b7 e5 4a 39 b3 91 cb bb
       0.007585224 -0.0015394951 0.00019349797 -0.006212437
000320 d7 8a 3d bc 0e 14 38 bb 1d 62 0b bb 2e 28 7f 3b
       -0.0115687465 -0.0028088125 -0.0021268197 0.003893386
000330 af a0 15 38 bd 63 86 3c 31 09 e8 3c d9 cb fa b9
       3.5674017e-05 0.01640498 0.028324695 -0.00047835594
000340 e2 0e 29 bd bb ac 1a bc e3 b9 a3 3a 36 b4 5f 3b
       -0.04127396 -0.009440596 0.0012491312 0.0034134514
000350 e3 8b 78 3a b8 94 27 bc 0c e8 7a bc fe 99 d4 3b
       0.0009481294 -0.010228328 -0.015314113 0.006488084
000360 b7 2f 01 3b d7 ed 3a bb aa f1 93 3b 82 92 9a 3c
       0.0019712278 -0.0028523111 0.0045148926 0.018868688
000370 a2 82 47 3c 1d fd d4 3b dc 36 d2 3b 59 79 3a bb
       0.012177141 0.0064999 0.006415231 -0.0028453676
000380 ee 04 02 3c 8e 6e 9a 3c f5 5e 4e 3c e8 3f 27 3c
       0.007935746 0.018851545 0.012595882 0.0102081075
000390 8f f5 ab 3b f7 4c 5c ba 04 7c ff 3b f0 cb 9a 3b
       0.0052477787 -0.00084038026 0.0077967662 0.0047240183
0003a0 5f 01 11 3c 0f b4 84 3b 33 e7 80 3a 28 a6 3f bb
       0.008850425 0.004049785 0.0009834528 -0.0029243324
0003b0 1d 5d 3b 3b c4 f0 33 bc 2e a6 b3 bc 34 9e 2f 3b
       0.0028589435 -0.010982696 -0.021929827 0.0026797177
0003c0 e8 2b 09 b9 a1 fe 37 bb 5c e9 7c 3a 7a 36 73 bc
       -0.00013081694 -0.0028075355 0.00096478104 -0.014844531
0003d0 bb 49 c3 bc 9e 4e b7 3c c1 67 06 3d b0 d3 93 3b
       -0.023838868 0.022376355 0.03281379 0.004511319
0003e0 13 68 2d 3c 46 a1 77 bc c7 c1 41 bc 23 39 a4 3c
       0.010583895 -0.015114134 -0.011825985 0.020046776
0003f0 4a 3c 82 3c bf 4e 07 3c 84 28 1c 3c 21 9a 73 3c
       0.015897889 0.008258521 0.009531144 0.01486829

conv1.lin_l.bias f4 [128]
000000 17 b4 1d bd 3f 30 4b 3c 26 b4 bd bd 56 84 06 bb
       -0.038501825 0.0124016395 -0.09262876 -0.0020525656
000010 77 88 3c bd 21 8a 2f be bb 1e 3f bd 3e 2d 96 3b
       -0.04602858 -0.17142536 -0.046660166 0.00458303
000020 c6 9c d6 bc 1e e8 65 bb ef 9e 2a bd 4d 93 ac 3c
       -0.026197802 -0.003508098 -0.041655477 0.021066332
000030 24 cf 83 3c d9 a5 25 3b af e6 26 3c 17 8d b1 bb
       0.016089983 0.0025275855 0.010186835 -0.0054184305
000040 62 12 71 bd 42 c7 b2 3c 11 12 03 bd 3d f7 b2 3b
       -0.05885542 0.02182353 -0.03199965 0.005461602
000050 ab 41 1d be 8f 24 5f bc 5e fb 9b bb 22 8a 9e bd
       -0.15357082 -0.013619556 -0.00476019 -0.077411905
000060 07 f3 9b 3c b4 54 35 bc a3 15 c0 bc 5e 13 05 bd
       0.019036783 -0.011067558 -0.023447817 -0.032489173
000070 81 3b ef bc 4f e5 ab 3d c7 54 68 3d aa 55 9c bc
       -0.029203178 0.083933465 0.056721475 -0.019083817
000080 9f d6 d5 3c bc 20 b6 3b 7c e0 26 bc d9 60 93 3b
       0.026103316 0.0055581015 -0.010185357 0.004497629
000090 2e 9b f8 ba 35 f6 f5 bb 87 5b a0 3c 5b 3d c6 b9
       -0.0018967146 -0.007506157 0.019574894 -0.00037811216
0000a0 bb ab 92 bc 1c 63 60 ba 82 38 34 bd 93 d9 e3 bb
       -0.017904153 -0.00085596903 -0.043999203 -0.006953427
0000b0 f1 45 9f bc 37 dd 4d bd 5b bd 57 bc 27 ce fd 39
       -0.01944253 -0.050259795 -0.013167704 0.00048409516
0000c0 df 75 2f 3c cc 70 5a bd e7 70 ff bb f2 82 24 3c
       0.010709255 -0.053330228 -0.0077954414 0.010040985
0000d0 3b 42 33 3b be 5b 01 bd ba 20 0a bd c8 3a 37 bc
       0.002735271 -0.031581633 -0.033722617 -0.011183448
0000e0 4e 29 08 be 08 4d 68 bc 2e 6e 0d 3d 63 05 95 3c
       -0.13297006 -0.014178522 0.034528904 0.018191045
0000f0 ec ac 53 3c f3 3f e7 3b ff 93 2f bc 78 09 38 bc
       0.012919646 0.007057184 -0.010716437 -0.011232726
000100 fe c8 71 bc c2 be af 3c 4c 81 5e bb 1f 13 e8 bc
       -0.014757393 0.021453265 -0.0033951579 -0.02832943
000110 e9 c1 68 ba ee 3b a8 3c da 31 8c bd c4 4b 10 3d
       -0.00088789925 0.02053639 -0.06845446 0.035228506
000120 3e 60 7a bc a2 19 28 bd 22 00 de 3b 25 5c 00 bd
       -0.015281735 -0.04104007 0.006774918 -0.031337876
000130 c4 00 59 3c 5d a7 fe 3c d8 07 a4 3c 0f 51 34 bd
       0.013244811 0.031085664 0.020023271 -0.044022616
000140 f9 21 f5 bc 50 fb 2f 3d c1 f0 a4 bc 59 e5 ca bb
       -0.029923426 0.04296428 -0.020134332 -0.006191891
000150 52 f7 6e 3d 4e 46 82 3c 15 00 96 bb 05 97 6b 3c
       0.05834133 0.015902665 -0.0045776465 0.014379268
000160 59 3a 51 bc 35 4c 83 3c 3e 16 31 bd 7f 1a a2 bb
       -0.012770259 0.01602755 -0.043234102 -0.0049470062
000170 7b f9 a8 bb 0d 34 fa bc 3a e5 88 bd 90 57 53 3d
       -0.0051566935 -0.030542398 -0.066843465 0.051597178
000180 b7 ac ab bb f4 2d ea 3c fa 84 46 3d e5 91 77 bd
       -0.005239095 0.028586365 0.04846666 -0.06044187
000190 cf f0 3c bd 20 52 6f bc 0c 1e 03 bd 7d 94 15 bd
       -0.04612809 -0.0146069825 -0.032011077 -0.036518563
0001a0 5e cc 81 3d 44 36 1c bd d3 62 e8 bd db 17 be bb
       0.06337808 -0.03813769 -0.11346974 -0.0058011836
0001b0 4e 45 32 bd 52 26 ce bc f2 62 f7 3c 83 70 5e bc
       -0.043523125 -0.025164757 0.030198548 -0.01357663
0001c0 f1 df 05 bd 0e 00 22 bb 8b dc 63 3d d2 06 2b 3d
       -0.03268427 -0.002471927 0.055630248 0.04175455
0001d0 eb 56 f8 3b f1 13 f3 bd eb 17 48 bc 4d 52 82 bc
       0.007578721 -0.11869038 -0.012212734 -0.015908385
0001e0 f6 d8 d5 3c 93 43 5a bc a1 61 08 3c 66 75 37 3c
       0.026104432 -0.013321775 0.008324058 0.011197424
0001f0 58 47 60 3d 91 3a 95 bd 92 3f 26 bd c4 5c 94 bd
       0.05475554 -0.07286561 -0.04058797 -0.07244256

conv1.lin_r.weight f4 [128, 194]
000000 b1 f1 df bb ad ba fc bc 9c d6 bb bc 0f fd 1e bc
       -0.006834232 -0.030850733 -0.022929482 -0.009703889
000010 e8 42 ea ba c1 44 2a bb 76 1e c1 3a af 18 76 bc
       -0.0017872723 -0.0025980922 0.001473381 -0.015020533
000020 5a 67 b3 bb b2 89 1e ba 9e 99 ed bb be 19 eb bb
       -0.005474967 -0.000604774 -0.0072509786 -0.0071746996
000030 49 ac 6b bc 4e 84 33 ba f5 80 af 39 e7 99 d7 ba
       -0.014384338 -0.0006848023 0.00033474682 -0.0016449065
000040 c3 60 31 bc 0f d0 31 bc 0e a0 84 bb 38 62 3d 3b
       -0.010826292 -0.010852828 -0.0040474003 0.0028897654
000050 ef a8 63 ba 91 0b 2b 3c bb 20 c1 bb c0 0d 8f bb
       -0.0008684536 0.010439769 -0.0058937944 -0.004365653
000060 7f 51 c5 bb e5 70 c8 bb 0a 80 1e bc d1 65 ee ba
       -0.006021678 -0.0061169737 -0.009674082 -0.0018188303
000070 8e b8 64 3c 6b a4 32 ba 95 6c f8 3b b5 dc ce bb
       0.013960017 -0.00068146613 0.0075813034 -0.0063129314
000080 33 9e 21 bc 98 a9 b7 3b bf 1d 68 3b 79 12 46 bb
       -0.009864378 0.005604934 0.003541812 -0.0030223413
000090 fc 8d aa 3b ab 4e ab 3a 19 aa f1 ba de 7a 04 bb
       0.005204914 0.001306971 -0.0018437534 -0.0020214836
0000a0 d8 bf 06 bc 05 46 cf ba 10 ed 98 ba 5e ae 18 bc
       -0.00822445 -0.0015813714 -0.001166733 -0.009318916
0000b0 c9 37 1f bc 20 f6 a4 bb ce 19 d8 3b 09 6f 6e 3b
       -0.00971789 -0.005034223 0.006594873 0.00363821
0000c0 31 b1 93 3b fc a8 84 bc 02 3c 6a bc ab df 95 ba
       0.004507207 -0.01619386 -0.014296534 -0.0011434456
0000d0 bd 62 41 3d d0 62 09 3c af c7 2b 3b 71 42 7f bb
       0.047213305 0.008385375 0.002621155 -0.0038949514
0000e0 03 8c 09 bb 82 41 4d bb d5 31 42 3c d0 a8 80 3c
       -0.0020987995 -0.0031319563 0.011852701 0.015705496
0000f0 15 31 b0 3c ea e1 36 bc 12 6c 22 bc 6d 78 87 bb
       0.02150778 -0.011162261 -0.009913461 -0.004134229
000100 72 54 1c bc 09 ec 69 bb 9a 7b 15 3b b3 fb 33 bc
       -0.009541618 -0.0035693666 0.0022809268 -0.010985303
000110 a4 0f 25 bc 56 d4 1c bc 3d 9b 3d 3c 8d 0d 74 3c
       -0.01007453 -0.009572109 0.011572656 0.014895809
000120 a3 52 5a 3c bc 31 b4 3b 46 f9 a3 3c 6d a7 35 bb
       0.013325366 0.005499093 0.020016324 -0.0027718202
000130 34 a2 92 3c 0c 28 ce ba 72 5e 0d bc fe 49 6a 3c
       0.01789961 -0.0015728488 -0.008628475 0.014299868
000140 c9 63 8e bb 2f 0c 6d bb 3d 2b f3 3b 3b 47 11 bc
       -0.0043453914 -0.0036170592 0.007420926 -0.00886708
000150 06 8b f3 ba fc 00 9f 3b e1 5a a9 b9 37 ff 65 bc
       -0.0018580861 0.0048524123 -0.00032301902 -0.014037899
000160 e6 0c 09 3d 8f 00 33 3d b8 49 d8 3c 49 0b 48 3c
       0.033459567 0.043701705 0.02640234 0.012209722
000170 6b dc 14 bc f9 63 2b bb 83 6b 15 bb b0 09 0a bb
       -0.009085755 -0.0026152118 -0.0022799678 -0.0021062903
000180 e1 75 7a bb 4c e1 02 3c 2b 6f 4f ba a7 fe 55 bd
       -0.0038217234 0.007988285 -0.00079129887 -0.05224481
000190 31 0a 83 bd 98 e6 9d bb 34 3c 3c bc d1 3f 56 3b
       -0.06398428 -0.0048187487 -0.011488963 0.0032691846
0001a0 c6 00 bc 3a 22 07 a9 39 32 79 2e bb 52 e4 8c bb
       0.0014343492 0.00032239506 -0.002662253 -0.004299679
0001b0 7e ad f6 3a fe 39 a3 3c 9c 95 83 3c 67 8b 70 ba
       0.0018820015 0.019925114 0.01606255 -0.0009176046
0001c0 d4 47 6d bb ea cc c0 bb 5f 5e da bb 79 af ec 3b
       -0.0036206143 -0.0058838027 -0.006664082 0.0072230664
0001d0 a0 2f 1d 3c e1 96 0d bc d8 a4 6b 3b e4 ea cd 3b
       0.009593874 -0.008641929 0.0035956409 0.0062841047
0001e0 90 a3 07 bc 31 ab ec bc 3b 91 c2 bc 80 d8 c4 3a
       -0.008278742 -0.028890224 -0.023750892 0.0015018135
0001f0 87 f7 89 3b 53 36 90 bb fa 28 86 3a 27 86 8a 3c
       0.0042104158 -0.004401007 0.0010235601 0.016909672
000200 70 3e 8a 3c 8e 38 68 ba e9 7f 90 3c 9c cf ee 3a
       0.016875476 -0.0008858525 0.017639117 0.0018219831
000210 09 5f 32 ba 73 ca 99 3a d2 86 1e 3a 37 4f d6 bc
       -0.00068043225 0.0011733308 0.00060473115 -0.02616082
000220 0d 66 e9 bb cc e6 c2 3c 4a 56 b5 bc 19 26 5a 3c
       -0.007122761 0.023791693 -0.022135872 0.013314747
000230 d9 1d 28 3c 13 0f 1f bc 94 ae 1a 3d 6b 31 20 3d
       0.0102610225 -0.009708184 0.037764147 0.03910963
000240 3d 0f e0 3c 88 ef 48 3c ff b6 3d 3c 0f ce 91 bb
       0.027351016 0.01226414 0.011579274 -0.004449613
000250 a2 70 4d bc 06 98 e0 bc b9 1b b6 bb 63 b9 52 3c
       -0.012539061 -0.02741624 -0.005557504 0.012861582
000260 07 66 45 3c 38 a3 9f bb 65 44 ca 3c eb aa 4e 3c
       0.012048251 -0.004871752 0.024690816 0.012613992
000270 ff 31 42 3c 3f 7a c2 3c f4 10 cb 3c ba e2 52 bb
       0.01185274 0.023739932 0.024788357 -0.0032178597
000280 6c 25 85 3b d1 38 e1 3b 20 28 88 3b 9e 51 0a 3c
       0.004063299 0.006873228 0.004155174 0.008442311
000290 12 41 1a 3c fe 16 f0 bc 6f 4f 18 3b 7f 5a 60 bc
       0.009414928 -0.029307839 0.0023240705 -0.013693451
0002a0 e6 5d 5a bc 74 e9 cd bb 49 cb ca bc 7f bc 39 ba
       -0.013328051 -0.0062839333 -0.024755137 -0.0007085278
0002b0 74 03 12 3b ab 88 0e 3a 99 f8 e7 ba 92 f5 e1 bb
       0.002227989 0.0005437235 -0.0017697989 -0.0068957293
0002c0 8a 4e 84 ba cf 9f b8 ba ce 44 b8 bb 62 73 7c bb
       -0.0010094207 -0.0014085713 -0.0056234365 -0.0038520922
0002d0 c5 a0 0b bb 5a 72 ed bb 50 2c 3c ba db 01 5b bb
       -0.0021305543 -0.007246298 -0.0007178234 -0.0033417854
0002e0 50 d1 f9 ba 53 33 d8 3a 61 6e 3d bd bb 48 5d 3c
       -0.0019059572 0.0016494788 -0.046247844 0.01350611
0002f0 c6 56 f3 bb bf 61 5e bd d4 bd a6 bd dc e1 84 3a
       -0.0074261157 -0.054292437 -0.081416756 0.0010138112
000300 9e a0 8d bc 79 99 35 ba 3c f1 0d 3c c9 d5 ee bc
       -0.017288502 -0.0006927471 0.008663472 -0.029154675
000310 d7 29 0c 3d 89 ad 97 bc 65 94 51 ba 85 e9 53 bc
       0.03421959 -0.018515365 -0.000799483 -0.012934093
000320 a9 30 5f bd 63 4e 22 3c 04 f6 32 3c 06 30 09 3c
       -0.054489765 0.009906384 0.0109229125 0.008373266
000330 4c 2d 47 3c 08 03 2b 3c ca 7b ea 3c b7 1f 19 ba
       0.012156796 0.010437734 0.02862348 -0.00058412127
000340 f1 72 91 3d 12 89 39 3c 30 b7 08 3c 39 41 35 3c
       0.071020015 0.011324184 0.008344457 0.011062914
000350 e4 79 e1 3b 80 78 0a 3d 13 de fb 3c b6 d0 5b 3c
       0.0068809856 0.033806324 0.030745542 0.01341646
000360 af b9 32 3c c4 b7 99 3b 92 2d 9d 3c 92 e0 5b 3c
       0.010908528 0.004691096 0.019186769 0.013420241
000370 06 8c 0b bb 2b 25 5a 3c b5 e8 84 3c c9 ee 8a 3b
       -0.0021293177 0.013314526 0.016224245 0.004239891
000380 e3 67 7d 3c b4 6f 6a 3c 3c 33 0e bb d2 58 aa 3c
       0.015466663 0.014308859 -0.0021698019 0.020794306
000390 9e e9 a1 3c fd 44 41 bb 4e 3f aa 3c 72 85 40 3b
       0.019764718 -0.0029490583 0.02078214 0.0029376415
0003a0 5f 16 e5 3a 7e ff 7d 3c 8b 22 89 3c 00 04 b3 3b
       0.001747798 0.015502809 0.016740104 0.0054631233
0003b0 96 af 89 3c e1 a7 cb bc 0b d8 a6 bc 62 39 40 3c
       0.016807359 -0.024860324 -0.02036669 0.011732431
0003c0 81 8f 4a 3c 20 bc b8 3b 50 51 3d 3c c6 a3 90 bc
       0.012363316 0.0056376606 0.011555031 -0.017656218
0003d0 90 ea 2e bc 08 40 c8 3a 84 40 68 3d 07 82 c6 3c
       -0.010676041 0.0015277872 0.056702152 0.024231924
0003e0 e0 2b b8 3c 10 86 0f bd b3 67 c3 bc 00 7a 95 3c
       0.022481859 -0.03503996 -0.023853159 0.01824665
0003f0 79 73 f0 3c e0 53 9e 3c b7 1d d6 3c 49 b2 f8 3c
       0.029351937 0.019327104 0.026137216 0.03035845

conv2.lin_l.weight f4 [64, 128]
000000 b6 5a 95 bd 61 a4 86 3d ce e5 dd bc 31 bb 03 3d
       -0.07292692 0.065743215 -0.027087118 0.03216094
000010 71 55 0a bd 4f 60 75 3b 4d cf d8 bc 76 56 b3 3c
       -0.03377289 0.0037441438 -0.026466036 0.021891814
000020 22 a4 c2 3d 64 3c 97 3c 90 c6 f3 bc 8e 39 6b 3c
       0.09503962 0.018461414 -0.029757768 0.014356984
000030 b6 0a 13 3c b0 8f 85 3c 5e c1 92 bb ae 44 87 bd
       0.008974722 0.016303867 -0.0044786176 -0.066048965
000040 e2 e9 6d bd 6a bf 40 bc 73 59 95 3d 35 d4 27 bd
       -0.058084376 -0.011764387 0.07292452 -0.04097386
000050 cc f3 fe bb b8 dc 97 3c e7 9e 76 3d 95 49 9d 3c
       -0.0077805277 0.018537864 0.060210135 0.019200126
000060 f3 10 2f 3d 4c 57 80 bd ed be dc 3c 7d 55 23 3c
       0.042740773 -0.062666506 0.02694651 0.009969112
000070 d5 31 d0 3b c9 a9 a9 3d 37 06 84 bc 7a 85 cb 3c
       0.0063535967 0.08284337 -0.016116245 0.02484392
000080 92 42 a7 bc 0f ed ca 3c bf 80 f7 3c da fc ec bb
       -0.020417485 0.024771241 0.030212758 -0.0072322907
000090 10 30 71 39 1f 01 19 3d 48 21 9d 3c ae 0d 81 bc
       0.00023001456 0.037354585 0.019180909 -0.015753593
0000a0 bf 77 78 3c 95 d6 17 3d dd 37 ac bc 05 ff cc 3c
       0.015165268 0.037069876 -0.021022731 0.025023947
0000b0 8e af 25 bd f5 44 72 3c ba c7 73 3c 3a 01 40 bc
       -0.040450625 0.014786948 0.0148791615 -0.011719042
0000c0 10 1e 0a 3c 6e 57 17 3d e7 28 c9 3b 4e 38 1f 3c
       0.008430019 0.036948614 0.006138909 0.009718014
0000d0 05 30 96 bc ea 20 a4 bb 74 90 05 bd 0e 21 48 3d
       -0.018333444 -0.0050088065 -0.032608464 0.04885965
0000e0 3c d3 36 bd db 0c 66 bc 71 41 22 3b d8 0d 27 3c
       -0.044635043 -0.014041151 0.0024758244 0.010196172
0000f0 a1 c7 4a 3c c0 dd 9b 3d b2 cc 10 bc 94 90 4e 3d
       0.012376697 0.07610655 -0.008837866 0.05043085
000100 eb d9 d9 bb 77 ea 4d 3d 42 34 6b bc 07 c7 21 3c
       -0.0066482923 0.05027243 -0.014355721 0.009874112
000110 8e 5b 02 3b 57 1f 6d 3d dd b5 0c 3c ff 59 2e 3d
       0.0019890997 0.057891216 0.008588281 0.042566296
000120 74 6a 17 bd c2 65 4e bd 38 31 db 3c c2 60 01 3d
       -0.036966756 -0.050390013 0.026756868 0.031586416
000130 26 43 36 3d cb ee aa 3b 0a 52 69 3d fa 06 11 3c
       0.04449763 0.0052164546 0.056963004 0.008851761
000140 92 63 88 3c 11 56 c6 3d d8 4a 8e 3d 1a 0a db 3c
       0.016649041 0.096843846 0.06947869 0.026738215
000150 02 e8 52 3c 8e 7d 0d bd 03 7e 05 3d ec 96 94 3c
       0.012872698 -0.034543566 0.032590877 0.018138371
000160 57 19 65 bd dd 1b 9b 3d cd 0b 03 3d 67 74 20 3d
       -0.05593237 0.07573674 0.031993676 0.03917351
000170 a2 ac b9 3c db a3 08 bd cf 93 8d bd 2b 4e 71 bc
       0.022665326 -0.03335939 -0.06912958 -0.014728109
000180 6f 01 b4 3c fa d2 ee 3d 7d 4e b0 3c 7a 9d 50 bc
       0.02197334 0.11661334 0.021521801 -0.012732858
000190 93 1c b4 bc 7a 8e 53 3d 9a 66 2a 3d e9 b5 8d 3b
       -0.021986281 0.051649548 0.041601755 0.004324664
0001a0 c9 18 c3 b9 05 43 3d bd 96 56 48 bd 89 bf ed 3d
       -0.00037211765 -0.046206493 -0.0489107 0.11608798
0001b0 5d e4 3d 3d 6b 1f 50 bc 6f 27 a7 3b 2d 47 7f 3c
       0.046360362 -0.012702803 0.0051011364 0.0155809345
0001c0 88 5b 0a 3d ad 90 02 3d e1 f0 8f 3d 99 f7 84 3b
       0.033778697 0.031876255 0.07028366 0.0040578363
0001d0 e4 26 89 3d a9 95 5e 3b 90 9e c0 bb e5 c7 d4 bc
       0.06696871 0.0033963716 -0.005878277 -0.025974223
0001e0 d5 ee f8 3d 9a 66 b5 bc da 72 50 3d fb 3e 14 bd
       0.121549286 -0.02214365 0.05089078 -0.036192875
0001f0 64 83 a0 bc 64 40 fc 3c 6f 8f 99 bd c5 db cc bb
       -0.019593902 0.030792423 -0.07498061 -0.0062517845
000200 44 02 ba b9 44 ff a9 ba 58 12 0b 3c d2 7a b4 ba
       -0.00035478373 -0.0012969752 0.00848826 -0.0013769513
000210 b7 47 7b ba 53 00 ac 3b 87 0c b2 ba c9 48 4b b9
       -0.00095855765 0.005249062 -0.0013584056 -0.00019386703
000220 c9 80 db ba 93 3a 12 3b 97 f4 aa ba 10 eb 9d 38
       -0.0016746755 0.0022312745 -0.0013042864 7.530127e-05
000230 f0 cb c9 3c 0a 6a e2 ba 88 66 89 ba 0a ed 26 bb
       0.024633378 -0.0017274034 -0.0010482827 -0.0025470876
000240 94 03 12 3c a4 a9 1b ba ac 1a 0a bb 11 14 1b 3c
       0.008911986 -0.0005938059 -0.0021073027 0.009465233
000250 38 79 88 3b d2 d4 88 3b 9c 5f 7d ba 08 2d db 3b
       0.004164841 0.004175761 -0.0009665431 0.0066887178
000260 c8 47 a2 ba b3 d0 2f ba 1f 33 a6 ba ef 72 f8 3a
       -0.0012381012 -0.0006706819 -0.001268003 0.0018955151
000270 f5 cc 71 3c 0b 0a 16 bb 0f eb 56 3b ee f3 c9 b9
       0.014758338 -0.002289417 0.0032793914 -0.0003851945
000280 68 9b fd b9 8c 13 28 ba 76 ad b7 ba 4c e5 25 b9
       -0.00048371707 -0.0006411604 -0.0014013487 -0.00015821046
000290 aa 78 42 3b 9e 60 07 bb 1a 89 5a ba 13 bd b1 3c
       0.0029673972 -0.0020656954 -0.000833647 0.021696603
0002a0 51 a0 93 b9 56 36 b4 b9 ac 53 a3 ba ff ad bd ba
       -0.0002815747 -0.0003437276 -0.0012460849 -0.001447141
0002b0 39 43 f1 b9 dc 64 90 3a 41 d4 91 b9 cc 74 62 3b
       -0.00046017187 0.0011016387 -0.00027814697 0.003455448
0002c0 10 2c bf 3a d2 b4 c9 b7 b3 3a 2e 3a ea 2c 9f ba
       0.0014585275 -2.4045268e-05 0.000664632 -0.0012144123
0002d0 53 9b 48 bb c5 65 80 3c 9a 55 13 bb ce 3f 71 bb
       -0.0030610159 0.015673527 -0.0022481442 -0.0036811712
0002e0 92 9c a4 3b a5 f8 ad b9 c1 66 89 3b b7 d3 0c 39
       0.0050235474 -0.00033182386 0.0041931574 0.0001343031
0002f0 41 3d 22 ba 1c 1d f7 ba cf a7 74 37 f2 2f b0 ba
       -0.0006188937 -0.001885328 1.4582604e-05 -0.0013442023
000300 b1 13 44 ba 15 1c 92 ba 40 8a 40 bb c1 ee 7c ba
       -0.0007479741 -0.0011147285 -0.0029379278 -0.0009648614
000310 84 2d 98 3c e7 a3 c9 b9 45 a7 34 b8 c7 bd 49 38
       0.018576391 -0.00038459824 -4.3071126e-05 4.809888e-05
000320 02 96 b0 ba 0e 37 16 ba 9c 70 6b ba 82 ce c0 39
       -0.001347244 -0.00057302497 -0.00089813187 0.00036774954
000330 e3 f1 09 3b ba 03 43 bb ff 7b 55 bb b1 a8 29 ba
       0.0021048717 -0.002975686 -0.0032575128 -0.00064719754
000340 ed 08 5a b9 7a 8e 8e ba 8c 77 ab 37 17 c0 a8 ba
       -0.00020793425 -0.0010876202 2.0440457e-05 -0.001287463
000350 70 4e 98 ba e3 76 a7 3a 63 31 2d b9 08 2f e3 3a
       -0.0011620056 0.001277652 -0.00016516964 0.0017332742
000360 38 e9 7b bb a5 f6 ed ba cd e5 86 3b 6b d0 0d b9
       -0.003843857 -0.0018155171 0.00411675 -0.0001352445
000370 91 a0 3c 3a 1c ad 9e ba e0 df 23 bb 00 66 03 bb
       0.0007195557 -0.0012106034 -0.0025005266 -0.002004981
000380 3a 68 30 bb f1 f8 45 b9 ee 17 21 3c 1c db b0 3b
       -0.0026917593 -0.00018880122 0.009832365 0.0053972136
000390 e7 59 05 3b 80 b2 f8 ba 46 c5 a4 b9 d5 0f 0d b9
       0.0020347775 -0.0018974096 -0.00031427498 -0.00013452706
0003a0 b2 c6 3a 3b be b0 10 3c 70 7c bc 3b c7 6f 61 ba
       0.002849978 0.008831201 0.005752139 -0.0008599725
0003b0 3a b9 64 3a 1c 0d 16 bb b3 7f d5 b8 cd bd b1 ba
       0.00087251107 -0.0022895997 -0.00010180417 -0.0013560593
0003c0 34 b3 ac ba 28 e3 a0 ba 60 64 15 bb dc 1b 5c 3c
       -0.0013175965 -0.0012274729 -0.0022795424 0.013434377
0003d0 62 e1 83 ba 37 65 ae 3a 80 e1 ea b9 dd 3a 4d 3b
       -0.0010061676 0.0013305311 -0.0004479997 0.0031315603
0003e0 7a b7 b9 39 4e 03 19 3b b3 73 5e bb e7 bd e4 b9
       0.0003542265 0.0023347917 -0.0033943474 -0.00043629037
0003f0 c1 d9 24 3b 88 44 70 ba 10 ae 61 ba fb f0 cb 38
       0.0025154206 -0.00091654854 -0.0008609006 9.7246804e-05

conv2.lin_l.bias f4 [64]
000000 1f 34 31 bc 90 34 c9 ba 51 7f 6d bc 8f 01 c2 3c
       -0.010815649 -0.0015350748 -0.014495687 0.023682384
000010 a4 68 fc 3d 00 88 05 3d df e6 45 bd 8b e6 da 3c
       0.12324646 0.032600403 -0.04831588 0.02672126
000020 db db bd bc ed b6 80 3c e6 2d 1e 3c df d8 4c 3d
       -0.023176124 0.015712226 0.009654498 0.050011512
000030 d9 6a 40 3c ba af 05 bb 21 17 4a 3e a5 65 a9 3c
       0.0117442245 -0.002039893 0.19735385 0.02067835
000040 46 51 19 bd 8f 30 3d bb 41 0d 0c ba e1 84 9e 3c
       -0.037431024 -0.0028868055 -0.0005342551 0.019350471
000050 b0 4e 50 3d 78 20 35 3d e2 bb ca bc e4 31 22 bd
       0.050856292 0.044220418 -0.024747793 -0.03959836
000060 e6 40 b1 3c 24 0c 4e 3b 83 8b b2 bd 24 6d 56 3d
       0.021637391 0.0031440342 -0.08718016 0.05235018
000070 cb ef fc 3b b6 69 c1 bd 4b 9a bf bb 14 7a 82 3c
       0.0077190152 -0.09443991 -0.0058472506 0.015927352
000080 14 80 9f 3d ed ce b8 3b 55 7d 11 3c e4 9e 99 bd
       0.07788101 0.005639902 0.008879979 -0.07501009
000090 b9 db 98 3c 6f 4e e1 3c c8 10 9c bc 28 20 45 3d
       0.01865946 0.02750322 -0.01905097 0.04812637
0000a0 f1 f2 4f bc 3b 99 c5 bc 73 93 50 bc 3f af ab 3a
       -0.012692199 -0.024120918 -0.012730467 0.0013098492
0000b0 5d 7e ac 3d 59 4e 05 3d c6 f7 a2 3c 0a 41 12 3b
       0.084225394 0.03254542 0.019893538 0.0022316598
0000c0 50 aa df bc e2 04 fa bc fc 7b c2 3c d2 72 e5 bc
       -0.027302891 -0.030519906 0.023740761 -0.028008852
0000d0 1b fa 56 3d e2 fb 0f bd 1b 47 f8 3b 23 64 2a bd
       0.052484613 -0.035152324 0.007576836 -0.041599404
0000e0 c5 cb d6 ba f5 fd 46 3d 1c f0 40 3d f4 88 d6 3b
       -0.0016387632 0.048582036 0.047103986 0.006547088
0000f0 0e 85 1a 3d 90 5e 05 bd dc be a6 3b 54 4a 33 3c
       0.037724547 -0.032560885 0.00508867 0.010943014

conv2.lin_r.weight f4 [64, 128]
000000 db 94 f1 bb c7 a5 0f 3d 43 b3 93 bc 13 18 0c 3d
       -0.0073724813 0.035070207 -0.018029815 0.034202646
000010 fc 93 16 bc 38 e2 88 bd fe 52 f7 bb f4 71 14 3c
       -0.009190556 -0.06683773 -0.0075477352 0.009060372
000020 14 2e c1 3d a0 b5 14 3d 89 4b 89 3d 2b 95 cc 3d
       0.09432617 0.036306024 0.0670386 0.09989389
000030 4e 79 86 3d 3b 4b 25 bc 5c 99 af 3b db b4 86 bd
       0.06566106 -0.010088737 0.005358858 -0.06577464
000040 9c 0f 47 bc 06 50 07 bc 81 36 fa bc 7c e9 8c 3d
       -0.012149718 -0.008258825 -0.030543568 0.06880471
000050 a3 43 69 bd fc 67 c9 3d 7c 1f 28 3c 11 90 51 bd
       -0.05694927 0.098342866 0.010261413 -0.051162783
000060 3f 48 4c bb f4 e1 80 3d b3 7d c9 3d e4 33 70 3d
       -0.0031170992 0.06293097 0.09838428 0.058643237
000070 0c df a5 3d 73 5c d8 3c 75 90 b2 3d b5 da 9b 3d
       0.080991834 0.02641127 0.08718959 0.076100744
000080 db 6a 78 3d ff 8f 73 3d cc e5 99 bd 9e 99 08 bc
       0.06064878 0.059463497 -0.075145334 -0.008337406
000090 ee 91 16 3d ff c0 43 3d e6 29 b8 bb bc 58 66 3d
       0.036760263 0.047791477 -0.005620229 0.056236967
0000a0 42 fd 41 3b 30 bb 6d 3d b6 87 e0 3b c8 18 69 3d
       0.0029600416 0.058039844 0.0068521155 0.0569084
0000b0 21 53 e7 3c 96 95 80 bc 91 0b 85 3d de 92 88 3c
       0.028237881 -0.015696328 0.06496347 0.016671594
0000c0 bb 4d 0f 3d fe ad ae bc 06 85 aa 3c ef 47 53 3d
       0.03498624 -0.0213232 0.020815384 0.051582273
0000d0 57 f5 46 3d 22 df 69 3d 59 0e 73 3d 0b f6 50 bd
       0.048573818 0.05709756 0.059339855 -0.051015895
0000e0 78 25 0e bd 1f 37 7e 3d 61 08 44 3d 08 49 b1 3c
       -0.0347037 0.062064286 0.047859553 0.02164127
0000f0 0f 58 55 3d 09 70 bc 3c eb 6d 10 bd 34 49 33 3d
       0.052085932 0.023002641 -0.035261076 0.043770984
000100 a1 d1 8c 3c 50 94 06 bd 23 81 87 3d dd 5a e7 bc
       0.017189803 -0.032856286 0.06616428 -0.02824157
000110 e5 37 0b 3e 4e 4a 0e 3d 3d 41 1d bc d9 b7 9e 3d
       0.13595541 0.03473883 -0.009598074 0.0774991
000120 fe 99 39 3c 0c 48 8e 3d bc d0 85 3c 95 90 94 3d
       0.0113282185 0.069473356 0.016334884 0.07254139
000130 2b cb 20 3d bc 86 9c 3d da d1 f7 3c 45 c2 50 3d
       0.039256256 0.07642886 0.030251432 0.05096652
000140 4b 49 2f 3b 98 33 f5 3c 51 93 82 bc f9 21 ba 3d
       0.0026746567 0.029931828 -0.015939387 0.09088511
000150 b1 f8 75 bb 47 51 24 3c fc f8 18 bc ce 33 37 3d
       -0.0037532265 0.010029144 -0.009336706 0.04472714
000160 30 49 fd 3d a1 fb 53 3d cf bd f4 3d 1c 04 2c 3d
       0.12367475 0.051753644 0.119502656 0.041996107
000170 67 63 dd 3c 74 03 2b 3c 55 27 4f 3a b5 6a 4d bd
       0.027024938 0.010437835 0.0007902284 -0.050150592
000180 58 86 27 3d 4e 86 cb 3d d7 e7 32 3d 13 6b 30 3c
       0.040899605 0.09937726 0.04367813 0.010767716
000190 cd 2d 59 bd ff 8e 46 3c 48 96 8f 3c 95 8e 03 bc
       -0.053022195 0.012119054 0.017527714 -0.0080296
0001a0 ec 93 ca 3d 9c 46 f4 3c 7d 69 38 bd 25 b8 2c bd
       0.09891495 0.029818825 -0.045022476 -0.0421678
0001b0 58 1e 5a bc b2 26 14 3d 5b 4c df bb 2e d1 00 3c
       -0.013312899 0.036169715 -0.006814522 0.007862372
0001c0 4f f0 cc b9 71 36 b5 3c ff c3 03 3d 84 d7 c3 3d
       -0.00039088956 0.022120686 0.03216934 0.09562591
0001d0 15 92 07 3d b1 ac f9 bc 2a 0f 28 3d 47 51 14 3d
       0.0330983 -0.030477853 0.041030087 0.036210325
0001e0 21 bb 9c 3d 9c 65 ef 3d 67 45 00 3d f7 7e 01 3d
       0.076528795 0.11689302 0.031316187 0.031615224
0001f0 a6 f6 6a 3d 30 4e a2 3d 32 f0 76 b9 66 46 41 3d
       0.05736413 0.07925069 -0.00023549868 0.047186278
000200 39 32 2c 3a 9e 16 29 ba 99 5d 3b 3c 5e 49 03 bb
       0.0006568763 -0.00064502086 0.01143589 -0.0020032744
000210 5b 20 16 ba 35 cf 85 3c a6 82 b8 38 d4 b5 e9 b9
       -0.0005726867 0.016334156 8.798139e-05 -0.00044576696
000220 d5 8d ab ba a4 23 a5 ba 3b 5a 7c ba a6 04 c1 ba
       -0.0013088534 -0.0012599123 -0.00096264825 -0.0014726117
000230 f1 e2 5d bb b7 29 b7 b8 23 ee 43 ba 97 2f 96 ba
       -0.0033857191 -8.73389e-05 -0.0007474145 -0.0011458275
000240 c5 58 96 3b 69 f5 cf b9 2a 26 24 3c a5 24 9b ba
       0.004588219 -0.00039664962 0.010018865 -0.0011836482
000250 ef f6 cd 3c b4 7e 2c bb 79 3e c2 39 2f 73 95 3c
       0.025142161 -0.0026320638 0.0003704911 0.0182434
000260 82 cd 2d b8 f9 01 4e 3a 69 3e 9d ba a7 45 92 39
       -4.143781e-05 0.00078585703 -0.0011996749 0.00027899185
000270 1e 5b dd bb d7 da 74 bb f8 d0 7b bb a1 a1 a1 ba
       -0.006755247 -0.0037361884 -0.0038424116 -0.0012331494
000280 f3 33 f0 ba 00 e8 0a bb 11 2a 45 3b 45 b5 b3 ba
       -0.0018326029 -0.0021195412 0.0030084888 -0.0013710639
000290 81 cc 0c bb 1b 84 3a bb 92 37 af b8 90 16 51 ba
       -0.0021484199 -0.0028460089 -8.355001e-05 -0.00079760794
0002a0 ba 25 85 ba 9d 7f 31 bb 53 85 a9 ba da 80 ca ba
       -0.0010158338 -0.002708412 -0.001293341 -0.0015449778
0002b0 70 30 d1 3a 6e 7e 05 3a 62 47 19 bb 02 23 65 ba
       0.001595987 0.0005092387 -0.0023388495 -0.00087408733
0002c0 7d cb a3 bb 51 63 50 bc cf 4b 19 3a 58 b2 96 3a
       -0.004998623 -0.012718991 0.0005847783 0.0011497242
0002d0 0a c5 c8 b9 b2 96 8d bb 77 46 95 b8 40 00 13 ba
       -0.00038293778 -0.004320943 -7.117999e-05 -0.0005607642
0002e0 10 3c 34 3c 5e 1b b7 b9 f0 95 10 bb 02 70 c0 ba
       0.011000648 -0.0003492487 -0.0022062026 -0.0014681818
0002f0 72 48 11 bb 64 19 33 bb 92 7f bd 3a a7 ca a6 39
       -0.0022168425 -0.0027328366 0.0014457575 0.00031812975
000300 7f 20 8e b9 51 fd a2 38 d4 7a ae b9 40 3f 16 3b
       -0.00027108562 7.771946e-05 -0.0003327938 0.0022925884
000310 16 11 a8 bb 7c a1 0f bb 59 46 ae 39 f6 d1 16 bb
       -0.00512899 -0.002191632 0.0003324028 -0.002301333
000320 aa 1b 25 ba 9c b8 df b8 e4 80 8f bb 26 82 a7 ba
       -0.0006298373 -0.00010667855 -0.0043793786 -0.0012779876
000330 72 20 9e 3a cc 74 87 ba 80 03 44 bb 3a 83 63 39
       0.0012064113 -0.0010334491 -0.0029909313 0.00021697293
000340 5a 32 9e 3c ce 94 bf ba d6 f1 25 ba 33 ae 14 bb
       0.019311119 -0.0014616491 -0.0006330287 -0.0022686839
000350 26 6b 8e ba 6f d8 d7 3a 9e 64 d6 ba 57 d6 31 bb
       -0.0010865673 0.00164677 -0.001635689 -0.0027135813
000360 89 e0 a4 b9 a4 6a 42 ba 2e d5 ad bb d1 dd 1c bb
       -0.0003144781 -0.00074164034 -0.005304954 -0.0023935924
000370 ca 20 77 bb 81 27 26 ba 21 19 98 3a cc 2d 7e 39
       -0.0037708753 -0.0006338284 0.0011604169 0.00024240388
000380 2d 86 cb ba ff d9 66 bb dd a3 3f bb 22 8e a1 3c
       -0.0015527658 -0.003522515 -0.0029241957 0.019721095
000390 56 37 a4 3c d6 aa c8 ba 1b 5b a9 3a 79 92 58 ba
       0.020045917 -0.0015309702 0.0012920828 -0.0008261572
0003a0 05 41 46 bb 87 94 63 38 16 76 97 3c b4 19 53 3b
       -0.0030251157 5.4259344e-05 0.018488925 0.0032211365
0003b0 93 52 99 39 d1 b8 08 ba e5 8b 40 39 4d 44 13 ba
       0.00029243957 -0.0005215528 0.00018362662 -0.00056177826
0003c0 10 ab 08 bb 29 e8 07 bb 69 8e 8c bb 2f 61 a9 bb
       -0.0020853914 -0.0020737743 -0.0042894376 -0.005169056
0003d0 f1 65 35 bb f1 dc 5b 3c b2 ea d8 b9 01 51 05 ba
       -0.002767917 0.013419376 -0.00041373592 -0.0005085618
0003e0 cf 05 13 bb c4 e6 3c ba fe 0c e0 ba 0f a0 21 bb
       -0.0022433882 -0.00072060176 -0.0017093716 -0.0024662053
0003f0 2f 63 ea ba 4f c8 19 3a 32 21 97 ba 20 e1 d6 3a
       -0.0017882342 0.0005866335 -0.0011530279 0.0016393997

classifier.weight f4 [2, 64]
000000 32 55 2c 3d 40 f4 ff 3a c6 34 ca 3d 8d 8a 4c 3c
       0.042073436 0.0019527748 0.09873347 0.012484205
000010 63 96 85 be 00 b4 ed 3d fe f7 a1 3d 12 ea cd 3c
       -0.26091298 0.11606598 0.07908629 0.025136027
000020 13 82 46 3d 6d 63 4b bd e0 8e 91 3d 06 67 c1 bd
       0.048463892 -0.049655367 0.07107329 -0.09443478
000030 48 88 81 3d c8 5b 8e bc 2a 50 49 be 63 21 c9 3d
       0.06324822 -0.01737775 -0.19659486 0.09820821
000040 ab 00 61 3d 48 a4 1d bd 16 a0 a0 3d 9d 68 ab 3b
       0.054932278 -0.03848675 0.07843034 0.0052309767
000050 b1 71 96 3d b3 e9 1b 3d 7f 2a 67 3d 1a 77 b9 3d
       0.07345904 0.03806467 0.05643701 0.0905592
000060 bb df 61 3c c0 dd 2e bd 08 e4 38 bb 5f 53 9a 3d
       0.013786252 -0.042691946 -0.002821209 0.07535433
000070 ce 8e 7f 3d 4c ae cb ba ec b2 c5 bc 2f 1d 20 bd
       0.06239205 -0.0015539615 -0.024133168 -0.03909033
000080 89 f8 99 3d b9 f1 06 3d 5f a4 48 3d 4b d0 17 bc
       0.075181074 0.03294537 0.04898488 -0.0092659695
000090 07 ae 55 3d e9 31 c9 3d a4 26 6b 3c ee 8c 81 3c
       0.05216792 0.09823973 0.014352474 0.01581427
0000a0 d2 78 a1 3b 81 a6 62 bd 86 f0 97 3d 24 b0 e7 bd
       0.004927733 -0.05533457 0.07418923 -0.11312893
0000b0 14 f5 92 3d 4c 77 a1 3d 51 b5 bc 3d a5 03 a2 3b
       0.07175651 0.07884082 0.09214271 0.004944282
0000c0 f0 42 34 3d 09 7e 07 bd 8b 6d c1 3d ee 30 16 3d
       0.04400915 -0.03307918 0.09444722 0.036667757
0000d0 b3 47 2e be 57 95 4b bd 6d 58 50 3e 59 a9 3e 3d
       -0.17019539 -0.04970297 0.20346232 0.04654822
0000e0 a9 e7 6a bd 3b f8 33 3e 93 fb 2e 3d 07 d2 cf 3c
       -0.057349835 0.17575161 0.04272039 0.025368704
0000f0 20 a2 a9 3d c5 8c 18 3d a6 73 ee 3d fb 32 1d 3e
       0.08282876 0.037243623 0.11643152 0.15351479
000100 f8 8e 27 be 29 2d 6e 3c 19 d8 d1 bd 71 cb 37 3d
       -0.16363132 0.014537134 -0.102462955 0.04487175
000110 bd 13 8d 3e 2a 97 2b bd 4f b1 72 3d 0e 09 29 be
       0.27554122 -0.04189221 0.059251126 -0.1650736
000120 66 d0 34 3d b9 86 06 be ff ee d6 bb 94 0a 1e 3d
       0.044144057 -0.1313733 -0.0065592523 0.038584307
000130 75 a2 22 be ba 0d 1d bd 64 64 4e 3d 92 b4 8a bd
       -0.15882285 -0.03834317 0.05038871 -0.06772722
000140 cb c2 f0 3b 98 1b 07 be e0 ce 84 3d b0 51 8a bc
       0.00734744 -0.1319412 0.06484771 -0.016884655
000150 87 08 18 bd 9e cf 00 be cf a2 a2 bc 7d 1b 47 3d
       -0.037117507 -0.125792 -0.019853024 0.0486102
000160 0e 18 03 be 8b c3 f9 bd 0c b9 c0 bc 96 00 da bd
       -0.12802145 -0.121955 -0.023525737 -0.10644643
000170 d6 b6 04 be 39 e1 87 3c c9 0f 4b bc 04 ff bf bd
       -0.12960371 0.016586887 -0.0123939 -0.09374812
000180 82 bd 84 bd cb 79 f1 bc a9 b3 7b 3c 5a 66 68 3d
       -0.06481458 -0.02947702 0.015362659 0.056738235
000190 79 7f ce bd cd 67 2a bc 3e 92 3f be b8 b6 8d bd
       -0.10082907 -0.010400725 -0.1870813 -0.069196165
0001a0 66 dc 13 bd c2 28 c7 bd a6 42 a0 bc f3 c4 c4 bd
       -0.03609886 -0.09724571 -0.01956303 -0.096078776
0001b0 68 48 eb bd c9 ab 2f be 5d 4c 93 bd 30 6d fc bd
       -0.1148842 -0.17155375 -0.071922995 -0.12325513
0001c0 bc a9 b3 bd 7b 94 6d 3d 1d 18 54 bd a6 c9 e5 bb
       -0.08772609 0.05800293 -0.05178081 -0.0070125638
0001d0 62 65 4f 3e 43 82 02 3b 54 f4 1a bd ca c0 1d bd
       0.20253518 0.0019914068 -0.037830666 -0.038513936
0001e0 d1 29 90 bc 27 3b 8a bd 49 4c ea bd bb 4d 23 bd
       -0.017598065 -0.06749564 -0.114403315 -0.03986905
0001f0 c8 19 f6 bd 9e 42 12 bd bc 96 16 3d 9c 45 e6 3c
       -0.12016636 -0.035708062 0.036764845 0.028109364

classifier.bias f4 [2]
000000 bc cf 2c be c2 cd 14 3e
       -0.1687612 0.14531615
