models/graphsage_baseline_focal_graphsage_model.pt (torch, 256844 bytes, 8 tensors)

conv1.lin_l.weight f4 [128, 182]
0	0xbbdee28b	-0.0068019084
1	0x3c8bf58e	0.017084863
2	0xbd32556c	-0.043538496
3	0xbca00da4	-0.019537754
4	0xbdb1e389	-0.08685977
5	0xbcc771b8	-0.024346218
6	0x3ce2e296	0.027695935
7	0x3c2f89e1	0.010714025
8	0x3bc62e6d	0.006048015
9	0xbba7e5e8	-0.0051238425
10	0x3b42d253	0.0029727414
11	0x3d26d812	0.040733404
12	0x3d390b62	0.04517687
13	0xbdc60340	-0.09668589
14	0xbd779a3a	-0.060449816
15	0xbc80e2ee	-0.015733209
16	0x3c5e0b00	0.013552427
17	0x3cc0534e	0.023477223
18	0x3bdff5b8	0.006834712
19	0xbcdfbce3	-0.027311748
20	0xbd1fc367	-0.03900471
21	0x3ca052a3	0.019570654
22	0x3cbf92d4	0.023385443
23	0x3c69a381	0.014260174
24	0x3cba38d5	0.022732178
25	0x3b6bfc73	0.0036008626
26	0x3c7fd97c	0.015615817
27	0x3ca08352	0.019593868
28	0x3cbfeb5d	0.02342766
29	0x3c68c00a	0.014205942
30	0x3cb9a7b2	0.022662971
31	0x3af07553	0.0018345512
32	0x3c741801	0.014898301
33	0xbbf2fbd1	-0.0074152728
34	0xbc86a2ac	-0.01643499
35	0xbce3a433	-0.027788257
36	0xbc4b6080	-0.012413144
37	0xbcc52167	-0.024063779
38	0xbce6e63a	-0.028185952
39	0x3c35fc29	0.011107483
40	0x3b86e587	0.0041167173
41	0x39bb2ddd	0.0003570159
42	0x3c071bec	0.008246403
43	0xbbe2935e	-0.00691454
44	0x3bfdd683	0.007746519
45	0x3c2deea7	0.010615981
46	0x3c125cf6	0.008933296
47	0x3c019f93	0.007911581
48	0x3c255ef4	0.010093439
49	0x3b30ae8c	0.0026959507
50	0x3c880dd0	0.016608149
51	0x3d8ff615	0.07029358
52	0x3d28da81	0.041224007
53	0x3bfbb464	0.0076814163
54	0x3d6b5a5e	0.057459228
55	0x3af486e6	0.0018655926
56	0x3c4e481d	0.012590435
57	0xbb30f9b6	-0.0027004308
58	0x3cce5126	0.025185179
59	0x3cd7a483	0.026323562
60	0x3cd7d28c	0.026345514
61	0xba2f85a0	-0.0006695632
62	0x3b760b00	0.0037543178
63	0xbb3257d3	-0.0027212992
64	0x3cce61cf	0.025193123
65	0x3cd843ec	0.026399575
66	0x3cd71313	0.026254212
67	0x3ae907d7	0.0017778826
68	0x3ba456a6	0.005015212
69	0xbcbac14c	-0.02279725
70	0xbc406bce	-0.011744453
71	0xbc029aa5	-0.00797144
72	0xbc282196	-0.010261914
73	0x3cc080c3	0.023498898
74	0x3ca92b87	0.020650638
75	0xbc087c65	-0.008330439
76	0x3c5605bd	0.013062892
77	0x3c8bd61a	0.017069865
78	0x3c91111e	0.017708357
79	0x3841d21f	4.6210476e-05
80	0x3c994c6d	0.0187132
81	0x3b8bed50	0.004270233
82	0x3c5a74ea	0.013333539
83	0x3c8ccc40	0.017187238
84	0x3ca2c780	0.01987052
85	0xbc962e90	-0.01833275
86	0xbac77172	-0.0015216304
87	0xbd2e1b18	-0.042506307
88	0x3bae32b6	0.005316104
89	0xba2d6053	-0.00066137797
90	0xbd735a58	-0.05941233
91	0x3c98886f	0.018619744
92	0xbb033a34	-0.0020023705
93	0x3d3930af	0.045212444
94	0x3d12f6ef	0.035880025
95	0xbb2d103b	-0.002640738
96	0x3d2757ef	0.040855344
97	0x3cd5783c	0.026058309
98	0xbc2946f1	-0.010331855
99	0xbcb26eef	-0.021781413
100	0xbc296d6f	-0.010341032
101	0x3cd4da58	0.02598302
102	0xbc56659b	-0.013085748
103	0xbd2185c4	-0.03943421
104	0xbd483074	-0.048874334
105	0x3d32df94	0.043670252
106	0xbb3d0784	-0.002884359
107	0xbd070cf9	-0.032971356
108	0x3cf0a6cb	0.029376408
109	0xbc86f8ac	-0.016475998
110	0xbd1d116e	-0.0383467
111	0xbcff0058	-0.031128094
112	0xbbeee233	-0.0072901486
113	0x3baa15d9	0.0051905927
114	0xbcd52090	-0.026016504
115	0x3c2986df	0.010347097
116	0xbc30896c	-0.010774951
117	0x3c812d90	0.015768796
118	0x3d08805b	0.033325534
119	0x3cf5f156	0.030022305
120	0x3c3c53f1	0.011494623
121	0x3c98b911	0.018642934
122	0x3cb84bcd	0.022497082
123	0x3ccd6d22	0.025076453
124	0x3d180904	0.037117973
125	0x3c6761bd	0.014122424
126	0x3cad44ba	0.021150935
127	0xbc1b2404	-0.009469036
128	0xbc884686	-0.01663519
129	0x3d8eedb7	0.06978934
130	0x3cb7ef4b	0.022452971
131	0x3c3aa44d	0.011391711
132	0x3ce0a86c	0.02742406
133	0xbc1e5ff8	-0.009666435
134	0xbc7916a9	-0.0152031565
135	0xbc27ea34	-0.0102487095
136	0xbbe13af1	-0.0068734814
137	0x3b4de274	0.0031415494
138	0xbc712d10	-0.014720216
139	0x3d3c6b64	0.046000853
140	0x3d583d2e	0.05279272
141	0xbc1fcee3	-0.0097539155
142	0xbc27e086	-0.010246402
143	0x3d02427d	0.03180169
144	0x3cfb0bea	0.03064533
145	0xbd4abcd7	-0.049496498
146	0xbd5ca3f6	-0.053867303
147	0xbc82d868	-0.015972331
148	0x3c98c8ba	0.018650401
149	0xbd8425d9	-0.06452531
150	0x3ca52039	0.020156967
151	0x3c76e23c	0.015068587
152	0x3c6ab177	0.0143245375
153	0xbba08510	-0.004898675
154	0x3c50db26	0.012747562
155	0xbb10602f	-0.0022029986
156	0x3ce6ecad	0.028189028
157	0x3c22c382	0.009934308
158	0x3bd03122	0.0063535133
159	0xbc9ae291	-0.018906863
160	0x3c9f63ea	0.019456822
161	0x3d1d4263	0.03839339
162	0x3d172ea7	0.036909726
163	0x3c4a20bb	0.012336905
164	0x3ce8aad9	0.028401779
165	0xbcdac99d	-0.026707465
166	0xbc072918	-0.008249544
167	0x3b30b87b	0.0026965428
168	0x3c982f64	0.018577285
169	0xbc5ef7f5	-0.013608922
170	0xbce01c35	-0.0273572
171	0x3be1bf52	0.0068892622
172	0xbc0ff8a8	-0.008787312
173	0xbb9d8d6d	-0.004808119
174	0x3c2e4685	0.01063693
175	0x3b27eb1b	0.0025622312
176	0xbb51e1e2	-0.0032025506
177	0xbc84a393	-0.01619128
178	0x3c6725fe	0.014108179
179	0x3c00f29f	0.007870345
180	0xba61e7d1	-0.0008617612
181	0x3ba2a02c	0.0049629416
182	0xbc20ce8d	-0.009814871
183	0x3bfcd93a	0.007716325
184	0x3d54fe1c	0.05200015
185	0x396b6782	0.00022449906
186	0x3c8f968d	0.017527843
187	0xbbf8aec3	-0.0075891926
188	0x3c40d52e	0.011769576
189	0xbc979e57	-0.01850812
190	0xbc68f031	-0.014217422
191	0xbb74e379	-0.003736703
192	0xbc998f31	-0.018745037
193	0xbc479cc0	-0.012183368
194	0x3cc2ab98	0.023763463
195	0x3c8f2274	0.017472483
196	0xbd6a2d74	-0.057172254
197	0x3b939027	0.0045032683
198	0xbc2c4d6d	-0.010516507
199	0xbb154dd6	-0.002278199
200	0xba828c2c	-0.0009959987
201	0xbd37135f	-0.044696208
202	0xbd398d93	-0.04530103
203	0x3b5889aa	0.0033041039
204	0x3b74db7f	0.0037362275
205	0x3b3ac215	0.002849703
206	0x3b74852f	0.003731083
207	0xbb52d822	-0.0032172282
208	0xbc9b88ce	-0.018986132
209	0x3b539081	0.0032282176
210	0x3b7649a6	0.003758052
211	0x3b3b409c	0.0028572446
212	0x3b73c51b	0.0037196341
213	0xbb40a96b	-0.0029397856
214	0xbc966e4a	-0.018363137
215	0xbb842657	-0.004032891
216	0xbc492cb2	-0.012278723
217	0xbcc443cf	-0.023958115
218	0xbc007168	-0.007839538
219	0xbc96f11c	-0.018425517
220	0xbc30e0d9	-0.010795795
221	0x3b7a52a5	0.0038196233
222	0x3c435b30	0.011923596
223	0x3c613208	0.013744839
224	0x3c0618ff	0.0081846705
225	0x390ed8f9	0.00013623004
226	0xbcd2f1e8	-0.025750116
227	0x3af3d348	0.0018602395
228	0x3bd5ef57	0.0065287757
229	0x3c254903	0.010088208
230	0x3b8af995	0.0042411783
231	0xbb9ee32c	-0.0048488583
232	0xbce9100c	-0.028450035
233	0xbcb65581	-0.022257568
234	0x3d4a48db	0.049385887
235	0x3d4bab9b	0.049724203
236	0x3b91bc20	0.004447475
237	0x3c61694b	0.013758014
238	0x3d0888e3	0.03333367
239	0x3cd91c69	0.026502805
240	0x3c5d3d71	0.013503418
241	0x3c375c9f	0.011191516
242	0x3c712174	0.0147174485
243	0x3c9b457c	0.018954031
244	0x3c9b00c4	0.018921264
245	0x3cdb881c	0.0267983
246	0x3c609d8a	0.013709435
247	0x3c383dd2	0.011245208
248	0x3c7075e1	0.014676542
249	0x3c986ca6	0.018606495
250	0x3c8d9206	0.017281543
251	0x3c9f4178	0.019440398
252	0xbc17896d	-0.009249073
253	0xbc158867	-0.009126759
254	0xbbee998f	-0.007281489
255	0xbca1f10a	-0.019768257

conv1.lin_l.bias f4 [128]
0	0xbccb8905	-0.02484561
1	0x3c4b1777	0.012395731
2	0x3ba431be	0.0050108125
3	0xbc70016b	-0.014648776
4	0x3d30a3d8	0.043125004
5	0xbcd06f74	-0.02544377
6	0x3c7d648d	0.015465868
7	0xbc842405	-0.016130457
8	0xbd8e0927	-0.069353394
9	0xbd31a35a	-0.043368675
10	0xbc9e50c1	-0.019325616
11	0xbd709adc	-0.058741435
12	0x3ca3728d	0.019952083
13	0x3cc2af6d	0.02376529
14	0xbc1efe67	-0.009704209
15	0x3a0df6fd	0.0005415527
16	0xbd23021c	-0.039796934
17	0xbaa62996	-0.0012677188
18	0xbd1d1069	-0.038345728
19	0xbd0b26db	-0.033972602
20	0xba3724c5	-0.0006986375
21	0xbddae6fa	-0.106885865
22	0xbd7298e8	-0.059227854
23	0x3b86882b	0.004105588
24	0xbc241341	-0.010014356
25	0xbc4c7a96	-0.012480399
26	0xbcb5f8a3	-0.022213286
27	0xbd8f958e	-0.07010947
28	0xbc18aaf3	-0.009318101
29	0xbd0a4caf	-0.033764537
30	0xbbb35061	-0.0054722284
31	0xbd1c51d1	-0.038163964
32	0xbd8ce599	-0.0687973
33	0xbc194fdf	-0.009357422
34	0xbb906e48	-0.004407678
35	0xbd36a5fa	-0.04459188
36	0xbcb1cc1c	-0.021703772
37	0xbd11519e	-0.035478227
38	0xbd7eba50	-0.0621894
39	0xbd45e5f7	-0.048315015
40	0xbb5fb579	-0.0034135266
41	0xbdaa300c	-0.083099455
42	0xbc8d40b5	-0.017242769
43	0x3c9d3a9d	0.019192988
44	0xbc571a05	-0.013128762
45	0xbc15b616	-0.009137651
46	0xbd10b1ad	-0.035325695
47	0xbc96df8f	-0.018417148
48	0xbb164b88	-0.0022933204
49	0xbd0ea87c	-0.034828648
50	0x3cafeb89	0.021474617
51	0xbd507ed0	-0.050902188
52	0xbb1a9ac9	-0.0023590794
53	0xba23de31	-0.00062510656
54	0xbc772e4a	-0.01508672
55	0xbd1db271	-0.038500253
56	0xbcb8287a	-0.022480238
57	0xbc4e11cd	-0.012577486
58	0xbc1974a6	-0.00936619
59	0xbc5ba9ba	-0.013407165
60	0xba0064ec	-0.0004897851
61	0xbc6e1ff2	-0.014533984
62	0xbcac92ca	-0.021066088
63	0xbc11e47f	-0.008904575
64	0xbd2aad66	-0.041669272
65	0xbd3d0273	-0.046144914
66	0xbc81596a	-0.015789706
67	0xbc3af42f	-0.011410757
68	0xbd0227c1	-0.031776194
69	0xbcd20617	-0.02563767
70	0x3ba1a6aa	0.004933198
71	0x3c817e4f	0.015807299
72	0xbd0b74b9	-0.034046862
73	0xbce2f2c8	-0.027703658
74	0xbd92d5dc	-0.07169697
75	0xbc038465	-0.008027171
76	0x3ca7a875	0.020466069
77	0xbd023cc8	-0.031796247
78	0xbc68c543	-0.014207187
79	0xbc3ee8ef	-0.011652215
80	0xbd02a5d7	-0.03189644
81	0x3c46c2ce	0.012131406
82	0xbbb84991	-0.005624004
83	0xbb13ce7c	-0.0022553494
84	0x3d23f303	0.040026676
85	0xbc9450b1	-0.018104883
86	0x3ce59518	0.028025195
87	0xbd6cb9a3	-0.057794224
88	0xbd36f3ff	-0.044666287
89	0xbc2e6c2c	-0.010645907
90	0x3bcab156	0.006185691
91	0xbd363914	-0.044488028
92	0xbc942aa9	-0.018086748
93	0xbd41e6a0	-0.04733908
94	0x3c235d4c	0.009970974
95	0xbd7b7737	-0.06139299
96	0xbd3ddd43	-0.04635359
97	0x3c34521a	0.011005903
98	0xbbfdae14	-0.007741699
99	0xbcda9ed0	-0.026687056
100	0xbd6d20be	-0.057892554
101	0xb89bb91e	-7.425457e-05
102	0xbdca8667	-0.098889165
103	0xbd9a38da	-0.07530375
104	0x3cd45fb2	0.025924537
105	0x3be62d6f	0.007024459
106	0xbcd74578	-0.026278242
107	0xbc79883d	-0.015230236
108	0xbc55daab	-0.013052623
109	0xbd4435f0	-0.047903
110	0xbdd8218f	-0.10553276
111	0xbbff42c5	-0.007789942
112	0xbc7238f5	-0.014784087
113	0xbbbc7d19	-0.0057522175
114	0xbcf8230c	-0.03029015
115	0xbcc78970	-0.024357527
116	0x3c8c2ebc	0.017112128
117	0x3af697f2	0.0018813594
118	0xbc8c898d	-0.017155433
119	0xbbca6509	-0.006176595
120	0xbd12e1ab	-0.035859745
121	0xbe2c5fb6	-0.16833386
122	0x3c237089	0.009975561
123	0xbc0d85b3	-0.008637833
124	0x3ca066d4	0.019580282
125	0xbd23d61d	-0.039999116
126	0xbb135769	-0.002248252
127	0x3b844cdf	0.004037484

conv1.lin_r.weight f4 [128, 182]
0	0xbc80551f	-0.015665589
1	0x3ae0e3b7	0.0017157708
2	0xbd88dbd4	-0.06682554
3	0xbc70df37	-0.014701656
4	0xbd797e81	-0.06091166
5	0xbc15805b	-0.009124841
6	0xbd596d2f	-0.05308264
7	0xbc4bffce	-0.012451125
8	0xbc50578b	-0.012716184
9	0x3a268b27	0.0006353133
10	0xbc479e9b	-0.012183811
11	0x3ccca7e5	0.024982402
12	0x3c99aa24	0.018757887
13	0xbb1b1fcc	-0.0023670075
14	0xbd0e226d	-0.0347008
15	0xbc321768	-0.010869838
16	0xbc675203	-0.014118674
17	0xbcd2b66b	-0.02572175
18	0xbcbe7b4f	-0.023252157
19	0x3b26ab8a	0.0025431835
20	0xb9322040	-0.00016987417
21	0x3c4175f4	0.011807907
22	0x3ca4f2f2	0.020135377
23	0x3c9b513b	0.018959632
24	0x3c96c770	0.018405646
25	0x3b888596	0.0041663153
26	0xbc08a4f1	-0.008340106
27	0x3c415184	0.01179922
28	0x3ca665cf	0.020312218
29	0x3c9ac933	0.018894767
30	0x3c96a972	0.018391345
31	0x3b757901	0.0037456157
32	0xbc30cb27	-0.010790623
33	0xbc20155f	-0.00977072
34	0xbbcb48bb	-0.0062037385
35	0x3b96d19b	0.0046026236
36	0xbc05363b	-0.008130605
37	0x3a787c46	0.00094789674
38	0x39479b05	0.00019035868
39	0xbace3a2a	-0.0015733887
40	0x3aa911fa	0.0012899034
41	0x3c2d49a7	0.010576642
42	0x39ac72d5	0.00032891953
43	0x3d35f2ec	0.04442112
44	0x3d17c252	0.037050553
45	0x39d1011b	0.0003986441
46	0x3b8d58ab	0.0043135486
47	0x3c8bb821	0.017055573
48	0x3b3360de	0.002737097
49	0x3c2f3483	0.010693672
50	0x3bb72309	0.0055888933
51	0xbde55813	-0.111984394
52	0xbdcaee2c	-0.09908709
53	0xbc97014e	-0.01843324
54	0xbddbd7ee	-0.10734545
55	0x3c389406	0.01126576
56	0x3ae2678c	0.0017273291
57	0xbc99e55e	-0.018786129
58	0x3c98809b	0.018616011
59	0x3cacf309	0.021111982
60	0x3c8f0c16	0.017461818
61	0xba60c244	-0.00085738697
62	0xbae7d361	-0.0017686897
63	0xbc999c15	-0.018751184
64	0x3c980a9c	0.018559746
65	0x3cac1739	0.021007167
66	0x3c8e60b1	0.01738009
67	0xbba58c50	-0.005052127
68	0xbbc66b60	-0.0060552806
69	0x3d110bde	0.035411708
70	0xbc820a22	-0.015873972
71	0xbcc452f2	-0.023965333
72	0xbca12a08	-0.019673362
73	0x3c43a308	0.011940725
74	0x3c27ac5c	0.010233965
75	0x3ca03d08	0.019560352
76	0xbac0d7d6	-0.0014712762
77	0xbb6caef3	-0.003611502
78	0xba638dee	-0.0008680512
79	0xbcea95d8	-0.028635904
80	0xbd138d56	-0.03602346
81	0xbcfadde4	-0.030623384
82	0xbb30a2db	-0.0026952538
83	0xba9e82d5	-0.0012093434
84	0xbbca0261	-0.0061648344
85	0x3c0cf371	0.008602963
86	0x37c0633d	2.2934395e-05
87	0x3c3046b8	0.010759048
88	0xbcde424c	-0.027131222
89	0xbd39c2bb	-0.045351725
90	0xbc6a0b01	-0.01428485
91	0x3d00d76d	0.031455446
92	0x3d062b9f	0.032756444
93	0xbcf5f7f4	-0.03002546
94	0xbd085220	-0.033281446
95	0xbc9ff874	-0.019527651
96	0xbce9ce84	-0.028540857
97	0xbcd5f120	-0.026115954
98	0xbcb704f6	-0.022341233
99	0xbcc09d5a	-0.023512531
100	0xbc88a300	-0.016679287
101	0x3d4e03e0	0.050296664
102	0xbca28a19	-0.01984124
103	0xbd2ba792	-0.041907854
104	0xbd3f56c7	-0.046713617
105	0xbc15ba7d	-0.009138701
106	0xbc158e99	-0.009128236
107	0xbbdf55fd	-0.0068156705
108	0xbc235168	-0.009968139
109	0x3c36c928	0.011156358
110	0x3c334674	0.01094209
111	0x3cd1029f	0.025513945
112	0xbd98766f	-0.074444644
113	0xbdab66c4	-0.0836921
114	0xbbee984c	-0.007281339
115	0xbc3c7419	-0.011502289
116	0xbc29dd06	-0.0103676375
117	0x3c6feb4c	0.0146435015
118	0xbc9e32c3	-0.019311314
119	0xbc7a3150	-0.015270546
120	0x3c2e7e80	0.010650277
121	0xbb5a7b0c	-0.0033337502
122	0x3ba82229	0.0051310253
123	0xbb96f87c	-0.0046072584
124	0x3a06ce5b	0.00051424437
125	0x3c076fa6	0.008266365
126	0xbade715f	-0.0016971043
127	0xbc7d645d	-0.015465823
128	0xbc93ac53	-0.018026507
129	0xbc9a1bd6	-0.018812101
130	0xbc01100d	-0.007877362
131	0xbc1002f4	-0.008789767
132	0xbc84c598	-0.016207501
133	0xbc3e7ebf	-0.011626898
134	0xbb922125	-0.0044595175
135	0xbcb6aa6a	-0.022298057
136	0xbc841a4c	-0.01612582
137	0x3c3f453d	0.011674223
138	0xbc6c608b	-0.0144273145
139	0xbcae4c22	-0.021276537
140	0xbc9f7038	-0.01946269
141	0x3cfeb7b8	0.031093463
142	0xbad009b8	-0.0015872037
143	0x3cb8f495	0.022577563
144	0x3d39038f	0.04516941
145	0xbce131d5	-0.027489582
146	0xbd0c85b2	-0.03430719
147	0x3de9ebe2	0.11421944
148	0xbc8d19f2	-0.017224286
149	0xbd9d46ad	-0.07679496
150	0x3d8ca225	0.06866864
151	0xbc268d2e	-0.010165496
152	0xbbcc25d1	-0.006230094
153	0xbc944b34	-0.018102266
154	0xbd0a91e1	-0.033830527
155	0xbcf83888	-0.030300394
156	0xbd380f65	-0.044936556
157	0x393ae2dd	0.00017822855
158	0xbbb78240	-0.005600244
159	0xbd72701b	-0.059188943
160	0xbc472d13	-0.012156743
161	0xbc71346e	-0.014721973
162	0xbd43ead0	-0.047831357
163	0xbc3674a2	-0.011136206
164	0xbbbcc21a	-0.0057604434
165	0xbc463297	-0.0120970225
166	0xbda3bb4d	-0.07994709
167	0xbc7d1e98	-0.015449189
168	0xbca86657	-0.020556612
169	0xbd4cdff8	-0.05001828
170	0xbc5dd615	-0.013539811
171	0xbd0b855a	-0.03406272
172	0xbc45efbd	-0.012081084
173	0xbc4c21cd	-0.012459231
174	0xbc4182ff	-0.011811017
175	0xbc3c24c3	-0.011483374
176	0xbc7c28fb	-0.01539063
177	0xbc337a92	-0.010954516
178	0xbc61d829	-0.013784447
179	0xbcbb8a03	-0.022892958
180	0xbc4cd353	-0.0125015555
181	0xbc7c4422	-0.0153971035
182	0x3c78131a	0.015141273
183	0xbd6731ad	-0.05644386
184	0x3db3dfc2	0.08782913
185	0xbccfd7d0	-0.025371462
186	0xbad6c286	-0.0016384877
187	0xbcfb4618	-0.030673072
188	0x3cf70307	0.03015281
189	0x3bbdf037	0.005796458
190	0x3c827086	0.015922796
191	0x3ca9c2e0	0.020722806
192	0x3c1fa088	0.0097428635
193	0xbbfa0b33	-0.0076307296
194	0x3b8e8314	0.004349122
195	0xbacfe606	-0.0015861399
196	0x3acbbb89	0.0015543561
197	0x3c8eb5a6	0.017420601
198	0x3c765767	0.015035487
199	0x3a1fdb15	0.00060980144
200	0x3c1b2b18	0.009470724
201	0x3cf4d5c1	0.029887082
202	0x3c79f99b	0.0152572645
203	0x3c2898e9	0.010290363
204	0x3bf01c95	0.007327626
205	0x3a92ea4b	0.0011208741
206	0x3c1ab5f9	0.0094428
207	0x3bc938f8	0.0061408244
208	0x3bf6320d	0.0075132907
209	0x3c28d014	0.010303516
210	0x3beff995	0.0073234537
211	0x3a95c1ed	0.0011425592
212	0x3c1a7a57	0.009428582
213	0x3bf3b6a1	0.0074375425
214	0x3c188412	0.009308832
215	0xbba60a44	-0.0050671417
216	0x3b386d46	0.0028141304
217	0x3c967f52	0.018371258
218	0xba370399	-0.0006981432
219	0xbd0af43e	-0.033924334
220	0xbd0dfb92	-0.034663744
221	0x3ca048d3	0.019565975
222	0x3cac01ab	0.02099689
223	0x3c0b96c1	0.008519829
224	0x3cb26164	0.021774955
225	0xbc5f3425	-0.013623272
226	0xbc674cdc	-0.014117446
227	0x3c8c7b23	0.01714856
228	0x3c974a35	0.018468002
229	0x3b9dad77	0.0048119384
230	0x3c97dab1	0.018536897
231	0xbbae7c2b	-0.0053248606
232	0xbbabab20	-0.0052389055
233	0x3cb7e1d2	0.022446547
234	0x3cceabdb	0.025228431
235	0xbc8b1045	-0.016975531
236	0x3c5f568e	0.013631476
237	0x3c32211f	0.0108721545
238	0x3c996210	0.018723518
239	0x3b97a6a4	0.0046280194
240	0x3c086733	0.008325386
241	0x3be537cf	0.0069951783
242	0x3beae8b7	0.007168855
243	0xbc0c0256	-0.008545479
244	0xbb6d6021	-0.0036220627
245	0x3b970b22	0.0046094814
246	0x3c0928a8	0.00837151
247	0x3bd7fa13	0.0065910905
248	0x3beb5f43	0.007182987
249	0xbc44d27f	-0.012013077
250	0xbbdd7ffe	-0.0067596426
251	0xbce8d2f1	-0.028420897
252	0xbb5a33ca	-0.003329503
253	0x3b43557c	0.0029805591
254	0x3bbc745a	0.005751175
255	0x3cf958c8	0.030437842

conv2.lin_l.weight f4 [64, 128]
0	0x3b7724b7	0.0037711093
1	0xbbe58197	-0.0070039737
2	0x3834af9c	4.3078893e-05
3	0xbc80552c	-0.015665613
4	0xbbe70744	-0.0070504267
5	0xbc7c9be4	-0.015418027
6	0xbb7c812c	-0.003852914
7	0xbc49c275	-0.012314429
8	0xbd67171e	-0.05641853
9	0xb9e94101	-0.00044489655
10	0xbb948697	-0.004532646
11	0xbc2f6699	-0.0107056135
12	0xbc71c99b	-0.014757539
13	0xbd123c78	-0.0357022
14	0xbd3318d4	-0.04372485
15	0xbcdb23c9	-0.026750462
16	0xbcc00c1b	-0.023443272
17	0xbc49e5f4	-0.0123228915
18	0xbbc1c750	-0.0059136525
19	0xbc0be03b	-0.008537347
20	0xbcdf1640	-0.02723229
21	0x3a1cf60f	0.00059875933
22	0xbc141904	-0.009039167
23	0xbc28acc7	-0.0102951
24	0xbd376804	-0.04477693
25	0xbd05d27d	-0.03267144
26	0xbc795bc9	-0.015219637
27	0x3b16fec3	0.0023040033
28	0xbc70e477	-0.014702908
29	0xb8e08dba	-0.00010707551
30	0xbc1c9c39	-0.009558731
31	0xbb8ca355	-0.0042919316
32	0xbb2c1dcd	-0.002626288
33	0xbd39e5e6	-0.045385264
34	0xbc7dc091	-0.015487806
35	0x3aed04e1	0.0018083119
36	0x3ba3d556	0.004999797
37	0x39b31896	0.00034159858
38	0xbb0c43b6	-0.0021402664
39	0xbcd5970f	-0.026073007
40	0xba25e75b	-0.0006328725
41	0x3bf55c65	0.007487821
42	0xbc1ad38c	-0.009449851
43	0xbcbd79b7	-0.023129327
44	0x3be77d6c	0.007064512
45	0xbb1eaa2c	-0.0024210317
46	0xbd107d3f	-0.035275694
47	0xbc4677e4	-0.012113545
48	0xbc1bb3ca	-0.009503314
49	0x3c68b14f	0.01420243
50	0xbb10c654	-0.002209087
51	0xbd2df446	-0.042469285
52	0xbd20ac13	-0.039226603
53	0x3bb6d6d5	0.005579809
54	0xbcaa844b	-0.020815035
55	0xbc7b3a14	-0.015333671
56	0xbce4273d	-0.027850742
57	0xba5e0607	-0.0008469526
58	0x3bc45ab1	0.0059922566
59	0xbb9f9196	-0.00486965
60	0xbb8dbd8c	-0.0043255743
61	0xbd2493d7	-0.040180054
62	0xbd429a4d	-0.047510434
63	0xbb9f11f5	-0.0048544356
64	0x3b8fed51	0.004392304
65	0xbbfb2c27	-0.0076651755
66	0xbc3750f0	-0.011188731
67	0xbc83b098	-0.016075417
68	0xbc6773d1	-0.014126734
69	0xbd866262	-0.06561734
70	0xbd0b40c7	-0.033997323
71	0x3a6df75e	0.0009077693
72	0xbd993770	-0.07481277
73	0xbd0def5e	-0.034652106
74	0xbd17c01e	-0.03704845
75	0x3b95d9d7	0.0045730877
76	0xbc722490	-0.014779225
77	0x3b0a934c	0.0021144925
78	0x3be9400a	0.0071182298
79	0x3b845c19	0.004039299
80	0xbb602562	-0.003420197
81	0xbc0d672c	-0.008630555
82	0xbb2fe479	-0.0026839061
83	0xbc0c9379	-0.008580082
84	0xbccbef3c	-0.02489435
85	0xbbd8b7dd	-0.006613715
86	0xbc8d552c	-0.017252527
87	0xbb702a25	-0.0036646214
88	0xbc18e8f5	-0.009332885
89	0xbc51109f	-0.01276031
90	0xbc92d588	-0.017924085
91	0xbd17dd3d	-0.037076224
92	0xbc5ce8fa	-0.01348328
93	0xbc4b864f	-0.012422158
94	0xbbcb1d0f	-0.0061985324
95	0xbd2b8f85	-0.041884918
96	0xbc3b42cb	-0.011429499
97	0x3ae6faa5	0.0017622305
98	0xbad84498	-0.0016499935
99	0xbdb5a959	-0.08870191
100	0xbc4ab2b1	-0.012371705
101	0xbc965a77	-0.018353684
102	0x386787a7	5.5201028e-05
103	0xbd364afd	-0.04450511
104	0xbd5bccfc	-0.053662285
105	0xbb81a5a0	-0.0039565116
106	0xbc0d8c0b	-0.008639346
107	0xbb13f09a	-0.002257383
108	0xbce98336	-0.028504949
109	0xbb0d2cc9	-0.0021541587
110	0x3bc732e6	0.0060790656
111	0xba6081f2	-0.0008564285
112	0xbc5aab11	-0.0133464495
113	0x3c89d188	0.016823545
114	0xbd252a88	-0.040323764
115	0x3ba83ffd	0.005134581
116	0xbd1d22ef	-0.038363393
117	0xbdae7ec1	-0.0852027
118	0xbca046bd	-0.01956498
119	0xbd11e423	-0.03561796
120	0x3aec9e90	0.0018052626
121	0xbd213361	-0.03935564
122	0xbd2f5bb3	-0.04281206
123	0xbc5c7d1f	-0.013457566
124	0xbb217157	-0.0024634206
125	0x3c65a234	0.014015723
126	0xbbf9d95f	-0.0076247896
127	0xbc9568cb	-0.018238446
128	0xbcc7f61d	-0.024409348
129	0xbad3a9c1	-0.0016148613
130	0xbc3aa950	-0.011392906
131	0xbd154d97	-0.03645095
132	0xba21d055	-0.00061727065
133	0x3bb9fa36	0.0056755794
134	0xb9ed4f43	-0.00045263217
135	0xba1ea07a	-0.00060511346
136	0xbd0241cb	-0.031801026
137	0xba8f6705	-0.0010940736
138	0xbb2d5666	-0.0026449203
139	0xbd1c5507	-0.038167026
140	0x3ba0e117	0.0049096453
141	0xbc68bfc5	-0.014205878
142	0xbb4aed2a	-0.0030964115
143	0xbcb13401	-0.021631243
144	0xbbd6db93	-0.006556937
145	0xbb7137c7	-0.0036806928
146	0x3aecf4dd	0.0018078346
147	0xbc17514f	-0.009235694
148	0xb7abaaec	-2.046438e-05
149	0xbb57256a	-0.0032828697
150	0xb9630c88	-0.00021653075
151	0xbce88a4b	-0.028386256
152	0xbce05aa2	-0.027386967
153	0xbbcd049f	-0.0062566544
154	0xbbf66b71	-0.007520132
155	0x3a201548	0.0006106687
156	0xbc971844	-0.018444188
157	0xb95628a2	-0.00020423767
158	0xba7faea0	-0.0009753499
159	0xbbdd013b	-0.0067445314
160	0xbb9dcb58	-0.0048155
161	0xbc830a7d	-0.015996212
162	0xbc9230ce	-0.017845538
163	0xbb27e5f0	-0.0025619231
164	0xbc5c6202	-0.013451101
165	0xbb346d97	-0.002753114
166	0x3a1429f0	0.0005652001
167	0xbd36d86c	-0.04463999
168	0xb923f11f	-0.00015634716
169	0xbc3c57fb	-0.011495586
170	0x3ba2a0af	0.0049630026
171	0xbca2cf1c	-0.019874148
172	0xbc13c1f5	-0.009018411
173	0xbb83ac77	-0.004018362
174	0xbc872521	-0.016497197
175	0xbc7a5edd	-0.015281406
176	0xb9c6b3cc	-0.00037899462
177	0x3bce50e8	0.006296266
178	0xbce3d010	-0.027809173
179	0xbb76073a	-0.0037540928
180	0x3ac607fc	0.0015108581
181	0xb91ef55d	-0.00015159459
182	0xbc97133f	-0.018441794
183	0x3c4162ce	0.011803342
184	0xbccc9275	-0.02497218
185	0x39001bcd	0.00012217388
186	0xbbe8372a	-0.007086654
187	0xbc18e0c1	-0.009330929
188	0x399abf3e	0.00029515655
189	0xb9cbf1a7	-0.00038899222
190	0xbca2e48c	-0.01988437
191	0xbb17ea4a	-0.0023180419
192	0xbca84d8c	-0.02054479
193	0xbbdb6a87	-0.0066960487
194	0xbbbe9467	-0.005816031
195	0xbb91ab02	-0.0044454345
196	0xbd584902	-0.052804
197	0xbca67946	-0.0203215
198	0xbb880ba8	-0.00415178
199	0xbc174821	-0.009233505
200	0xbd449364	-0.047992125
201	0xbc899473	-0.016794419
202	0xbb26e611	-0.002546672
203	0xbc848e4e	-0.016181137
204	0xbce8b069	-0.028404431
205	0xbb754eca	-0.0037430995
206	0xba5991c5	-0.00082996144
207	0xbccabf9c	-0.02474957
208	0xbca3d0e2	-0.019997064
209	0xbc74a3ee	-0.014931662
210	0xbd0c0d3a	-0.0341923
211	0xbc90c5f0	-0.017672509
212	0xbd18d36c	-0.037311003
213	0xb8a0c6dd	-7.666436e-05
214	0x3b9728b4	0.0046130065
215	0x399babf3	0.00029692016
216	0xbc66dd8b	-0.014090906
217	0xbb0e5e36	-0.0021723635
218	0xbd3709e3	-0.044687163
219	0xbc539a4e	-0.012915207
220	0xbc2b16f6	-0.010442486
221	0x3be72325	0.00705375
222	0xbbe6e8d0	-0.0070467964
223	0xbd120aab	-0.035654705
224	0xbc25b3f7	-0.010113708
225	0x3b854f49	0.0040682894
226	0xbc27f47f	-0.0102511635
227	0xbcddca76	-0.02707408
228	0xbb423504	-0.002963365
229	0xbd0ad9ea	-0.033899225
230	0xbbd05c9b	-0.0063586957
231	0x3a9c4cc0	0.0011924729
232	0xbb843fe3	-0.004035936
233	0xbcbd16a0	-0.023082078
234	0xbad9af36	-0.0016608003
235	0xb9c04130	-0.00036669662
236	0xba5b7933	-0.0008372247
237	0xbbde2650	-0.0067794695
238	0x398e7713	0.00027173068
239	0x3a0da191	0.00054027984
240	0xbb54310b	-0.0032377865
241	0xbc14dcba	-0.009085828
242	0xbd60cc7f	-0.054882523
243	0xbb84daba	-0.0040543946
244	0xbc02b31c	-0.007977273
245	0xbba97d33	-0.0051723956
246	0xbb32548c	-0.0027211038
247	0x3b641ab8	0.0034805965
248	0x3bacd932	0.005274915
249	0xbbacbbcb	-0.00527141
250	0x3b59fa73	0.0033260852
251	0xbd036daa	-0.032087006
252	0xba000529	-0.00048835814
253	0xbd24809a	-0.040161707
254	0xbc031199	-0.007999801
255	0xbd02637b	-0.031833153

conv2.lin_l.bias f4 [64]
0	0xbcc75c44	-0.024335988
1	0xbd86f054	-0.06588808
2	0xbd82e4cf	-0.06391298
3	0x3cf77be6	0.030210447
4	0x3c5a3a00	0.013319492
5	0xbc0a9874	-0.008459199
6	0xbd4049e5	-0.04694547
7	0x3ca5e8a6	0.020252537
8	0x3ca0bbdf	0.019620834
9	0xbcd7a0b8	-0.026321754
10	0xbd38fef6	-0.045165025
11	0x3b8622e0	0.004093513
12	0xbcd30600	-0.025759697
13	0xbda4508f	-0.08023178
14	0xba2f0a38	-0.0006677243
15	0x3d199698	0.037497133
16	0xbd33686e	-0.043800764
17	0x3b5a518b	0.0033312764
18	0xbc6a0596	-0.014283558
19	0x3bc9158f	0.006136603
20	0xbdd3c258	-0.103398025
21	0x3d29aed0	0.04142648
22	0xbcccfd25	-0.025023052
23	0xbbb5b375	-0.0055450746
24	0xbc045c80	-0.008078694
25	0xbdc31703	-0.095258735
26	0xbb22037b	-0.0024721313
27	0x3c5006b4	0.012696911
28	0xbc8c793c	-0.017147653
29	0xbbfd9f15	-0.0077399113
30	0x3c97e2be	0.018540736
31	0xbcc93eff	-0.024566172
32	0xbd864646	-0.06556372
33	0xbddb61c1	-0.107120045
34	0x3e412356	0.18861136
35	0x3cde5425	0.027139733
36	0xbcb3ba3e	-0.021939393
37	0x3c931c31	0.017957779
38	0x3e8625c8	0.262007
39	0x3c102b05	0.008799319
40	0x3c6ac382	0.014328839
41	0x3c058914	0.008150358
42	0x3c274f3d	0.010211763
43	0xbd16e2e5	-0.036837477
44	0xbc2844ae	-0.010270281
45	0x3cac1788	0.021007314
46	0xbd3521b6	-0.044221602
47	0xbb8b3bd7	-0.004249077
48	0x3cfb9b5c	0.03071373
49	0x3a86050d	0.0010224894
50	0x37849416	1.5804584e-05
51	0x3d0bd972	0.03414292
52	0xbc20c3a2	-0.0098122675
53	0xbca72ea2	-0.020407978
54	0xbda06362	-0.07831456
55	0x3d303655	0.043020565
56	0xbbfcf497	-0.007719587
57	0xbd62f859	-0.055412624
58	0xbdab6f20	-0.08370805
59	0xbd3f70c6	-0.04673841
60	0x3d1262e8	0.035738856
61	0x3c3e381f	0.01161006
62	0x3b2c286c	0.002626921
63	0x3a3d130a	0.0007212615

conv2.lin_r.weight f4 [64, 128]
0	0xbcad6c12	-0.021169696
1	0x3a6534e9	0.0008743541
2	0x3c822ba3	0.015889948
3	0xbbc2e331	-0.0059474935
4	0xbc86dc9f	-0.016462622
5	0xbd9ab4df	-0.0755403
6	0xb9fa1636	-0.00047700264
7	0xbb1af012	-0.0023641628
8	0xbac84f2c	-0.0015282384
9	0xbc89c7e7	-0.016818954
10	0xbd0ece8c	-0.034864947
11	0xbbbe5630	-0.005808614
12	0xbc243d7c	-0.010024425
13	0xbd31aac6	-0.043375753
14	0xbd3b8bf9	-0.045787785
15	0xbc92039c	-0.017823987
16	0xbbd68ec0	-0.006547779
17	0xbc294a4c	-0.010332655
18	0x3c4f8ea8	0.012668289
19	0xbc9c5c81	-0.019087078
20	0xbce9b426	-0.028528284
21	0x3ba50186	0.005035582
22	0xbaf4bf3d	-0.0018672716
23	0xba1d6fa5	-0.0006005711
24	0xbd9c063f	-0.07618379
25	0xbb8b1544	-0.0042444784
26	0xbd60f1e0	-0.05491817
27	0x3c895a5d	0.016766721
28	0xbd76d137	-0.060258117
29	0xbd682113	-0.056672167
30	0xbda5ba0d	-0.08092127
31	0xbb6f629b	-0.003652728
32	0xbb40979e	-0.0029387246
33	0xbbbe22f3	-0.005802506
34	0x3c967bfa	0.018369664
35	0x397badf7	0.00024002032
36	0xbbbbcd77	-0.0057312804
37	0xbc40e545	-0.011773412
38	0xbc927888	-0.01787974
39	0xbc4e264f	-0.012582376
40	0xbcf53baa	-0.029935677
41	0xbc127899	-0.008939886
42	0xbc84a1a1	-0.016190352
43	0xbbf4b9d4	-0.0074684415
44	0xba6108e6	-0.0008584395
45	0xbb835870	-0.0040083453
46	0x3c2826a2	0.010263117
47	0xbc96c7f9	-0.018405901
48	0xbb97a735	-0.004628087
49	0xbc2a080f	-0.010377898
50	0x3c3048fe	0.01075959
51	0xbd5f5cc8	-0.054531842
52	0xbaa6912d	-0.0012708061
53	0x3c009fe5	0.007850622
54	0xbc0c2399	-0.008553409
55	0xbbe2b1d8	-0.0069181733
56	0xbd177e8e	-0.036985926
57	0xbbb01c41	-0.005374462
58	0xbb9e7a76	-0.004836376
59	0xbc8e28d2	-0.017353449
60	0xbb8c8b01	-0.0042890315
61	0xbc50e339	-0.012749487
62	0xbcc63e38	-0.02419959
63	0xbcea9467	-0.028635217
64	0xbd00ae45	-0.031416196
65	0xbc765499	-0.015034818
66	0xbc212596	-0.009835621
67	0xbd2bb2a5	-0.041918416
68	0x3be442b0	0.0069659576
69	0xbbaca464	-0.0052686203
70	0x3bc8df7a	0.006130156
71	0xbd6a4d3b	-0.05720256
72	0xbc865d05	-0.016401777
73	0xbd1041dc	-0.03521906
74	0xbc6db554	-0.014508564
75	0xbbfc7413	-0.007704267
76	0xbcb3f543	-0.021967536
77	0xbc32ee0e	-0.0109210145
78	0x3b3fa9e6	0.0029245554
79	0xba819891	-0.0009887387
80	0x3b0df31b	0.0021659795
81	0xbd530225	-0.051515717
82	0xbbde3051	-0.006780662
83	0xbc5de08a	-0.013542304
84	0xbd835d84	-0.06414321
85	0xbcd2c283	-0.025727516
86	0xbb333812	-0.0027346653
87	0xbc746480	-0.014916539
88	0xbd3245dd	-0.043523658
89	0xbceb26df	-0.028705059
90	0xbbe8fabd	-0.0071099685
91	0xbbd09776	-0.006365712
92	0xbaf88aa1	-0.0018962213
93	0xbbe7cf5c	-0.0070742797
94	0xbc16a6aa	-0.009195009
95	0xbc794430	-0.015214011
96	0xbce97f21	-0.028503003
97	0xbcc60928	-0.024174288
98	0xba06477c	-0.00051223463
99	0x3c3808e6	0.01123259
100	0xbb1c7625	-0.002387413
101	0xbc0bbf34	-0.008529473
102	0x3ca422d5	0.02003614
103	0x3b244b8f	0.002506945
104	0x3a2e9741	0.0006660112
105	0xbccdfd79	-0.02514528
106	0xbb8dda4b	-0.004329001
107	0xbcbcded6	-0.023055475
108	0xbcb814c1	-0.022470834
109	0xbced7899	-0.02898817
110	0xbd53744b	-0.051624577
111	0x3a629dd0	0.0008644732
112	0xbcf3edad	-0.029776419
113	0xbbc2d189	-0.0059453887
114	0xbc1c7617	-0.009549639
115	0xbd238c34	-0.03992863
116	0xbb9e2284	-0.004825892
117	0xbd9347d5	-0.07191435
118	0x3c219e3c	0.009864386
119	0xbbb0fa60	-0.005400941
120	0xbc37d1b1	-0.011219428
121	0xbbea5682	-0.007151426
122	0xbc9a4d3b	-0.018835654
123	0xbba461c0	-0.0050165355
124	0xbcf3afc9	-0.029746907
125	0xbd08c5bd	-0.033391703
126	0xbc2af96a	-0.0104354415
127	0x3bb2a933	0.005452299
128	0xbcee81a4	-0.029114552
129	0x3b11f338	0.0022270214
130	0xbc3b8c4b	-0.011447023
131	0x3b3d2309	0.0028859994
132	0xbcee1b85	-0.029065857
133	0xbd498527	-0.04919925
134	0x3a0ed6f9	0.00054489035
135	0xbadf6453	-0.0017043449
136	0xbc26cce6	-0.0101806875
137	0xbc237405	-0.009976392
138	0x3c22652a	0.009911815
139	0xbba34316	-0.0049823625
140	0xbcc1c010	-0.023651153
141	0xbd186d68	-0.037213713
142	0xbb92f500	-0.0044847727
143	0xbab54cfb	-0.0013832146
144	0xbb13e9bb	-0.0022569734
145	0xbb204241	-0.0024453553
146	0xbc1bbf9d	-0.009506133
147	0xba5a2cb1	-0.00083226996
148	0x3b3da8a1	0.0028939622
149	0x3a1b5cad	0.00059265905
150	0xbb0f65ec	-0.0021880819
151	0xbd9010a8	-0.07034427
152	0xbb9701b2	-0.0046083564
153	0xbb779040	-0.0037775189
154	0xbb81cc04	-0.003961088
155	0xbc6492f2	-0.01395105
156	0xbc33b563	-0.010968539
157	0xbd1342a1	-0.035952214
158	0xbc14729b	-0.009060527
159	0xbc978b3b	-0.018499007
160	0xbbd29239	-0.0064261225
161	0xbc16bfb4	-0.009200979
162	0xbcab1c70	-0.020887583
163	0xb8d51e93	-0.00010162326
164	0x3bed1cef	0.007236115
165	0xbce1f26c	-0.027581416
166	0xbbb973f8	-0.0056595765
167	0xbcc25fa4	-0.023727246
168	0xbb313661	-0.002704047
169	0xbb3ac3f0	-0.0028498136
170	0x3a0907b7	0.0005227285
171	0xbce46da2	-0.027884308
172	0xbaf76834	-0.001887566
173	0xb9b4e51f	-0.00034502984
174	0xbcf5978b	-0.029979488
175	0xbc52ab60	-0.012858242
176	0xba7617e8	-0.00093877176
177	0xbb5534cf	-0.0032532697
178	0xbc3e97c7	-0.011632866
179	0xbb673885	-0.003528149
180	0xbcc5c255	-0.024140516
181	0xbc6b69c5	-0.014368479
182	0x3b782778	0.0037865322
183	0xbb21d658	-0.002469441
184	0xbc6f1f58	-0.014594875
185	0xbb9e73bc	-0.004835574
186	0x38b92c4c	8.829738e-05
187	0xbc49ce99	-0.012317323
188	0xbbd8e711	-0.006619342
189	0xbb0e7396	-0.0021736375
190	0xbc130153	-0.008972484
191	0xbbdfa6a6	-0.006825286
192	0xbc929298	-0.017892167
193	0xbca68928	-0.020329073
194	0xbc79109a	-0.015201712
195	0xbd32e32b	-0.043673676
196	0xbc56de2f	-0.013114496
197	0xbb1df308	-0.0024101157
198	0xbcef7c37	-0.029234035
199	0xbcd78807	-0.02630998
200	0x3a0bf152	0.0005338389
201	0xbbc872ff	-0.006117224
202	0xbb4c5f9f	-0.0031184924
203	0x3b01517a	0.0019732402
204	0xbc956b61	-0.018239679
205	0xbce15f40	-0.027511239
206	0x3a8289fc	0.0009959335
207	0xbac5cb5e	-0.0015090515
208	0xb8903150	-6.87564e-05
209	0xbd3d4cc7	-0.0462158
210	0xbbc1f8fe	-0.0059195748
211	0xbc681a42	-0.014166417
212	0x3c66c9a5	0.014086162
213	0x3bf6817b	0.0075227595
214	0xbb11bf0f	-0.0022239124
215	0xbb5c8d32	-0.0033653495
216	0x3c56ed13	0.013118046
217	0xbb1247ea	-0.0022320696
218	0xbb1deb09	-0.002409639
219	0xbb51d232	-0.0032016155
220	0xbacaec1f	-0.0015481747
221	0xbc59a792	-0.013284581
222	0xbc6e5abe	-0.014548002
223	0xbcc59809	-0.024120348
224	0xbcc47e8b	-0.023986122
225	0xba321a21	-0.00067940546
226	0xbb10a1e7	-0.0022069158
227	0xbc91f03a	-0.017814744
228	0xba6c46fe	-0.0009013264
229	0xbc565cfd	-0.013083694
230	0xbb5c0046	-0.00335695
231	0xbac32827	-0.0014889286
232	0xbc4170b0	-0.011806652
233	0xbc1011b3	-0.008793282
234	0xbbcc5ccb	-0.0062366477
235	0xba6a1b0b	-0.00089304213
236	0x3c279c1c	0.0102300905
237	0xbcc9287e	-0.024555441
238	0xbb7dc1ab	-0.0038720171
239	0xbc16dd6a	-0.009208063
240	0xbc9175cf	-0.01775637
241	0x3b196f2f	0.0023412218
242	0xbd2b80f6	-0.041871034
243	0xbc527233	-0.01284461
244	0xbbb4b6d6	-0.00551496
245	0xbce63f62	-0.028106395
246	0xbc953c91	-0.018217357
247	0xbc380957	-0.011232696
248	0x398b6a5d	0.00026591393
249	0xbca1f9c6	-0.019772422
250	0xbc2784b9	-0.010224515
251	0xba7f0b54	-0.0009729166
252	0xbca8819b	-0.020569613
253	0xbbcfdc7e	-0.0063434234
254	0xbc10db24	-0.00884131
255	0xbcbd84b9	-0.023134576

classifier.weight f4 [2, 64]
0	0x3d73961a	0.05946932
1	0x3d75b80c	0.059989974
2	0x3d9a3c0d	0.07530985
3	0x3dfdb59a	0.123881534
4	0x3de68931	0.11256636
5	0x3deaeecc	0.11471328
6	0x3d8354d3	0.06412663
7	0x3e760e32	0.24028853
8	0x3df3f687	0.11912256
9	0x3ddef1b5	0.10885946
10	0x3da4a265	0.08038787
11	0x3d4db776	0.05022379
12	0x3d8859b3	0.06657734
13	0x3d0e2e69	0.03471223
14	0x3e117c9f	0.14207695
15	0x3e1c610a	0.15271392
16	0x3d11b4b2	0.035572715
17	0x3ba83537	0.005133297
18	0x3e24472e	0.16042778
19	0x3e462763	0.19350962
20	0xbc170a6b	-0.009218792
21	0x3dad96a2	0.084759966
22	0xbce20cb7	-0.027593954
23	0xbdd2d2a0	-0.1029408
24	0x3e10e754	0.14150745
25	0xbd0966cb	-0.033545297
26	0xbd7ca99a	-0.061685182
27	0x3df88bc1	0.12136031
28	0x3d1daecb	0.038496774
29	0x3d18b0a8	0.037277848
30	0x3e002a7b	0.12516205
31	0x3e14eaea	0.14542738
32	0xbd6b8824	-0.05750288
33	0x3b8e8327	0.0043491307
34	0xbe49f2ec	-0.19721574
35	0x3e2141e7	0.15747796
36	0x3c2d660a	0.01058341
37	0x3d8e237d	0.069403626
38	0xbeb364f9	-0.35037974
39	0x3c8edc56	0.017439049
40	0xbc8ff166	-0.017571162
41	0x3e6df53e	0.23238084
42	0x3e0029f5	0.12516005
43	0x3d387fb6	0.04504367
44	0xbd2a8b81	-0.041636948
45	0x3e1dcaf5	0.15409453
46	0xbd0d7cf4	-0.034542993
47	0x3df2bdbf	0.118525974
48	0x3d555060	0.052078605
49	0x3c5f4db3	0.013629365
50	0x3e21327c	0.15741915
51	0x3d8c2bbd	0.0684428
52	0x3cfbad88	0.030722395
53	0x3d387ecd	0.0450428
54	0x3cc269a7	0.02373202
55	0x3d9524ab	0.072823845
56	0xbcfe6068	-0.03105183
57	0xbdb6de65	-0.08929137
58	0xbd277835	-0.040886123
59	0x3cd2b796	0.025722306
60	0x3dc4b536	0.09604876
61	0x3a6f9d95	0.0009140608
62	0xbd8a1dcb	-0.06743964
63	0x3d8c2a06	0.06843953
64	0x3b2c2863	0.002626919
65	0x3d32a39d	0.043613065
66	0x3cc4c11e	0.024017867
67	0xbda80f78	-0.082060754
68	0xbe1dc857	-0.15408455
69	0x3d71e885	0.05905964
70	0x3db08c45	0.08620504
71	0xbe446330	-0.19178462
72	0x3d75e458	0.06003222
73	0xbd921640	-0.0713315
74	0xba49cc20	-0.00076979585
75	0x3d0e0dee	0.034681253
76	0xbddecc39	-0.10878796
77	0x3c9c093c	0.019047372
78	0x3d2f2d59	0.042767856
79	0xbd683e6a	-0.056700148
80	0xbc7c616c	-0.015404087
81	0xbc407fc5	-0.011749213
82	0xbe54740c	-0.20747393
83	0xbc620613	-0.0137953935
84	0x3cb8482f	0.022495357
85	0xbd90dcde	-0.07073377
86	0x3d0432ba	0.03227494
87	0xbdd1e5dc	-0.1024892
88	0x3d7ab292	0.061205454
89	0x3ca9b66c	0.020716868
90	0xbdde79cd	-0.108630754
91	0x3c1afbca	0.009459445
92	0xbdf5f3ab	-0.120093666
93	0xbe13198e	-0.14365217
94	0xbcd6531f	-0.026162682
95	0xbe05e9ac	-0.1307742
96	0xbd0cce5d	-0.03437649
97	0x3d611868	0.054954916
98	0x3df1a832	0.11799659
99	0x3c61830f	0.013764157
100	0x3d06cfca	0.032913007
101	0xbe8aaa57	-0.27083084
102	0x3e9ea266	0.30983275
103	0xbdaf5b12	-0.08562292
104	0xba0c128d	-0.00053433405
105	0xbe32cee2	-0.17461732
106	0xbdf3cfc7	-0.11904865
107	0xbc9975de	-0.018732961
108	0xbda99b63	-0.08281591
109	0x3d6e1ee3	0.058134925
110	0x3dd24eb5	0.102689184
111	0xbdb5aff6	-0.088714525
112	0xbe4b3299	-0.1984352
113	0xbd958891	-0.073014386
114	0xbe052565	-0.13002546
115	0xbe1998af	-0.1499965
116	0xbc9737f0	-0.01845929
117	0xbd0d5aa9	-0.03451029
118	0x3c107aee	0.008818371
119	0xbd8cafc7	-0.06869464
120	0xbd01ae48	-0.03166035
121	0xbd777275	-0.06041189
122	0xbda5e729	-0.08100731
123	0x3cccbf31	0.02499351
124	0xbdf8b148	-0.12143189
125	0xbe242a06	-0.16031656
126	0xbd588f98	-0.052871317
127	0x3d840e07	0.06447988

classifier.bias f4 [2]
0	0xbe913da3	-0.28367338
1	0x3dfcb47a	0.12339111
